Models/artifact_2/dense_ae.pt (torch, 32194 bytes, 12 tensors)

enc.0.weight f4 [40, 60]
0.10429242 -0.12280367 0.057414576 0.019308463 -0.017172307 0.06849828 -0.0059604123 -0.1034352
0.08450052 -0.080380976 -0.039893962 0.03185892 0.1195115 -0.11275485 -0.110946834 0.11863275
-0.062159248 0.06435439 0.12340008 0.11371483 0.005747795 0.060987383 -0.08207447 -0.091072544
0.06209947 -0.02965311 0.0030793697 -0.05252158 -0.044222035 0.11474267 -0.111858666 0.04699725
0.005839139 0.077740476 -0.09252381 -0.10726544 -0.023422971 -0.07907302 0.086948484 0.06056212
-0.04830119 0.08179578 -0.11873492 0.04618554 -0.10491141 -0.01366967 -0.062101707 -0.09274675
-0.09486544 0.09717938 -0.086066246 0.03290859 -0.00037020445 -0.12278954 -0.0647228 -0.024323307
-0.04014232 -0.09389636 -0.013642967 0.033378214 0.056335 0.08290473 0.030951679 0.033386134
0.20846392 0.020179233 0.14080213 0.11765354 -0.06831386 0.084101945 0.05287193 0.061196096
0.11358413 0.012618895 -0.052294444 -0.05620471 0.02501856 -0.053121433 0.004357261 0.04479833
0.015463631 0.19799787 -0.021140467 0.06412897 -0.038339235 0.0434865 0.12907118 0.25772697
0.073920086 0.058294084 0.0053887893 -0.017049126 0.15013479 -0.011897208 -0.05537242 0.057131793
-0.060696423 -0.2061122 0.05809073 0.07041059 0.13670683 0.044400983 0.09586417 0.29046068
0.027441317 0.049348857 0.006804965 -0.05985285 0.026530156 0.08436473 0.12094756 -0.018115332
0.10213018 0.13814099 0.17389013 0.15660407 0.063321665 0.011644698 0.115312956 -0.101459034
0.03832151 0.11778235 0.09344155 -0.01729702 -0.03033883 0.073612064 -0.011061858 0.086044125
-0.04084412 0.12967461 0.057857875 0.107454166 -0.10045282 -0.013588393 -0.0623483 0.12752652
-0.0050046737 0.103031 0.03193706 -0.049853295 -0.042048663 -0.042531252 0.17280802 0.123386145
-0.07350441 0.076518394 0.03804093 -0.10103835 0.05724898 -0.038368348 0.45761704 0.06570062
0.097831786 0.0817209 -0.017818179 0.2590897 0.14501128 0.21476024 -0.06500153 0.18462087
0.16737466 -0.1059426 -0.06463696 0.06224483 -0.03245864 -0.008577145 -0.10770687 -0.005111299
0.12413569 -0.009714796 -0.08480682 0.074233636 0.0078586405 -0.15462334 0.04014636 0.054043934
0.10528842 -0.08245426 0.0736277 0.25155944 0.05216818 0.017555801 -0.004266642 -0.011111945
0.054654494 0.007433016 0.0052163373 -0.10030379 -0.041499566 0.023937985 0.11227561 -0.07699099
0.06949482 0.0037605516 0.06893737 0.012331848 0.048524387 0.09073526 0.1403878 0.029146269
0.08632274 0.468399 0.12603635 0.16425714 0.09251155 -0.08426399 0.09000228 -0.22078009
0.00033332242 0.13737707 -0.30405837 0.030900663 -0.04250075 -0.0060680304 0.15197337 0.03496752
0.20113792 0.3895458 0.094634406 0.065330595 0.10408022 0.13430345 0.05412606 -0.080192946
0.086479604 0.086613 -0.1125908 0.07842343 0.047134172 -0.019197462 0.12785129 0.097436905
0.11335748 0.16237251 0.2005949 0.07698844 0.013153816 0.017029975 -0.045250624 -0.19832033
0.09396396 0.06946521 0.025842957 0.096794695 0.069073565 0.02241016 0.11494349 -0.10073577
-0.07065239 0.06641574 0.13208605 0.013153626 0.11679911 0.09351286 0.10825142 0.039276022
00000000: 4497 d53d 7e80 fbbd 8c2b 6b3d c82c 9e3c
00000010: f0ac 8cbc d448 8c3d 904f c3bb d6d5 d3bd
00000020: 9c0e ad3d c89e a4bd da67 23bd 807e 023d
00000030: 72c2 f43d 04ec e6bd 1838 e3bd baf5 f23d
00000040: b29a 7ebd 3ccc 833d 2eb9 fc3d 52e3 e83d
00000050: 0058 bc3b e8cd 793d a916 a8bd 3e84 babd
00000060: 045c 7e3d 14eb f2bc 40cf 493b de20 57bd
00000070: 2a22 35bd 34fe ea3d 2816 e5bd 3080 403d
00000080: 4056 bf3b 6636 9f3d 207d bdbd fcad dbbd
00000090: 88e1 bfbc 09f1 a1bd 0c12 b23d fc0f 783d
000000a0: 78d7 45bd 8c84 a73d 4b2b f3bd 0c2d 3d3d
000000b0: cbdb d6bd c0f6 5fbc 5c5e 7ebd 02f2 bdbd
000000c0: d048 c2bd fc05 c73d 8043 b0bd 28cb 063d
000000d0: 0018 c2b9 1579 fbbd 638d 84bd ac41 c7bc
000000e0: 466c 24bd bc4c c0bd c086 5fbc 98b7 083d
000000f0: 87bf 663d f5c9 a93d 608e fd3c e6bf 083d
00000100: 9177 553e eb4e a53c 6f2e 103e 57f4 f03d
00000110: 23e8 8bbd a43d ac3d 3d90 583d c2a8 7a3d
00000120: cc9e e83d 7bbf 4e3c b332 56bd e936 66bd
00000130: b9f3 cc3c dc95 59bd 5bc7 8e3b 747e 373d
00000140: 2b5b 7d3c f4bf 4a3e c62e adbc 0d56 833d
00000150: 9a09 1dbd e61e 323d 3c2b 043e caf4 833e
00000160: 6a63 973d c7c5 6e3d 7194 b03b 9caa 8bbc
00000170: efbc 193e 82ec 42bc 31ce 62bd 0703 6a3d
00000180: d09c 78bd 140f 53be 8cf0 6d3d 6d33 903d
00000190: e0fc 0b3e cedd 353d 6f54 c43d 43b7 943e
000001a0: 9dcc e03c 0722 4a3d 2ffc de3b 4328 75bd
000001b0: c555 d93c 6ac7 ac3d 5bb3 f73d 9b66 94bc
000001c0: a129 d13d d574 0d3e 4110 323e d15c 203e
000001d0: caae 813d 67c9 3e3c 3329 ec3d c1c9 cfbd
000001e0: 04f7 1c3d df37 f13d 495e bf3d 7bb2 8dbc
000001f0: 2389 f8bc ecc1 963d cc3c 35bc e737 b03d
00000200: 2a4c 27bd 6cc9 043e 61fc 6c3d ee10 dc3d
00000210: 35ba cdbd daa1 5ebc ee60 7fbd 5096 023e
00000220: 3ffe a3bb eb01 d33d 6fd0 023d f832 4cbd
00000230: 383b 2cbd 4035 2ebd 96f4 303e e0b1 fc3d
00000240: 7b89 96bd adb5 9c3d ced0 1b3d 32ed cebd
00000250: e87d 6a3d 2128 1dbd c84c ea3e 0c8e 863d
00000260: 085c c83d 4a5d a73d 6ef7 91bc 68a7 843e
00000270: d67d 143e 1cea 5b3e 861f 85bd 410d 3d3e
00000280: 4364 2b3e 6ff8 d8bd 6260 84bd 6ff4 7e3d
00000290: 5af3 04bd 2787 0cbc 6b95 dcbd af7c a7bb
000002a0: da3a fe3d cf2a 1fbc 33af adbd ce07 983d
000002b0: 87c1 003c 9555 1ebe 8270 243d 2c5d 5d3d
000002c0: 75a1 d73d c7dd a8bd 1fca 963d 66cc 803e
000002d0: 4dae 553d 2fd1 8f3c 30cf 8bbb e00e 36bc
000002e0: 64dd 5f3d a890 f33b cfed aa3b 136c cdbd
000002f0: 73fb 29bd 9819 c43c c1f0 e53d 74ad 9dbd
00000300: 4d53 8e3d 9673 763b 092f 8d3d 850b 4a3c
00000310: 82c1 463d 68d3 b93d d2c1 0f3e 28c4 ee3c
00000320: fac9 b03d fed1 ef3e ac0f 013e 0633 283e
00000330: b276 bd3d 9992 acbd 1e53 b83d 2d14 62be
00000340: c7c1 ae39 93ac 0c3e 8aad 9bbe 6323 fd3c
00000350: 4415 2ebd 54d6 c6bb e89e 1b3e 1a3a 0f3d
00000360: 19f7 4d3e 8c72 c73e afcf c13d 0ccc 853d
00000370: 0328 d53d d886 093e 4ab3 5d3d 333c a4bd
00000380: 381c b13d 2862 b13d 0196 e6bd 779c a03d
00000390: c30f 413d ff43 9dbc 73eb 023e 008d c73d
000003a0: f727 e83d fb44 263e c068 4d3e 1dac 9d3d
000003b0: 1a83 573c 7282 8b3c b858 39bd 7c14 4bbe
000003c0: 2d70 c03d c743 8e3d 9cb4 d33c 4c3c c63d
000003d0: 7176 8d3d 8395 b73c 7e67 eb3d 8e4e cebd
000003e0: 33b2 90bd fa04 883d 9141 073e 4e82 573c
000003f0: 5f34 ef3d ac83 bf3d ecb2 dd3d e5df 203d

enc.0.bias f4 [40]
-0.11242263 -0.020171084 -0.12927721 -0.098143905 -0.13460688 -0.040691435 0.13927282 -0.04351127
0.07110048 -0.108691126 -0.027667806 -0.05192793 0.3236063 0.10367761 -0.12686126 -0.08015608
-0.21416968 -0.11056722 0.11799757 0.38355348 -0.09536128 -0.0086344285 -0.018197564 0.018769544
0.094495565 0.052658442 -0.07372513 -0.06915467 0.09475581 0.08987091 -0.026211595 0.051016673
-0.11123668 -0.07976077 -0.021826586 0.028199166 -0.0014773513 0.061511714 -0.09261898 -0.1278837
00000000: d63d e6bd d43d a5bc 3f61 04be acff c8bd
00000010: 63d6 09be 10ac 26bd 899d 0e3e e038 32bd
00000020: 219d 913d 7499 debd 98a7 e2bc 62b2 54bd
00000030: baaf a53e ed54 d43d ebe7 01be df28 a4bd
00000040: 4c4f 5bbe 1171 e2bd b6a8 f13d 1f61 c43e
00000050: c64c c3bd 6b77 0dbc 0f13 95bc 96c2 993c
00000060: e486 c13d 61b0 573d 33fd 96bd f7a0 8dbd
00000070: 560f c23d 3d0e b83d b3b9 d6bc dcf6 503d
00000080: 0ed0 e3bd 9d59 a3bd abcd b2bc f001 e73c
00000090: afa3 c1ba b5f3 7b3d 05af bdbd f2f3 02be

enc.2.weight f4 [20, 40]
-0.101095416 -0.01469273 -0.15970843 0.20584778 0.14230047 0.021187091 -0.004453514 0.11731361
-0.023102146 -0.06450594 0.08682609 -0.043653283 0.44135708 0.24836598 0.15743713 -0.11369143
0.07431722 0.097451486 0.056881696 -0.04630805 0.1365736 0.04611931 -0.238117 0.14449176
-0.11702502 0.00093730417 0.08630319 -0.2285075 -0.059588708 -0.16529861 -0.09219385 0.038757086
0.06346692 -0.13765089 0.32592908 0.13926934 0.12572479 -0.011527912 0.060343817 -0.14393324
0.10921295 0.15891044 -0.17656742 0.22073352 0.031545088 -0.024140432 0.23399627 0.077716514
0.21107888 -0.10862818 -0.08797669 -0.1497401 -0.41737238 0.4219678 0.045590386 -0.0026041495
0.20093384 0.12507986 0.026037216 0.19613414 -0.09839774 -0.067610756 -0.13565545 -0.057074778
-0.12542763 0.1980988 -0.039611988 0.025694147 -0.22379683 -0.120839484 0.00581288 -0.07948871
0.11977805 0.1660094 0.015849864 0.023263201 0.36917612 0.18440254 0.1346827 -0.083324745
-0.098532185 -0.059931256 0.072739415 0.12539445 0.0890547 0.20704834 0.014746584 0.082756445
0.10945263 0.10144648 0.15444604 0.0073260115 -0.12920925 0.185415 0.114754334 -0.13479511
0.17113599 -0.106094025 -0.06803985 -0.16081735 -0.082687534 -0.0702556 0.026307095 0.038177494
0.037876196 0.087462135 -0.064328335 -0.027734447 -0.0016278928 -0.032502122 0.061064392 0.032248974
0.006063387 0.11218804 0.17738187 0.011972994 0.021525864 -0.030721936 0.049867734 -0.088618614
0.05669664 -0.10938831 0.099284336 -0.037921585 -0.028677676 0.025610443 0.13974951 0.06464152
0.089596905 0.015301332 -0.0977043 0.13931338 0.11015587 -0.10495369 -0.032525554 0.15490465
-0.15635212 -0.0038956404 0.09085132 -0.15077817 -0.11572392 -0.09896219 -0.09036424 -0.13339879
0.07791366 0.09392244 -0.13734686 -0.15082647 0.07435889 0.017661855 -0.09240732 0.05601172
0.1144139 0.13272342 0.12481959 0.07940243 -0.15790306 -0.036449518 -0.092099525 -0.06802526
-0.10350169 0.0970042 -0.026941152 -0.17788626 -0.0337943 0.07918009 0.49809757 0.0807147
-0.092409626 -0.11781166 -0.1671373 0.2539803 0.33125788 0.09101462 0.010961831 -0.027868748
-0.08962788 -0.04709246 -0.09306729 -0.13045648 -0.15571612 0.0047356347 0.13921173 -0.041322656
0.028117076 -0.20166859 -0.05965805 0.1577728 0.09358032 0.1699149 -0.06374998 -0.02313903
-0.09447368 0.12596463 -0.024565712 0.03217277 0.077506594 -0.14050522 0.07292479 -0.014668194
0.14168398 0.024963455 -0.03546833 0.08708367 0.0645401 -0.04189825 0.16929762 0.15595333
-0.04088497 0.15458503 0.1274268 0.08104598 -0.13878039 -0.09592136 0.06471239 -0.1337319
0.08307423 -0.07304279 0.038620383 -0.29554543 0.01955818 -0.03575834 0.019210707 0.28953966
0.056980975 -0.0029497016 -0.118667446 0.103713684 0.108554944 0.08066227 -0.08690805 0.10930203
-0.029853895 -0.05699857 -0.107675985 0.086465836 0.03270432 0.19512996 -0.09906062 -0.055145726
-0.03178431 0.09613692 0.1769837 0.14201821 0.19336364 0.054306984 -0.23879728 0.061649933
0.1631389 -0.110624105 0.049872454 0.1637574 0.023685971 0.09890596 -0.06698857 -0.012785995
00000000: 1d0b cfbd c7b9 70bc 9b8a 23be c3c9 523e
00000010: 37b7 113e 8d90 ad3c c8ee 91bb 1e42 f03d
00000020: b640 bdbc b11b 84bd e1d1 b13d c9cd 32bd
00000030: 8ef9 e13e a753 7e3e 3337 213e 0dd7 e8bd
00000040: a033 983d a594 c73d c8fc 683d 83ad 3dbd
00000050: f3d9 0b3e 9ae7 3c3d f1d4 73be a6f5 133e
00000060: d0aa efbd 6bb5 753a babf b03d dffd 69be
00000070: 4a13 74bd 0a44 29be 21d0 bcbd c0bf 1e3d
00000080: f2fa 813d 5bf4 0cbe 2de0 a63e 9f9c 0e3e
00000090: 00be 003e 91df 3cbc 142b 773d 3c63 13be
000000a0: 0aab df3d 6bb9 223e 17ce 34be f807 623e
000000b0: 6c35 013d 28c2 c5bc b89c 6f3e d629 9f3d
000000c0: 1025 583e 7478 debd 1f2d b4bd 7855 19be
000000d0: d5b1 d5be 2a0c d83e fcbc 3a3d 61aa 2abb
000000e0: 9ac1 4d3e ef14 003e 004c d53c 63d7 483e
000000f0: c184 c9bd 8277 8abd 43e9 0abe 3ec7 69bd
00000100: 1a70 00be 69da 4a3e 2e40 22bd 887c d23c
00000110: ff2a 65be b17a f7bd f979 be3b faca a2bd
00000120: 324e f53d 5efe 293e 93d7 813c 7892 be3c
00000130: a704 bd3e 05d4 3c3e 43ea 093e 2aa6 aabd
00000140: 3ecb c9bd 7a7a 75bd 67f8 943d 6767 003e
00000150: 5062 b63d 7b04 543e a89b 713c 367c a93d
00000160: b328 e03d 2cc3 cf3d 1a27 1e3e 0a0f f03b
00000170: 6e4f 04be 6edd 3d3e 5204 eb3d bb07 0abe
00000180: 463e 2f3e d347 d9bd 7a58 8bbd 4ead 24be
00000190: 1558 a9bd 2be2 8fbd fa81 d73c 0160 1c3d
000001a0: 1224 1b3d 591f b33d 93be 83bd 5a33 e3bc
000001b0: 055f d5ba f220 05bd a81e 7a3d 8017 043d
000001c0: 60af c63b d8c2 e53d 98a3 353e 602a 443c
000001d0: 0257 b03c 92ac fbbc 1c42 4c3d ad7d b5bd
000001e0: bc3a 683d fa06 e0bd 9655 cb3d aa53 1bbd
000001f0: 72ed eabc fecc d13c 7f1a 0f3e c662 843d
00000200: 957e b73d 70b2 7a3c 3119 c8bd 2ba8 0e3e
00000210: 6799 e13d f6f1 d6bd 8439 05bd 539f 1e3e
00000220: c51a 20be 004e 7fbb 4210 ba3d 9865 1abe
00000230: aa00 edbd b0ac cabd e310 b9bd b199 08be
00000240: 3291 9f3d 695a c03d a8a4 0cbe 4172 1abe
00000250: 7949 983d 98af 903c 0d40 bdbd 8c6c 653d
00000260: d651 ea3d a6e8 073e 6aa1 ff3d be9d a23d
00000270: 57b1 21be 174c 15bd ad9e bcbd d450 8bbd
00000280: b2f8 d3bd 23aa c63d b1b3 dcbc d127 36be
00000290: e46b 0abd 2c29 a23d a506 ff3e c04d a53d
000002a0: 4241 bdbd 3d47 f1bd 0a26 2bbe b509 823e
000002b0: a29a a93e e065 ba3d 4099 333c 004d e4bc
000002c0: d28e b7bd 06e4 40bd 109a bebd 6296 05be
000002d0: 0c74 1fbe 622d 9b3b 858d 0e3e f241 29bd
000002e0: c855 e63c 3682 4ebe 005c 74bd 318f 213e
000002f0: 0aa7 bf3d 2cfe 2d3e 598f 82bd 108e bdbc
00000300: 6b7b c1bd dffc 003e 083e c9bc 98c7 033d
00000310: c7bb 9e3d 9ae0 0fbe 9859 953d dd52 70bc
00000320: 9b15 113e 2980 cc3c 3d47 11bd ec58 b23d
00000330: 9a2d 843d 809d 2bbd 5b5c 2d3e 3bb2 1f3e
00000340: 0077 27bd 8a4b 1e3e 2c7c 023e 6ffb a53d
00000350: 721c 0ebe 6b72 c4bd ee87 843d 04f1 08be
00000360: d222 aa3d 7597 95bd 6830 1e3d bb51 97be
00000370: 7a38 a03c 5677 12bd c65f 9d3c 8b3e 943e
00000380: e264 693d c84f 41bb eb07 f3bd d767 d43d
00000390: 0e52 de3d 4332 a53d d9fc b1bd bed9 df3d
000003a0: 2890 f4bc 5577 69bd 3a85 dcbd 0015 b13d
000003b0: f7f4 053d 26d0 473e 4be0 cabd 7ce0 61bd
000003c0: 4430 02bd 6fe3 c43d 373b 353e 396d 113e
000003d0: 1e01 463e 0071 5e3d 4687 74be a484 7c3d
000003e0: e20d 273e e48e e2bd 0f47 4c3d 05b0 273e
000003f0: 1509 c23c 358f ca3d 4e31 89bd 5a7c 51bc

enc.2.bias f4 [20]
-0.02374347 -0.04369714 -0.19674715 -0.072709806 0.07256345 0.15091337 -0.13828734 -0.15448296
0.028264722 -0.012771895 -0.18001238 0.25203678 -0.07652504 -0.03207016 -0.032900244 -0.065545514
0.08040409 -0.030191556 -0.054430246 -0.06726885
00000000: aa81 c2bc c6fb 32bd 1678 49be e1e8 94bd
00000010: 259c 943d 0989 1a3e 329b 0dbe c830 1ebe
00000020: 6b8b e73c 3641 51bc 2a55 38be f70a 813e
00000030: 29b9 9cbd 005c 03bd 68c2 06bd ba3c 86bd
00000040: e6aa a43d 4854 f7bc 40f2 5ebd 40c4 89bd

enc.4.weight f4 [10, 20]
-0.045146056 0.010627339 0.120767236 0.07839161 -0.10485621 0.11514746 -0.13705455 -0.17536712
-0.14312147 -0.14337638 0.01243481 -0.1250937 0.012056783 -0.082212105 -0.053120673 0.14381146
0.18967885 -0.09927153 0.09365541 -0.17079277 0.012711755 -0.0451858 -0.188254 0.20388573
0.12475411 -0.0640164 0.10589046 0.21948072 -0.096790895 -0.2130774 -0.094294555 0.082443684
0.14162719 0.022689268 -0.022823378 0.17636022 -0.23461032 0.11121091 0.13208711 0.09585953
0.03463632 -0.18119048 -0.18437232 0.18402427 0.20002964 0.019851238 -0.12746736 -0.217085
0.07156131 -0.014299825 0.0044923574 -0.20439392 0.111857116 0.117624044 -0.13977416 -0.18648025
-0.08241576 -0.14738776 -0.024456188 -0.16403529 0.16734576 0.30881202 -0.08307229 0.15860906
0.3127882 -0.18009084 0.06830178 -0.014302838 -0.12122908 -0.22296447 -0.89184004 0.27674603
-0.07913798 -0.029756203 -0.18321481 0.13271168 0.1853525 0.051318955 0.19733515 -0.08757588
-0.08800315 -0.17204098 0.049372826 0.03715086 -0.14621544 0.091345385 -0.10884177 -0.19292767
0.031575426 -0.026244722 0.18268402 0.006946454 -0.004784465 0.112020195 0.055809915 0.17376581
0.03378854 0.20944078 -0.07192622 -0.060715005 0.46924323 -0.13701534 -0.02732581 -0.022281468
0.030300014 -0.10736659 0.16769892 -0.20376772 -0.018969726 -0.17263938 0.26587984 0.12789282
0.13044459 -0.02296871 -0.001928702 -0.20551379 0.1698551 0.063902624 -0.1884641 0.209041
-0.21525985 0.37027794 0.29496917 -0.039772436 -0.18452023 0.111867376 0.2773176 -0.1923934
-0.16970415 -0.22252382 0.17709221 0.29109043 0.08900994 0.08821797 -0.045015976 0.005401656
0.029690037 0.23031093 0.17623481 -0.051157013 -0.009172745 0.12320599 -0.046885762 0.13840228
0.080956556 0.23471618 -0.2767197 0.15424094 0.14463925 0.09359211 0.079338185 0.38303798
0.057750136 -0.13777594 0.18291968 -0.0146540105 0.117621884 -0.122769825 -0.0012378842 -0.19750518
-0.37853497 -0.18213612 0.15514266 0.20515123 0.1155771 0.20644137 0.24835865 0.06562485
-0.008908105 -0.1463469 -0.08961782 0.07208558 0.19186643 0.058345497 -0.21651733 -0.1041
0.24118504 -0.16255914 -0.12028968 0.16219288 0.27286407 0.20987794 0.22833401 0.055232048
0.16092554 0.20401692 0.14733471 -0.18601029 0.2423678 -0.17943929 0.15580791 -0.71823615
0.078585654 0.055224597 -0.08024889 -0.044144213 0.031956736 -0.033288825 -0.0565138 -0.17514527
00000000: 12eb 38bd 4a1e 2e3c d054 f73d c88b a03d
00000010: dabe d6bd 6ed2 eb3d 0758 0cbe 7093 33be
00000020: 6f8e 12be 42d1 12be 60bb 4b3c 9018 00be
00000030: d089 453c d25e a8bd 1095 59bd 5043 133e
00000040: 2c3b 423e df4e cbbd 68ce bf3d 4de4 2ebe
00000050: f744 503c bf14 39bd a8c5 40be 6cc7 503e
00000060: 157f ff3d 081b 83bd 19dd d83d 8ebf 603e
00000070: 4e3a c6bd f630 5abe 811d c1bd 3cd8 a83d
00000080: b806 113e d8de b93c 18f8 babc c697 343e
00000090: b03d 70be 8cc2 e33d d841 073e 0052 c43d
000000a0: d0de 0d3d ff89 39be 19cc 3cbe dc70 3c3e
000000b0: 92d4 4c3e 109f a23c ce86 02be 884b 5ebe
000000c0: bc8e 923d d049 6abc a034 933b a44c 51be
000000d0: 5815 e53d e0e4 f03d f520 0fbe aef4 3ebe
000000e0: 98c9 a8bd d1ec 16be 5858 c8bc def8 27be
000000f0: b05c 2b3e 9c1c 9e3e ce21 aabd 6a6a 223e
00000100: c625 a03e bc69 38be cee1 8b3d 7356 6abc
00000110: f446 f8bd cc50 64be a14f 64bf a8b1 8d3e
00000120: 1813 a2bd 48c3 f3bc aa9c 3bbe 92e5 073e
00000130: 0ccd 3d3e d333 523d 3a12 4a3e fc5a b3bd
00000140: ff3a b4bd 832b 30be 293b 4a3d 802b 183d
00000150: 80b9 15be 4a13 bb3d 6fe8 debd d58e 45be
00000160: 3c55 013d 2cff d6bc 8511 3b3e 149f e33b
00000170: 00c7 9cbb d86a e53d f098 643d aaef 313e
00000180: da65 0a3d a577 563e 0e4e 93bd 4cb0 78bd
00000190: a640 f03e c04d 0cbe 61da dfbc a087 b6bc
000001a0: bc37 f83c 04e3 dbbd 44b9 2b3e 7ca8 50be
000001b0: 6666 9bbc 61c8 30be 6721 883e 56f6 023e
000001c0: 4493 053e e028 bcbc 80cc fcba 3572 52be
000001d0: 7fee 2d3e 61df 823d bcfc 40be d80e 563e
000001e0: 146d 5cbe 1295 bd3e 3306 973e 6ce8 22bd
000001f0: dff2 3cbe b91a e53d 93fc 8d3e c702 45be
00000200: edc6 2dbe 49dd 63be a957 353e ce09 953e
00000210: d84a b63d a0ab b43d ac62 38bd 6000 b13b
00000220: 8538 f33c a1d6 6b3e e676 343e 048a 51bd
00000230: 4849 16bc 6c53 fc3d 490b 40bd 54b9 0d3e
00000240: 8dcc a53d 7059 703e 34ae 8dbe 56f1 1d3e
00000250: 501c 143e 38ad bf3d 0f7c a23d 8e1d c43e
00000260: 688b 6c3d 2315 0dbe 4c4f 3b3e 6017 70bc
00000270: bee3 f03d bf6e fbbd 8040 a2ba cc3e 4abe
00000280: 56cf c1be e481 3abe b8dd 1e3e 2a13 523e
00000290: b0b3 ec3d 5e65 533e bb51 7e3e 5266 863d
000002a0: 4df3 11bc f6db 15be 8c89 b7bd 9ba1 933d
000002b0: a278 443e b0fb 6e3d b8b6 5dbe 6132 d5bd
000002c0: 36f9 763e e775 26be 705a f6bd e415 263e
000002d0: d7b4 8b3e 3eea 563e 64d0 693e 003b 623d
000002e0: aac9 243e d0e9 503e e9de 163e 7b79 3ebe
000002f0: 442f 783e efbe 37be 1c8c 1f3e 53de 37bf
00000300: 84f1 a03d 3033 623d 8859 a4bd 90d0 34bd
00000310: 11e5 023d dd59 08bd 047b 67bd 4859 33be

enc.4.bias f4 [10]
-0.19298472 0.19918495 -0.17807119 0.08495813 -0.031817764 -0.28363493 -0.090959646 -0.08720594
-0.05271797 -0.03056591
00000000: c99d 45be 24f7 4b3e 4b58 36be 87fe ad3d
00000010: 5853 02bd 9938 91be 0d49 babd 0799 b2bd
00000020: ccee 57bd 5c65 fabc

dec.0.weight f4 [20, 10]
0.086492136 -0.021277795 -0.012816846 -0.25382334 -0.30286348 0.37602004 0.30139497 -0.06318514
0.24102233 0.3317856 0.05321443 0.24764715 0.12390432 0.12367245 0.1964758 -0.031592906
-0.33181205 -0.009083646 -0.017591579 -0.27248532 -0.07491686 -0.27109548 -0.07173899 0.28606015
0.15304893 0.020120755 -0.039775193 -0.20977591 -0.30852607 0.29164097 0.25433597 0.057477623
-0.25692624 0.14070119 -0.028838802 -0.033666372 -0.14994895 -0.3871274 0.24434483 0.26573548
-0.26704493 0.25239375 -0.015391111 -0.2792716 0.050539892 0.15274003 -0.22362742 -0.24793944
-0.02048656 -0.18092208 -0.18970357 0.09581795 -0.27452475 0.18367442 -0.18197714 0.23947129
0.17681311 0.012112934 -0.32674605 -0.27350107 0.021829486 -0.30997568 0.195775 -0.28228992
-0.20788504 -0.19139487 -0.20879754 0.2847424 -0.25933915 0.057477236 0.2912167 -0.19450945
0.048807144 -0.22728863 -0.15870577 -0.18671358 0.016816556 0.22237644 -0.24028274 -0.18188274
-0.24199578 0.020175934 0.056231827 0.094227 -0.1054136 -0.11089993 0.113051526 -0.06285546
0.3637889 0.2100928 -0.29935843 -0.10476947 -0.13923599 0.27550218 -0.2875368 0.44964665
0.28395233 -0.32761657 -0.084616534 -0.140007 -0.16194335 -0.25622174 0.103310406 0.091347456
-0.30585387 -0.22968899 0.035068523 -0.25270894 -0.06567558 0.36226964 -0.18025199 -0.13884194
-0.026990086 -0.14459546 0.017939806 -0.031438716 0.23229994 -0.07219231 -0.15037115 -0.27153948
-0.2749179 -0.13061054 0.15950221 -0.04925169 -0.033025846 0.16710879 0.21084668 -0.33154684
-0.18523282 0.085244626 -0.16485964 -0.025325453 0.09067887 0.017494794 0.075001806 -0.025804501
0.3998861 -0.44157934 0.41198814 0.04148262 0.122048445 -0.118571766 0.2582082 -0.08854721
-0.20761195 0.26156333 -0.06624838 -0.057703264 0.23814923 0.06420149 0.23531213 0.07481393
0.24318293 -0.0895942 0.022916108 -0.20191967 0.27071032 -0.31058604 -0.26007193 -0.009539485
-0.2816481 -0.0033845948 -0.16205804 0.36285862 -0.24685812 0.119936004 0.062379442 -0.11298933
0.3700529 0.06217991 0.2399834 -0.27586237 -0.24630588 0.23388974 -0.06385341 -0.3743638
0.1684636 0.6166582 -0.10609818 0.24451856 -0.0309515 -0.01305756 -0.117964044 -0.20329562
-0.27595192 0.0069088936 -0.28608397 0.050409406 -0.09170231 -0.19329683 -0.01709491 -0.23612359
-0.23283778 0.19546004 -0.04135424 0.12769084 -0.056783397 0.40388831 0.22756852 0.18665668
00000000: ca22 b13d c54e aebc c0fd 51bc 22f5 81be
00000010: ec10 9bbe b385 c03e 7150 9a3e 3667 81bd
00000020: 8fce 763e cddf a93e 60f7 593d 3797 7d3e
00000030: 8cc1 fd3d fb47 fd3d f430 493e 9067 01bd
00000040: 45e3 a9be 93d3 14bc 371c 90bc 3283 8bbe
00000050: 036e 99bd 07cd 8abe e4eb 92bd 7a76 923e
00000060: dcb8 1c3e 48d4 a43c 50eb 22bd 7fcf 56be
00000070: 21f7 9dbe f751 953e 5338 823e a86d 6b3d
00000080: d68b 83be f913 103e 5a3f ecbc c0e5 09bd
00000090: 388c 19be 9035 c6be 8835 7a3e 7b0e 883e
000000a0: 1dba 88be c139 813e 002b 7cbc b0fc 8ebe
000000b0: eb02 4f3d e267 1c3e 96fe 64be d6e3 7dbe
000000c0: 6ed3 a7bc a343 39be a741 42be 343c c43d
000000d0: 828e 8cbe 2615 3c3e 3758 3abe f637 753e
000000e0: 7f0e 353e 5475 463c 424b a7be 5508 8cbe
000000f0: c0d3 b23c 22b5 9ebe 3e79 483e 4e88 90be
00000100: d1df 54be 04fd 43be 06cf 55be c1c9 913e
00000110: 1ac8 84be 406d 6b3d 5b1a 953e 7c2d 47be
00000120: 00ea 473d 5abe 68be c483 22be d831 3fbe
00000130: e0c2 893c a6b6 633e ae0c 76be 783f 3abe
00000140: becd 77be 0048 a53c 5853 663d 16fa c03d
00000150: 16e3 d7bd 811f e3bd 8f87 e73d 5dba 80bd
00000160: 8a42 ba3e 9122 573e 8245 99be 6091 d6bd
00000170: e193 0ebe 9f0e 8d3e 0638 93be 1638 e63e
00000180: 3362 913e 5cbd a7be 6f4b adbd ff5d 0fbe
00000190: 7ad4 25be 7f2f 83be 6894 d33d 6014 bb3d
000001a0: e198 9cbe 9733 6bbe 03a4 0f3d 1163 81be
000001b0: eb80 86bd 687b b93e fa93 38be 952c 0ebe
000001c0: 501a ddbc d510 14be 80f6 923c e2c5 00bd
000001d0: 09e0 6d3e 90d9 93bd e5fa 19be 3907 8bbe
000001e0: 0ac2 8cbe c5be 05be 8c54 233e 24bc 49bd
000001f0: 1c46 07bd 911e 2b3e 31e8 573e 82c0 a9be
00000200: acad 3dbe bc94 ae3d f7d0 28be 5377 cfbc
00000210: d8b5 b93d 3e51 8f3c 8c9a 993d f663 d3bc
00000220: dfbd cc3e b016 e2be 1cf0 d23e aee9 293d
00000230: 89f4 f93d c1d5 f2bd dd33 843e 3d58 b5bd
00000240: 3a98 54be a1eb 853e 3bad 87bd 425a 6cbd
00000250: 64dd 733e 127c 833d aaf5 703e 0c38 993d
00000260: f204 793e 2a7d b7bd 90ba bb3c 08c4 4ebe
00000270: 8b9a 8a3e 2205 9fbe 2628 85be 804b 1cbc
00000280: 2e34 90be 14d0 5dbb 8bf2 25be 9bc8 b93e
00000290: 60c8 7cbe 02a1 f53d 9681 7f3d f366 e7bd
000002a0: 9377 bd3e 5cb0 7e3d 35be 753e d53d 8dbe
000002b0: 9c37 7cbe cb80 6f3e 94c5 82bd 9dac bfbe
000002c0: b981 2c3e 50dd 1d3f 014a d9bd 1363 7a3e
000002d0: 008e fdbc 60ef 55bc 2297 f1bd ba2c 50be
000002e0: 9249 8dbe 0064 e23b 9979 92be 187a 4e3d
000002f0: 6cce bbbd 9bef 45be a00a 8cbc 62ca 71be
00000300: 076d 6ebe ad26 483e 1063 29bd 63c1 023e
00000310: b595 68bd 73ca ce3e b907 693e ee22 3f3e

dec.0.bias f4 [20]
0.16747507 0.26951456 0.053326342 0.08533443 0.04565575 -0.2031977 -0.023854315 0.0017027855
-0.32242078 -0.060213055 0.12939376 -0.0015261036 0.15824977 0.008412094 0.16388057 -0.12993637
-0.12574887 -0.14604542 0.005561739 -0.23894635
00000000: 967e 2b3e d0fd 893e b96c 5a3d d1c3 ae3d
00000010: 8601 3b3d 0f13 50be 206a c3bc 0030 df3a
00000020: 5614 a5be f7a1 76bd cc7f 043e 8a07 c8ba
00000030: 3a0c 223e e1d2 093c 4fd0 273e 0a0e 05be
00000040: 50c4 00be ee8c 15be 403f b63b 5aae 74be

dec.2.weight f4 [40, 20]
0.15287423 -0.14011858 -0.16882358 -0.05273943 0.028092146 -0.11394827 -0.14256111 -0.19066659
0.07184655 -0.22905922 -0.039318334 0.13262591 -0.10694639 -0.17800395 -0.11389229 0.053951323
-0.18893783 0.001067577 0.15116537 0.07420042 -0.07604805 0.13233657 -0.16611785 -0.06709688
-0.014396974 0.07549592 0.08335242 -0.20722505 -0.048984088 -0.115954235 -0.041401353 0.16945353
-0.27196085 0.31068048 -0.11405843 -0.117920846 0.23680754 0.32037592 -0.16769058 0.07996699
0.07227924 -0.06440518 -0.15900324 -0.008727782 0.013471608 0.05306692 0.051380396 -0.12257514
0.06744346 -0.15385664 0.056584276 0.2109792 -0.057055455 0.2320058 0.06759975 0.07816771
0.1759172 0.13279326 0.16467047 -0.028003693 0.034212284 0.09434568 0.17536224 -0.24362095
0.16486302 0.12812942 -0.09055528 0.20418668 -0.049975157 0.06789071 0.20749602 0.07157755
-0.09508983 0.14797278 -0.043707635 0.10153645 -0.04254324 -0.008044323 -0.011353701 0.0131076155
-0.024783567 0.19013342 -0.16802584 0.023086175 0.058557916 0.17017855 0.18538383 0.09899223
-0.30129784 -0.1878159 0.18014474 -0.18330662 0.0041050194 -0.16001257 0.21918161 0.17423227
-0.022046672 0.056461945 0.051333457 0.015139592 0.11563899 0.11931791 0.43644306 0.14500542
0.0114392005 0.023815574 0.011899427 0.11627954 0.014436945 0.13337936 0.1624036 -0.20294316
0.06634085 0.047519706 -0.032108117 0.12078071 -0.009089699 -0.014797826 -0.14211005 0.10996274
0.11623766 0.035932273 0.13280939 0.13976942 0.17923462 0.08022183 0.15186697 0.04377541
-0.120655365 -0.086241566 -0.103398465 -0.1642625 0.00041026887 -0.17928149 -0.1034372 0.18668869
-0.11048912 0.06129901 0.07361594 -0.09933979 -0.14134586 -0.1112719 0.16094354 0.09764266
-0.19412291 0.046149373 -0.19239071 -0.19720156 0.07686046 -0.0074786395 -0.030133545 -0.106524125
-0.055304438 -0.21169798 0.15346828 -0.12768102 0.0670307 0.042134017 0.20980936 -0.1609551
-0.08449923 -0.25239536 -0.25480765 0.10246787 0.13611794 0.20041393 -0.041642815 -0.027779713
-0.102814995 -0.28834453 -0.012983202 -0.1868947 -0.32211185 0.0888755 0.19668497 0.18538308
0.12161004 -0.17453898 0.01347658 0.050470322 0.21691799 -0.12187812 -0.038632806 -0.19697228
-0.16306031 -0.09054409 0.04807213 -0.17021103 -0.24626563 0.17593181 0.11998837 0.18931791
0.26209787 -0.21965109 -0.18036555 0.11083534 -0.15971562 0.2964983 0.09935683 0.23863752
-0.02733174 0.06501335 -0.098874144 -0.08154835 0.10340083 0.13204789 -0.0053476244 0.028788775
-0.01573798 0.11604345 0.0014421493 0.015373111 -0.15002546 0.03333965 0.22064573 -0.17571408
0.044424146 0.124862105 -0.022519365 -0.2085676 -0.20921876 0.082648486 -0.12752104 0.17772606
-0.16741715 0.1599642 -0.11244375 -0.07393575 -0.111596175 -0.22316363 0.19816458 -0.023328409
-0.17617883 0.1286132 0.18903473 0.054030478 -0.026710778 -0.07484612 0.074878305 -0.17211616
0.034355693 -0.03053312 0.018982705 -0.033092983 -0.10829863 0.18563437 0.06597507 -0.18023926
-0.31709328 0.024479816 0.018021053 -0.11643037 0.15169719 0.16314892 -0.025936743 -0.18762851
00000000: 108b 1c3e 3f7b 0fbe 17e0 2cbe 4d05 58bd
00000010: 8021 e63c b65d e9bd 8afb 11be 1a3e 43be
00000020: 4924 933d 808e 6abe 430c 21bd 16cf 073e
00000030: b506 dbbd ab46 36be 5c40 e9bd 10fc 5c3d
00000040: eb78 41be f1ed 8b3a 18cb 1a3e 64f6 973d
00000050: 14bf 9bbd 3d83 073e cc1a 2abe 176a 89bd
00000060: 49e1 6bbc 9b9d 9a3d acb4 aa3d ce32 54be
00000070: 8aa3 48bd 6a79 edbd 7794 29bd 3a85 2d3e
00000080: 743e 8bbe 8311 9f3e 7797 e9bd 7c80 f1bd
00000090: ad7d 723e 5008 a43e 14b7 2bbe bcc5 a33d
000000a0: 2307 943d dde6 83bd bfd1 22be f9fe 0ebc
000000b0: 05b8 5c3c b35c 593d 4074 523d ad08 fbbd
000000c0: cc1f 8a3d 988c 1dbe eac4 673d ee0a 583e
000000d0: fbb2 69bd ee92 6d3e bd71 8a3d 6416 a03d
000000e0: a323 343e f5fa 073e 609f 283e 0068 e5bc
000000f0: 2e22 0c3d 4f38 c13d 2992 333e c577 79be
00000100: dad1 283e 5c34 033e 0c75 b9bd 5016 513e
00000110: c0b2 4cbd 490a 8b3d d679 543e 4097 923d
00000120: 75be c2bd 2d86 173e c706 33bd 58f2 cf3d
00000130: d241 2ebd 56cc 03bc e004 3abc 53c1 563c
00000140: e806 cbbc 56b2 423e f70e 2cbe 381f bd3c
00000150: 6dda 6f3d 4943 2e3e 42d5 3d3e 70bc ca3d
00000160: b643 9abe d052 40be dd77 383e bbb4 3bbe
00000170: 6683 863b 56da 23be 2571 603e f269 323e
00000180: 399b b4bc a444 673d 0843 523d 0d0c 783c
00000190: 23d4 ec3d f35c f43d 7775 df3e 4d7c 143e
000001a0: 7c6b 3b3c e118 c33c d0f5 423c f823 ee3d
000001b0: f088 6c3c 9994 083e 214d 263e 55d0 4fbe
000001c0: b6dd 873d 06a4 423d cd83 03bd e05b f73d
000001d0: f6ec 14bc 9572 72bc 4c85 11be 2534 e13d
000001e0: 030e ee3d b82d 133d 2fff 073e b71f 0f3e
000001f0: 4889 373e 584b a43d 0483 1b3e d84d 333d
00000200: 291a f7bd 6b9f b0bd 93c2 d3bd 6e34 28be
00000210: 5b19 d739 9195 37be e2d6 d3bd 522b 3f3e
00000220: 1f48 e2bd ac14 7b3d f4c3 963d a972 cbbd
00000230: f8bc 10be 86e2 e3bd 62ce 243e e0f8 c73d
00000240: 28c8 46be 2007 3d3d 1202 45be 35ef 49be
00000250: 0469 9d3d 600f f5bb a0da f6bc 5229 dabd
00000260: e886 62bd 5bc7 58be ca26 1d3e d0be 02be
00000270: 6447 893d b894 2c3d 44d8 563e 6ad1 24be
00000280: ef0d adbd f739 81be 2676 82be adda d13d
00000290: 8062 0b3e 4f39 4d3e a891 2abd 4892 e3bc
000002a0: ab90 d2bd e5a1 93be 7fb7 54bc 5361 3fbe
000002b0: d8eb a4be 5c04 b63d c967 493e 10d5 3d3e
000002c0: af0e f93d 59ba 32be e0cc 5c3c f8b9 4e3d
000002d0: c01f 5e3e 3c9b f9bd 6f3d 1ebd 1ab3 49be
000002e0: 48f9 26be 2e6f b9bd 48e7 443d cd4b 2ebe
000002f0: 0f2d 7cbe 7827 343e 76bc f53d 8edc 413e
00000300: b131 863e 37ec 60be bfb1 38be a4fd e23d
00000310: 7e8c 23be a0ce 973e 987b cb3d 655d 743e
00000320: d0e6 dfbc b825 853d 877e cabd d202 a7bd
00000330: d0c3 d33d 9037 073e 203b afbb 70d6 eb3c
00000340: f0ec 80bc 30a8 ed3d 8006 bd3a 80df 7b3c
00000350: 46a0 19be 288f 083d f4f0 613e 64ee 33be
00000360: 18f6 353d b4b7 ff3d 887a b8bc bf92 55be
00000370: 713d 56be 9c43 a93d e094 02be d2fd 353e
00000380: 676f 2bbe a8cd 233e e948 e6bd a06b 97bd
00000390: 898c e4bd 0285 64be a8eb 4a3e 381b bfbc
000003a0: 3968 34be 2eb3 033e 5292 413e 104f 5d3d
000003b0: 90d0 dabc ec48 99bd cc59 993d 383f 30be
000003c0: 8eb8 0c3d 9820 fabc 9e81 9b3c 828c 07bd
000003d0: accb ddbd f016 3e3e f01d 873d a490 38be
000003e0: 0d5a a2be e589 c83c e3a0 933c 0c73 eebd
000003f0: 8256 1b3e 8310 273e 4b79 d4bc b021 40be

dec.2.bias f4 [40]
-0.093585186 0.14046054 0.11098943 0.21961208 0.14699565 0.07873867 0.23647259 -0.16817792
0.2598488 -0.05216624 -0.1971642 -0.061505035 0.27999318 -0.072902635 0.20668639 0.10371092
0.06669617 -0.2102393 -0.03907206 -0.057522055 0.08177083 -0.0499468 -0.08606322 -0.0875036
-0.089676104 0.20307453 -0.12232316 0.2892227 0.033391383 -0.0743608 0.05007604 -0.15669142
0.071290225 0.22825775 -0.17675324 0.24374895 0.077857666 0.1855347 -0.16154829 0.10808392
00000000: 97a9 bfbd e3d4 0f3e 6d4e e33d fde1 603e
00000010: 0786 163e bd41 a13d df25 723e d536 2cbe
00000020: e70a 853e 44ac 55bd 69e5 49be b4ec 7bbd
00000030: 445b 8f3e fa4d 95bd 99a5 533e 6466 d43d
00000040: 0098 883d f948 57be 060a 20bd 3f9c 6bbd
00000050: 7777 a73d 0495 4cbd ea41 b0bd 1635 b3bd
00000060: 1ba8 b7bd c5f2 4f3e 9184 fabd ff14 943e
00000070: 67c5 083d 7a4a 98bd 891c 4d3d b773 20be
00000080: 9c00 923d 66bc 693e cdfe 34be 5399 793e
00000090: d773 9f3d cffc 3d3e ea6c 25be 1a5b dd3d

dec.4.weight f4 [60, 40]
0.038899302 0.008846105 0.087908044 0.048774872 0.15308544 -0.02378231 0.12918574 -0.14190076
0.100957856 0.13466801 0.014046624 -0.116264686 -0.0021514187 -0.0019579397 0.00085603824 0.034253344
-0.0450593 -0.08011175 -0.046719268 0.012206838 -0.007831058 -0.06457278 0.11306958 -0.11669178
0.15723874 -0.061016038 0.37969998 0.009498002 0.16443725 -0.023832053 0.04665063 0.054161545
0.039903104 -0.07223097 -0.12844457 0.060205914 0.037693035 0.13006258 0.1528164 0.2007618
0.1418057 0.21327405 0.015896585 0.05216997 0.15809077 0.08192352 -0.04269986 -0.04601352
0.20155036 0.2141562 -0.08084055 -0.077483945 0.023177672 0.16721088 0.17278811 0.0641297
-0.040718235 -0.15107158 0.20686162 -0.0063985507 0.029356305 -0.13946286 0.14580934 -0.097638406
0.077612564 -0.03974931 0.20652026 0.06032611 -0.08547373 0.03409645 0.12978567 -0.114505164
0.10242657 -0.09503916 0.0024898718 0.041530434 0.031961724 0.15263925 -0.1278363 0.19499135
0.14101996 0.16574512 0.18969454 0.025096145 0.124241754 0.020229101 0.1252359 -0.046688884
0.021256318 -0.08083746 -0.11671598 -0.055121183 0.12882727 0.22304095 0.0749139 0.21224321
0.04522492 -0.12085066 0.2793114 0.16767171 0.14795673 -0.11193833 0.0932882 0.06546812
0.21557996 0.22047067 -0.025881045 0.069409 -0.0593939 -0.094670705 -0.05577791 -0.05299933
-0.13307 0.1471658 0.18902296 -0.07322562 0.09637402 -0.014535553 0.10291149 -0.04177053
-0.097569235 0.19867538 0.1805144 0.038281783 0.15977046 0.07277275 0.23715833 0.13496394
-0.044350896 -0.1326088 -0.023517087 0.035189927 0.079642646 0.14243217 0.101347595 0.01955403
-0.15599659 -0.07646936 0.14015038 0.065623276 0.1521709 0.17801577 -0.124750674 0.09443508
0.0036615497 0.21332204 -0.29551288 0.25999627 -0.083725415 0.097544745 -0.08254438 -0.08460801
0.11899941 0.09436373 0.073608 0.079621 0.039549932 0.26484826 -0.14906348 0.16339819
-0.0092385225 -0.16385283 0.02502041 0.028139072 0.18581317 0.2411652 0.2113551 -0.05240415
-0.16484655 -0.09239667 -0.13129692 -0.050715595 -0.009233863 -0.006362495 0.0002874572 -0.08887497
0.111362055 0.12739986 0.23198059 0.046774272 0.10535019 0.15814586 -0.15280738 -0.056596726
0.12682265 0.034558326 -0.058513414 -0.16555767 0.21794736 0.025512695 -0.07968648 -0.08869503
0.06425434 0.06082257 0.2872777 0.00089199335 0.075050004 0.14342152 0.1062908 0.22127175
-0.058492243 -0.042559966 -0.021013698 -0.075826086 0.17284852 0.06956607 0.0009151409 -0.049009018
-0.018998511 0.055081833 -0.0061633885 -0.0813547 0.11340064 -0.010258702 -0.017209044 0.018742634
0.0558971 0.09487812 -0.02257457 -0.054081693 0.100805566 0.046950463 0.0052667707 0.042044863
0.018038992 0.07398016 -0.07647133 0.050998412 0.32019556 0.11336313 -0.119873926 -0.12864122
0.05485654 0.21352619 -0.14287546 0.118900746 -0.10445884 0.040548258 0.024375483 0.08039418
-0.090214826 0.00011541001 0.16173148 -0.016191019 0.12957709 0.1592709 0.15338795 -0.0694954
0.033872496 0.053807367 0.12666236 0.05961387 0.02310602 0.061471388 0.10879235 0.0894718
00000000: e054 1f3d 41ef 103c 2209 b43d 29c8 473d
00000010: 6ec2 1c3e 1ed3 c2bc 4449 043e 6f4e 11be
00000020: fec2 ce3d 69e6 093e d023 663c 2e1c eebd
00000030: d1fe 0cbb c750 00bb c167 603a 3c4d 0c3d
00000040: 1a90 38bd a111 a4bd b45c 3fbd 30ff 473c
00000050: d74d 00bc bc3e 84bd 0691 e73d 1afc eebd
00000060: 3103 213e f4eb 79bd 0968 c23e 829d 1b3c
00000070: 3d62 283e 703b c3bc bb14 3f3d 7fd8 5d3d
00000080: 7071 233d d5ed 93bd f986 03be 7a9a 763d
00000090: 0364 1a3d 202f 053e e77b 1c3e 8094 4d3e
000000a0: 8335 113e 8364 5a3e 8e39 823c 2eb0 553d
000000b0: 8ce2 213e 85c7 a73d 0ce6 2ebd ac78 3cbd
000000c0: 3863 4e3e c34b 5b3e bb8f a5bd e7af 9ebd
000000d0: 1adf bd3c 5439 2b3e 5eef 303e 6f56 833d
000000e0: 2ac8 26bd 82b2 1abe 88d3 533e efaa d1bb
000000f0: a27c f03c 5acf 0ebe 0b4f 153e a5f6 c7bd
00000100: 56f3 9e3d 2cd0 22bd 0c7a 533e 8318 773d
00000110: da0c afbd b8a8 0b3d 89e6 043e af81 eabd
00000120: 06c5 d13d e4a3 c2bd 1e2d 233b d11b 2a3d
00000130: 4cea 023d 774d 1c3e 85e7 02be d0ab 473e
00000140: 8967 103e 17b9 293e 493f 423e 6e96 cd3c
00000150: 7672 fe3d 80b7 a53c d73d 003e d83c 3fbd
00000160: bb21 ae3c 1c8e a5bd ca08 efbd c0c6 61bd
00000170: 4ceb 033e d964 643e 756c 993d 4956 593e
00000180: c43d 393d 8d80 f7bd e701 8f3e 22b2 2b3e
00000190: f881 173e ec3f e5bd e20d bf3d 2614 863d
000001a0: fec0 5c3e 10c3 613e 7c04 d4bc 4e26 8e3d
000001b0: 0547 73bd b7e2 c1bd 6177 64bd d315 59bd
000001c0: 8143 08be a2b2 163e 3c8f 413e 50f7 95bd
000001d0: be5f c53d 8726 6ebc 42c3 d23d 9317 2bbd
000001e0: 61d2 c7bd 8f71 4b3e c4d8 383e 5ccd 1c3d
000001f0: de9a 233e e109 953d a2d9 723e fd33 0a3e
00000200: 49a9 35bd 9aca 07be e8a6 c0bc 5023 103d
00000210: af1b a33d bdd9 113e 548f cf3d c62f a03c
00000220: 92bd 1fbe f89b 9cbd 9583 0f3e 7f65 863d
00000230: b0d2 1b3e c449 363e 487d ffbd 2e67 c13d
00000240: 9cf6 6f3b 1871 5a3e 774d 97be 3b1e 853e
00000250: 3b78 abbd 8ac5 c73d 070d a9bd f746 adbd
00000260: f6b5 f33d c541 c13d cbbf 963d 5610 a33d
00000270: 1cff 213d 319a 873e 19a4 18be db51 273e
00000280: 2c5d 17bc 09c9 27be 9af7 cc3c e983 e63c
00000290: cf45 3e3e 03f4 763e 796d 583e bca5 56bd
000002a0: 89cd 28be 773a bdbd b372 06be 28bb 4fbd
000002b0: a149 17bc 7a7c d0bb dab5 9639 1504 b6bd
000002c0: ca11 e43d 1c75 023e 528c 6d3e 6196 3f3d
000002d0: d7c1 d73d fdf0 213e 8a79 1cbe f8d1 67bd
000002e0: ccdd 013e 088d 0d3d c3ab 6fbd f387 29be
000002f0: 982d 5f3e 0000 d13c aa32 a3bd bda5 b5bd
00000300: c897 833d 1621 793d 1016 933e a9d4 693a
00000310: d1b3 993d 17dd 123e feae d93d 1095 623e
00000320: 9095 6fbd 5c53 2ebd eb24 acbc b54a 9bbd
00000330: 34ff 303e a878 8e3d 11e6 6f3a aebd 48bd
00000340: c4a2 9bbc 7d9d 613d 40f6 c9bb 4b9d a6bd
00000350: 983e e83d 1d14 28bc fbf9 8cbc 278a 993c
00000360: 5cf4 643d 764f c23d 4eee b8bc c484 5dbd
00000370: 2673 ce3d 214f 403d e094 ac3b 3c37 2c3d
00000380: 82c6 933c e982 973d 009d 9cbd b6e3 503d
00000390: acf0 a33e ee2a e83d 7680 f5bd 86ba 03be
000003a0: 40b1 603d 9ca6 5a3e f24d 12be 3c82 f33d
000003b0: 84ee d5bd ee15 263d 18af c73c b4a5 a43d
000003c0: 8dc2 b8bd 4708 f238 f09c 253e 07a3 84bc
000003d0: dbaf 043e e917 233e bb11 1d3e 9b53 8ebd
000003e0: e3bd 0a3d 1d65 5c3d c7b3 013e ac2d 743d
000003f0: d648 bd3c 6cc9 7b3d 86ce de3d fe3c b73d

dec.4.bias f4 [60]
0.122138046 0.08955677 -0.0043444294 -0.014805993 -0.00025363482 0.22144812 0.095499136 0.1783204
-0.053749993 -0.018822875 0.19308867 0.03897946 0.032792144 0.13645658 -0.04642644 0.033874877
0.20752522 -0.048373677 -0.0002981463 -0.041633584 -0.010073511 0.006318873 0.06152256 0.14009246
-0.045564417 -0.014482311 -0.032542128 0.080771424 0.05935235 0.15146044 -0.051019933 -0.043595534
0.09849576 0.09739672 0.20834309 0.1896272 -0.011420089 0.08017947 0.08078025 0.056566566
-0.13040678 0.00095656933 0.032071423 -0.10373896 -0.0218161 -0.08812044 0.12958466 0.20765744
0.004227559 0.027746838 -0.07034415 0.052219406 0.21607919 -0.054957885 -0.1242412 0.20679271
0.11472286 -0.0030963712 0.05644157 -0.045021776
00000000: 8323 fa3d 8a69 b73d b75b 8ebb d694 72bc
00000010: 4afa 84b9 4cc3 623e 0d95 c33d 9f99 363e
00000020: f428 5cbd 6e32 9abc 09b9 453e eda8 1f3d
00000030: 0e51 063d 46bb 0b3e a729 3ebd 62c0 0a3d
00000040: 7e81 543e 7a23 46bd 8550 9cb9 fa87 2abd
00000050: 5e0b 25bc 8c0e cf3b 14ff 7b3d 6674 0f3e
00000060: c1a1 3abd 3747 6dbc e54a 05bd 7d6b a53d
00000070: 731b 733d 7218 1b3e 47fa 50bd 3b91 32bd
00000080: 25b8 c93d ee77 c73d e457 553e a22d 423e
00000090: 531b 3bbc 2235 a43d 1e70 a53d 58b2 673d
000000a0: 5b89 05be 48c2 7a3a 535d 033d 1875 d4bd
000000b0: aeb7 b2bc 7d78 b4bd d7b1 043e 27a4 543e
000000c0: 5687 8a3b 564d e33c 9810 90bd 04e4 553d
000000d0: dd43 5d3e 851b 61bd 2c72 febd 78c1 533e
000000e0: d2f3 ea3d 7dec 4abb 472f 673d c168 38bd
