Models/artifact_2/lstm_ae.pt (torch, 530880 bytes, 14 tensors)

encoder.weight_ih_l0 f4 [384, 60]
00000000: e58b f1bc ac5f faba 5877 623c 8ac7 4b3d
00000010: 4c4d c93c fc6c f33c 50d2 72ba 7e7d 3e3d
00000020: c3c3 9f3b e684 4d3d 2579 273c cce2 8ebb
00000030: e3d3 143d 4993 9c3c 14ea 5dbc 0390 d4bc
00000040: 05b8 023d 563b 1b3d 08ed b63a 3bb7 523d
00000050: 022a 7bbb 1f7c 1fbd 8033 5c3d 2a9e 8cbc
00000060: cf74 363d e512 a83c 9165 3fbd a10f 153d
00000070: 6f3b 14bd 014a 163d ff68 30bd 31a8 0e3d
00000080: a33f 003d 5e11 94bb 4abe 1ebd fc78 453d
00000090: 039b 483c 0355 e8bc 6e58 763c c154 323d
000000a0: 539a 603d aa42 0abd 940e 013b 569e b53c
000000b0: e686 3fbd 04ed de3c c996 2e3d 6833 f5bc
000000c0: 54f5 5c3d 1607 22bd d995 11bd a449 79bc
000000d0: 7b85 4fbc 247c 6abc 5a36 81bc f3dd 3cbd
000000e0: 9b96 60bc 8c66 bb3c f5bc 2e3d 11f6 0b3d
000000f0: 675d e73c ea28 7c3c 9ead 003d dca0 25b9
00000100: b029 3e3d f7d3 393b 2cbd 193d 08ee afbc
00000110: 1d22 18bd ed1f e83c ac8f 513d fc08 76bc
00000120: e2b0 003b 5cfe 423d 8e44 34bd e910 d93c
00000130: 5208 0fbd 4251 0abd 1c22 a13c d822 1c3d
00000140: 26cb 273c 7f60 9e3c c645 0cbb 232e 77bc
00000150: dae1 523d 7715 463d a0d2 ed3c 4c92 533d
00000160: 11de 0f3d d776 633a 08af 39bd 04f6 bbbb
00000170: 568a f63c f832 1ebd 2023 503d 3a64 283d
00000180: c96e f5bc a6bd 473c a12b ae3c 60e2 38bd
00000190: 41fd 3cbd 8439 c2ba 8f68 d4bc 38fc 83bb
000001a0: ffff 473d e344 84bc a361 36bd 9e46 c6bc
000001b0: 6034 eebc f78b 013d 8764 eebc bcf8 083c
000001c0: 96d4 ccbc fa5e 23bd 31dc 203d 57ce f6bc
000001d0: 4423 4ebb 1e69 b2bc ed19 f4bc 3f8d c03b
000001e0: 8219 8dbc 53c5 c8bc 3a8a 093d 68bc 92b9
000001f0: 7da6 043d 98b3 7a3c b2a8 8a3c 0ddf 26bd
00000200: 2fa1 10bc bf9a 08bd 2baa 033d 679a 163d
00000210: 1c35 f93b b613 443d a8cf 1dbd 6028 0c3d
00000220: 1a76 a1bb 4071 01bc 1568 993b 3234 d13c
00000230: 89b9 113d 6196 8fbc 3c97 893c ec77 e4bb
00000240: 0f77 353d 6c81 503d 87ef 223d b51b 0ebd
00000250: 5aff 43bd 5006 8dbc fbc6 d23b d640 503d
00000260: a337 aebc 409f d4bc 7856 dbbb 4990 2eba
00000270: 12ca 8b3b 42bc fc3c fd88 c93b fed8 42bd
00000280: 5c51 0a3d 1882 5a3b 4952 34bd be2e 1bbd
00000290: a4dc 6abc a182 19bd eb9b 35bd 990e 0bbd
000002a0: 67b6 893c 0a83 a6bb 7171 0d3c bde1 f53c
000002b0: 4a1e 483d 4969 263d b69d d13c 27fe 653c
000002c0: cb53 e5bc 1841 a13b c94b e93c 7cb3 213d
000002d0: 1609 1e3d 4241 9abc 219f 96bc 73e3 5fbc
000002e0: d1d7 093d a491 163d d148 b2bc 8cdc dfbc
000002f0: 43ec 823c bf19 c13b c496 413c b379 3ebd
00000300: 488e 0c3d d6f0 35bd 0a64 18bd c999 943c
00000310: 3d4d 903c 5176 093d a16d 8b3c 7517 d63a
00000320: 4ae1 0ebd 2fd0 99bc 661d 44bc 253e 0dbd
00000330: fc17 4abd b782 3fb9 efa5 1fbd 10af 3939
00000340: 838a 88bc da56 12bd 7518 023d d80d b73c
00000350: 6206 06bd 43db 303d 28e7 bc3c 5050 96bc
00000360: cdb9 07bd a420 ffbc 7bba 2fbd 2ae7 c5bc
00000370: 1922 a23c a8a1 163d f47d 30bd 4353 023c
00000380: b0bf 453d db7c 3e3d dd14 12bd e834 973c
00000390: 5537 1cbd e9c2 2cbb 048b debc f15e 113d
000003a0: 7235 f93a c522 363d 0ccd 4c3d 745a b33c
000003b0: 6fd8 8dbc 3078 a1bc ada8 4d3d e93f 01bd
000003c0: 77e0 9e3b d302 35bd 3d84 23bd c9c7 c8bc
000003d0: 0307 0c3d 6ccf 37bd fe27 c33b edd4 01bd
000003e0: ee12 8e3c 00bd 4d3d e734 8f3c 363a f3bc
000003f0: 742b f83c 47d7 0ebd 5c8a 8e3c 08ee e73c
-0.029485652 -0.0019101999 0.013822399 0.049750842 0.02457299 0.029715054 -0.00092629064 0.046506397
0.0048756315 0.05017557 0.010221754 -0.0043605324 0.036334883 0.0191132 -0.013544578 -0.025947576
0.031913776 0.037898384 0.0013956139 0.051444273 -0.00383246 -0.03893673 0.05376005 -0.017165262
0.04454499 0.020516822 -0.04672772 0.036391858 -0.036189493 0.03669167 -0.043068882 0.03482837
0.03131069 -0.004518672 -0.038755693 0.048211083 0.012243989 -0.02836085 0.015035732 0.04353786
0.054834675 -0.033754982 0.0019692527 0.022170227 -0.04675951 0.027212627 0.04262427 -0.029931739
0.0539449 -0.03955754 -0.035543296 -0.015215311 -0.012666102 -0.014311824 -0.015772987 -0.046110105
-0.013707782 0.022876047 0.042660672 0.034170214 0.02824278 0.015390614 0.031415574 -0.00015795551
0.046426475 0.00283551 0.037533924 -0.021475807 -0.037141908 0.028335536 0.051162407 -0.0150167905
0.001963668 0.047605857 -0.04401069 0.026497321 -0.034920044 -0.0337689 0.019669585 0.038119167
0.010241305 0.019333122 -0.0021403893 -0.015086683 0.05148492 0.048360314 0.029031098 0.05165319
0.03512389 0.00086770713 -0.04533294 -0.0057361145 0.03009526 -0.038622826 0.050814748 0.04111121
-0.029960053 0.012191212 0.021261038 -0.045137763 -0.04613996 -0.0014818166 -0.025928764 -0.0040278696
0.04882812 -0.016146129 -0.044526707 -0.024203595 -0.029077709 0.03162762 -0.02910067 0.008360084
-0.025003713 -0.0398855 0.03927249 -0.030127687 -0.0031454125 -0.02177864 -0.029797519 0.005876213
-0.017224077 -0.024508154 0.03357909 -0.00027987664 0.032385338 0.015301608 0.016926143 -0.04074006
-0.008827492 -0.033350702 0.032144707 0.036768343 0.007605208 0.04787036 -0.038528115 0.034218192
-0.004927409 -0.007900536 0.004681597 0.025537584 0.03557733 -0.017527761 0.016795747 -0.0069723036
0.044302996 0.050904676 0.039779212 -0.034694392 -0.047850944 -0.017214924 0.0064324117 0.050843082
-0.021266764 -0.025954843 -0.0066936575 -0.00066590734 0.004266032 0.030851487 0.0061503635 -0.04757022
0.033768997 0.0033341702 -0.044023786 -0.037886374 -0.014334831 -0.037478093 -0.044338148 -0.03394947
0.016810609 -0.005081539 0.008633004 0.030014867 0.04885701 0.04062775 0.025587898 0.014037645
-0.027994057 0.00492109 0.02847852 0.03947781 0.038582884 -0.018829945 -0.018386425 -0.013665068
0.033653084 0.036759987 -0.021763237 -0.027326845 0.015981799 0.0058929618 0.0118157305 -0.04650278
0.034315377 -0.044419132 -0.03720478 0.018139737 0.017614955 0.0335601 0.017020049 0.0016333895
-0.03488282 -0.018776027 -0.0119699 -0.034483094 -0.04933928 -0.00018263875 -0.038976606 0.0001770819
-0.01666761 -0.03572736 0.031761605 0.022345468 -0.03272093 0.043177854 0.023059443 -0.018348843
-0.033136178 -0.031143494 -0.04290245 -0.02415808 0.01979165 0.03677526 -0.04308887 0.007954421
0.04827851 0.04650579 -0.035664428 0.018457845 -0.038138706 -0.0026361293 -0.027165897 0.035490934
0.001901312 0.044466753 0.050000235 0.021893717 -0.017315118 -0.01971063 0.05020969 -0.03155509
0.0048485356 -0.044192147 -0.039921034 -0.024509327 0.034186374 -0.044875547 0.005955695 -0.031697202
0.01734301 0.050229073 0.01748128 -0.029690843 0.030294158 -0.034873273 0.01739996 0.028311744

encoder.weight_hh_l0 f4 [384, 96]
00000000: 330d 9e3c a61f 023d 790b 2cbd 6e82 073d
00000010: d5d2 203d 81a1 d3ba 73fc d83c 2b89 02bd
00000020: d835 8dbb 5a6b e3bc 04c6 93bc ca18 c53c
00000030: 75f5 e0ba cb23 3f3d 1e20 483b f559 3e3d
00000040: 6490 183d 01c6 cf3c c05a fb3c 91eb ed3b
00000050: 354c 843c 3e72 a63c 5ad3 393d c397 013d
00000060: edc6 41bd c44e daba a2a9 0f3d 0441 ce3c
00000070: d7fa cd3b ab2c 3d3d b4da d8ba 408f 0a3d
00000080: cdcf 1f3b 664c 4ebc c3f0 283d c35d c0bc
00000090: 4751 5bbd fd12 4bbd 907a 683c 726e 11bd
000000a0: 9f2a 39bd e917 fcbc c4ac a8bc d5d8 b83c
000000b0: 1838 063d fc56 263c 30ce 033d dde3 e83c
000000c0: 3a6c 1ebd 7ebd 35bd 9477 b6b9 4032 73bc
000000d0: 9c8d 08bd e87f f13c 9989 23bd 5d12 6bbc
000000e0: 4fd1 12bd 13a5 0b3d d05d 5d3d 4ec1 bd3c
000000f0: 5544 7e3c 83f8 403d 9e54 06bd 4c4a ff3c
00000100: 9708 28bb df55 913c af27 213d 1c2c 7fbb
00000110: a1e8 88bb da30 80ba 68a0 193d 6233 3e3c
00000120: b410 c23c 3f33 4c3b cd19 d5bb 94c1 62bc
00000130: f681 533c 6eff 19bd 1ee8 513d 3888 efbc
00000140: 69b5 b1bc b48c 9e3c 95c4 88bb 01d3 62bb
00000150: 75a9 08bd ddd4 8bbc fabd 2bbd a4bf 3c3d
00000160: b065 bf3c 781e 51bc 7342 87bc b1da 1bbd
00000170: 4136 0ebd f169 aa3c d6ac 17bd e8cc f43c
00000180: ddd7 243d 4751 66bb 84d2 29bd 9c1a 1e3b
00000190: 2f01 203d bfba fcbc c4d4 c53c 3bae 083b
000001a0: a276 b73b 7485 a13b e4f2 1b3d 5748 f83c
000001b0: 0c4f d7bb c698 35bd ed05 073d d089 02bd
000001c0: 71fe 5ebd 7fa3 09bd 0d53 04bc be47 363d
000001d0: 2274 81bc e44e 59bd b06f e2bc 6bb9 53bd
000001e0: 8834 14bb 497f 483d ef52 363d 1583 243d
000001f0: 069e 55bd cf1b 893c 6a46 ce3c 525e 503c
00000200: 9d76 203d 251e edbc 5309 143d bb96 20bd
00000210: 9e54 6039 0114 03bd 8cb3 09bc 38be 3bbd
00000220: a595 32bd 3364 ed3b 4fdb c33c c249 123b
00000230: e668 bebc 886d b6bc 83a6 f13c fad0 f73c
00000240: 8355 c13c 10ce 9abc 22cd 4bbd 38b4 40bd
00000250: 8653 3d3d 5037 84bb ece3 13bd ea3c 6a3c
00000260: 8e83 f6bc a1d4 653c 6f88 213d b850 5a3c
00000270: 19b9 313d fbe3 25bd 5062 06bd d1e4 8c3c
00000280: 84b1 c73c 30d1 443c 50f7 21bd c8eb 183d
00000290: cbd0 02bd a89c 293c a6a8 5a3c 77b6 30bd
000002a0: 3ec2 27bd dc48 423d 4ed7 34bd 022f 473d
000002b0: 9f6a 1cbc 842a 3bbd b25f 223d ee12 a13a
000002c0: fcf4 febc 4d16 e83c 3827 2cbd d5da 3c3d
000002d0: 8c98 16bd 7147 c73c 5aff 3b3d 9259 363a
000002e0: e5cd 28bd 2d04 5f3d a9b6 1e3d 2610 013d
000002f0: 746f a2bc d29d 013d fc89 b8bc 858e 5e3c
00000300: 8fe0 383d 5f0e 023d 7c09 bbbc d2ba 48bc
00000310: bec6 e8bc 6ff3 183d 1ad6 27bd d705 40bd
00000320: 2da0 43bd 9e06 fcbc ad1e 04bd 55f9 423d
00000330: c0c3 aabb c5ed 2cbd a380 8bbb b7ab 1e3d
00000340: efe2 41bd d9ac 013d 2396 90bc 9a82 47b8
00000350: b4aa 393d f6e1 263c d95c 30bd 5875 5e3b
00000360: ee67 3ebc d6d9 b6bc 46fe e53c 1e1d ebbc
00000370: 8049 db3c 5613 f6bb 8250 2e3c fdbb 82bc
00000380: 2c59 2e3d 808e bf3c 2c1d ddba 44a6 f13c
00000390: 1a8d 763c a4e9 03bd 717e 10bd 4ea6 2c3d
000003a0: 2fa3 49bd 350b debc 7c0d 403a bd01 9e3c
000003b0: 9429 c63c 5b9d 303b 724a a83c 750c 20bd
000003c0: 0967 293d b1f1 2b3c 95b2 25bd 5397 073d
000003d0: fdfe edbc 2c85 3b3c 7212 e2bc 88da 4e3d
000003e0: 68e2 da3c 3efd 09bd 29b0 24bd 4262 74bc
000003f0: 9a7e 383c 4c08 e93c a135 96bc 97c4 27bd
0.019293403 0.031768464 -0.04200313 0.03308337 0.039263565 -0.0016146154 0.026487565 -0.031869095
-0.004309397 -0.02776115 -0.018038757 0.024059672 -0.0017162996 0.046664994 0.0030536721 0.04647251
0.037247077 0.02536297 0.030682921 0.0072607477 0.01614962 0.020318147 0.045367576 0.031638872
-0.04730885 -0.0016655554 0.035073884 0.025177486 0.006286006 0.046185177 -0.0016544671 0.03382802
0.0024385334 -0.012591457 0.041245233 -0.02348221 -0.05354431 -0.049578656 0.014189377 -0.03550572
-0.045206662 -0.03077312 -0.020590194 0.022564331 0.03276834 0.010152575 0.032179058 0.028428966
-0.03867743 -0.044370167 -0.00034802838 -0.0148435235 -0.033338174 0.029479936 -0.039926145 -0.01434764
-0.035844143 0.034092974 0.054044545 0.023163464 0.015519221 0.047112 -0.03279554 0.031163357
-0.0025639886 0.017741142 0.039344486 -0.0038936203 -0.004178122 -0.0009780184 0.03750649 0.01160893
0.023689605 0.0031158475 -0.00650332 -0.013840098 0.012909403 -0.037597112 0.051246755 -0.029239759
-0.021692948 0.019354202 -0.004173825 -0.0034610631 -0.03336473 -0.017069275 -0.041929223 0.0460812
0.023363918 -0.012763612 -0.016511178 -0.038050357 -0.03471971 0.02080247 -0.037030064 0.029882863
0.040244926 -0.003514366 -0.04146053 0.0024124747 0.03906363 -0.030850766 0.024149306 0.0020855803
0.005598859 0.004929239 0.038073435 0.030307932 -0.0065707024 -0.04433515 0.032964636 -0.03186971
-0.054441873 -0.033603188 -0.0080764415 0.044502012 -0.015802447 -0.05305375 -0.027641147 -0.0516905
-0.002261432 0.048949514 0.044512685 0.040164072 -0.052152656 0.016736893 0.02518006 0.0127178
0.03917562 -0.028945038 0.036141705 -0.039206248 0.00021393827 -0.0320015 -0.008404624 -0.045835704
-0.043599743 0.0072446107 0.023908285 0.0022321795 -0.023243379 -0.022269025 0.029498344 0.030251015
0.023600345 -0.018897086 -0.049756177 -0.04704687 0.046222232 -0.004034914 -0.036106035 0.01429675
-0.030092027 0.014027745 0.039436754 0.013324909 0.043389414 -0.040500622 -0.0328086 0.017198952
0.024376638 0.012012765 -0.039542496 0.037334234 -0.0319374 0.010352291 0.013345873 -0.043142762
-0.04095673 0.047432765 -0.044150643 0.048628815 -0.009546905 -0.045694843 0.039642043 0.0012288967
-0.031122677 0.028330946 -0.04202959 0.046107132 -0.036766574 0.024326058 0.04589782 0.0006956096
-0.04121198 0.05444734 0.038748417 0.03150954 -0.019828536 0.03164465 -0.022526734 0.013583784
0.04513603 0.031751987 -0.022831671 -0.012251573 -0.02841508 0.03734153 -0.040975668 -0.04688057
-0.047760177 -0.030764874 -0.032255817 0.047601063 -0.0052113235 -0.042218942 -0.004257278 0.03873798
-0.04733556 0.03165898 -0.017649716 -4.756693e-05 0.04532881 0.010185709 -0.043057296 0.0033944454
-0.011621458 -0.02232067 0.028075349 -0.028700408 0.026768446 -0.0075096292 0.010639312 -0.01595878
0.04256551 0.023383379 -0.0016869656 0.029498227 0.01504829 -0.03220524 -0.035276834 0.042150788
-0.04922789 -0.027104953 0.0007326228 0.019287938 0.024189748 0.002694926 0.02054331 -0.03907438
0.041358028 0.010494635 -0.040453512 0.0331033 -0.029052252 0.011445325 -0.027596686 0.050501376
0.026719287 -0.033688776 -0.040207062 -0.014916005 0.011260653 0.02844634 -0.01833612 -0.040958967

encoder.bias_ih_l0 f4 [384]
00000000: c6fc 17bc f245 203c 9a1a 1b3c 78bb 4e3d
00000010: b3e8 44bd 7b15 d93c 765a d83c 540c c0ba
00000020: f126 4b3d 1877 03bd 8ed5 c5bd dd89 e4bd
00000030: 8d89 30bc f9fc 48bc 2d51 12bc 8219 e8bb
00000040: 22af b53b a09a 143c b47a 0dbd 7542 e7bc
00000050: b1cd 0fbd 2975 1a3c 4bb6 a2bc c26f be3d
00000060: 3432 283d 105b ccbb 2896 fcbc 79bf 8fbc
00000070: aa1c 48bb 4eb7 08bd 403e c33d 064a 3a3d
00000080: 9304 2abd 932e 333d b5f7 a33c 3d05 a73c
00000090: d2a6 28bd 22e6 003d 2845 873d df79 813d
000000a0: 897d b33c 567d 3dbd 6804 483c 165c 163c
000000b0: 0224 433d 5841 e1bc d65c 1dbc d148 0c3d
000000c0: 9a2c f73b a2ef bcbc ee46 193c 0d54 0f3d
000000d0: 1404 e63b 6db4 383b 33d7 a9bc ee68 5a3c
000000e0: 8b49 0bbc 0ef4 33bc b4a2 e63b 18cf 2c3c
000000f0: f667 3ebd 96eb 853d 0149 283d e866 9ebd
00000100: e87e 133d 2c7e 04bd b8d1 d0bc 3f13 66bb
00000110: 71fc f1bc 8622 e5bc 07ba 8dbc 187a 123c
00000120: 3cee df3c 44d4 423d f7ee 82bc 5d8b 3cbd
00000130: d54a 2c3d 5979 1cbd d2f7 d8bc b432 1e3d
00000140: 0d3c 573d 43ac 30bd 3cb6 3abd 49dd efbc
00000150: 1bcd a6bc 7e4f 433d d5d8 04bc 58a6 0abd
00000160: 0b17 14bd ba5a 40bd 6864 1c3d b2df 65bb
00000170: 1d27 91bc 6fd6 e63c b8a2 5c3d ba65 07bd
00000180: c603 5bbc 9388 2cbd df09 06bc ff10 dcbc
00000190: e6af 2c3d f014 94bd 4ede 6b3d 3cd3 f33c
000001a0: 9dcf c03c 58d7 89bd e045 a83c 83da 2b3d
000001b0: 181b 25bb f008 f0bd fe77 dfbc 4dea 3e3d
000001c0: b127 babd c94c 30bd 3818 0ebd b7f1 2c3d
000001d0: 11a4 973c 22b4 0ebd f7b3 e5bb ad0d 06bd
000001e0: be69 4d3c 6be1 60bd 64b1 003d 73b0 49bd
000001f0: ef65 a23c 0f92 213c 41c9 43bd dd04 e1bc
00000200: ffae f7bb 1798 e03c 46af 4c3d be7a 8a3d
00000210: cf59 533d 534c 34bd 77ff c6bd 2267 12bd
00000220: 28dd 8fbc 8149 3f3c dc4f 4b3d 9036 cb3c
00000230: b1e2 2e3c d93c 133d 1109 35bd 0b1f 063d
00000240: 9128 41bc 06d9 18bd f0c0 c43b bc33 4ebd
00000250: aef7 f03b 1dc0 d0bd df7d 69bc d947 2b3d
00000260: 0ccd 13bc db67 9c3b ab46 47bd 92cc b6bd
00000270: 34d9 49bd 5a22 98bc a611 c4bd dd89 38bd
00000280: be47 24bd 3eec 2a3d 3ac3 c1bc 5a47 0ebd
00000290: 8516 bc3a 6b64 b33c 4f22 1abb a6a9 9fbc
000002a0: 6b07 2bbd b135 23bd 7073 8d3c 023f 2cbd
000002b0: 0d36 d6bc ec00 b43c 0e01 05bd 6ad2 19bd
000002c0: 1f64 ecbd bfef 333d 719c 343c 17ad 50bd
000002d0: f2a1 82bc 4ce5 35bd 0095 e4bd 1aac 2fba
000002e0: 47d0 54bd 4461 563b 7914 e93b 3ce8 46bc
000002f0: 628a 463d 9ed7 513d e4e3 b739 26c1 35bd
00000300: ec00 c1ba 9455 7fbd 5229 553d 7a8a 3bbd
00000310: 3560 033d ac8d 4f3d 3c45 62bb f6dc 86bc
00000320: bab9 4d3d cd2d 90bd ceca 663d 4137 563d
00000330: 485a 5cbc 5c03 8cbd 7e74 01bd d5bc 71bc
00000340: b8d0 bebd 4b50 713d ac59 4abd 7ecf 0d3d
00000350: 5d1c 71bd 62ef 153d bc30 07bd 9c10 18bd
00000360: 8bc0 30bd 9b1c e4bc 1042 593c 61a1 c9ba
00000370: 1e0f 163d 752d 803c 337d 2dbb 199b f53b
00000380: 21da 043c b9c4 2d3c 2e63 923d fd31 20bd
00000390: 9273 b1bc bcd9 32bd 0083 bd3d 480d dfbc
000003a0: 1fd7 96bc 6db8 293d 7667 5b3d 9393 093d
000003b0: 27cc 2f3d 6d17 cebc ebce 8d3c db76 093d
000003c0: 1f84 6abc 7bd5 bdbb 8a2f 1fbc 015c d83c
000003d0: 5a85 e2bc 10b8 ad3c 824c 2ebc 165b 643d
000003e0: 8fa6 f43c 099e 353c 4b74 5e3d 5e0e a3bd
000003f0: 4706 113d fa81 92bc a7f4 e33b 0352 5e3b
-0.0092765745 0.009782301 0.0094667915 0.050471753 -0.04807348 0.0264995 0.026410323 -0.0014652112
0.049597684 -0.032096 -0.09659873 -0.11159108 -0.010774982 -0.012267345 -0.008930487 -0.007083119
0.005544559 0.009070069 -0.034540847 -0.028229931 -0.035108272 0.009427347 -0.019862315 0.0929866
0.041063502 -0.0062364414 -0.030833319 -0.017547356 -0.0030534663 -0.033377938 0.095333576 0.04548075
-0.04150827 0.04374559 0.020015577 0.02038824 -0.041174717 0.03146947 0.066049874 0.06322073
0.021910446 -0.046262108 0.012208082 0.009177228 0.04764176 -0.027496979 -0.009604653 0.03424913
0.0075431587 -0.023063485 0.00935529 0.034992266 0.007019529 0.0028183714 -0.020732498 0.013330681
-0.008501421 -0.01098348 0.0070384387 0.010547422 -0.046485864 0.06539075 0.041085247 -0.077344716
0.0360097 -0.03234689 -0.025490627 -0.0035106686 -0.029539319 -0.027970564 -0.017300619 0.008940242
0.027335279 0.047565714 -0.015983088 -0.046031345 0.042063553 -0.038201664 -0.026485357 0.038622573
0.052547503 -0.04313303 -0.04558395 -0.029280322 -0.020361474 0.04768323 -0.008108337 -0.033850044
-0.036154788 -0.046961524 0.038181692 -0.003507596 -0.017718846 0.028178422 0.05386612 -0.033056
-0.013367599 -0.042122435 -0.008181064 -0.026863573 0.042159937 -0.07230556 0.057585053 0.02976381
0.023536498 -0.06730527 0.020541131 0.041956436 -0.002519315 -0.11720455 -0.027278896 0.046610165
-0.09089602 -0.043041978 -0.034691066 0.042222705 0.01851085 -0.034839757 -0.007009979 -0.032727886
0.012537418 -0.054902475 0.031419173 -0.04924054 0.019823996 0.009861483 -0.047799353 -0.02746814
-0.007558703 0.027416272 0.04997184 0.067616925 0.05159932 -0.0440181 -0.09716695 -0.035742886
-0.01756151 0.01167524 0.049636707 0.02480629 0.010674165 0.0359467 -0.0441981 0.03274445
-0.011789457 -0.037316345 0.0060044453 -0.050342306 0.0073537445 -0.10192893 -0.014251201 0.041816566
-0.009021055 0.0047731227 -0.04865138 -0.089257374 -0.049279407 -0.018571068 -0.09573679 -0.04505335
-0.04010748 0.041729204 -0.023652662 -0.034736015 0.0014349973 0.021898469 -0.0023518985 -0.019490074
-0.04175512 -0.039846126 0.017266959 -0.042052276 -0.02614882 0.021973096 -0.03247171 -0.037554182
-0.11542534 0.04392981 0.011023627 -0.05094632 -0.015946362 -0.044408128 -0.11161232 -0.00067013653
-0.05195644 0.0032711783 0.0071130362 -0.01214033 0.048471816 0.05123102 0.00035074272 -0.044373654
-0.0014725006 -0.062337473 0.05204136 -0.04578636 0.032074172 0.05067222 -0.003452613 -0.016462784
0.05022595 -0.07039986 0.056345753 0.052298788 -0.013449259 -0.06836578 -0.031605236 -0.014754494
-0.09317154 0.058914464 -0.049401924 0.034621708 -0.05886494 0.036605246 -0.03300546 -0.037125215
-0.043152373 -0.027845671 0.013260379 -0.0015383178 0.03663551 0.015646676 -0.002647233 0.0074952957
0.008108647 0.010605984 0.07147823 -0.039110173 -0.021661554 -0.04366468 0.09253502 -0.027228013
-0.018413125 0.041435648 0.053565465 0.033588003 0.042919304 -0.025157655 0.01731058 0.033560615
-0.014313727 -0.005793271 -0.009715924 0.026411058 -0.027651478 0.021205932 -0.010638358 0.05575093
0.029864578 0.011085042 0.054310124 -0.07961725 0.035406377 -0.017884243 0.006956655 0.0033923395

encoder.bias_hh_l0 f4 [384]
00000000: 5706 06bd fa49 c9bb 7495 61bc 74f1 f0bc
00000010: 0f03 2c3b 15ce 983d 57a3 263d eebe 0e3d
00000020: 8ba0 d03b 57e9 a1bd 3f98 c0bd 10d9 c2bc
00000030: 5c21 d4bc 93bf 563d 2b0b 62bc 2f68 c1bc
00000040: 7959 2a3d e0c5 07bd 65c6 98bc 6f82 f9bc
00000050: 845d b1bc 79db a53c 7cd0 d0bc 1229 023c
00000060: 2b38 bcbc 2e92 a2bc 9168 2b3d ee6e 61bc
00000070: a9ad e2bc 8696 fbbd 128c a93c faa7 1abd
00000080: 1b32 f2bc 5170 56bb 690f 093d f869 aa3c
00000090: 2c2c 0c3d 9fa1 df3d 2eed ae3c 26bd af3d
000000a0: 339e d6bc f12f 73bc 5bef 533d e333 19bd
000000b0: 3607 c2bc 00a8 273d f06f 7b3d 2700 3b3b
000000c0: cc68 13bd ca3a 123d fecc 9a3b 321b d3bc
000000d0: c567 7cbc a5d4 993c 2881 b03c 9eee 0dbb
000000e0: 3bd8 213d e143 29bd 59c0 14bd a33c cb3c
000000f0: ab28 23bd 4538 723d 7ea5 b83c 1e0a 9bbd
00000100: 59cd 303d 124e 58bc 4e73 72bb c8a9 153a
00000110: e78b 183d cf85 c43c 1ee5 fdbc c307 45bd
00000120: 3f07 eabc d644 b3bc aaef 1ebd c9a0 2b3d
00000130: eb19 c4bb 04a3 36bd baf1 2f3d d1f8 8dbc
00000140: 39a4 633c 5499 dd3b 0638 ea3c adba 83bc
00000150: ff77 3f3b 5340 5d3d 4c0f 2f3d e600 1a3d
00000160: 48ef cebc 522b 423d fff2 4c3d fc7b f4bc
00000170: 5f30 283d 7ff0 30bc fc3b 5c3d 1c47 bdbc
00000180: 2ffb 2b3d c8de 17bc 4af2 09bd 0560 d2bc
00000190: 8748 1f3c 4c77 30bd cdaf 1dbd a2e8 3c3a
000001a0: bbfe 7cbc df68 24bd 3241 3fbd f809 c2bc
000001b0: e26d c33c e477 42bd 9592 0abd 378c e63c
000001c0: b8b9 60bd 8779 03bd eebd d33a d82d 6c3c
000001d0: 7b91 0cbd adc9 453d a16d b83b 5653 65bd
000001e0: b13f 43bd 3260 a8bc daef 373d 1c8b 0dbd
000001f0: 0f1f 4e3b 1c57 9ebc 1100 dbbc e818 cebc
00000200: 7bd5 39bd 96d3 64bc 92c7 73bc c8fb a5bb
00000210: 0c06 c23c de65 f4bc 09f5 a5bc 0952 c4bd
00000220: a7fb 3e3d d8df 8f3c df65 c93b 8fed 433d
00000230: 94ba e43c 8a9e 353d 2441 46bd ca6d 0a3c
00000240: 8f3d a43c 979a 15bc 211b 57bc 9435 e4bc
00000250: af72 243d 0595 6bbd 9de3 e43c d706 923a
00000260: 02fd 433d c59a 363d 7601 0a3d 5552 b3bd
00000270: d63a 383d 5c17 72bd 6a70 bfbd f372 5cbb
00000280: 1e6a 3fbd b8e4 3dbd c243 ba3c 1791 3a3d
00000290: 5835 c8bc b881 d63c 68a2 b23c 9212 36bd
000002a0: a016 2b3c 1abf 41bd de53 443d 5dcc 5b3b
000002b0: a798 ecbc b96f 83bc 380a 0a3d 876b 0c3d
000002c0: ad46 4abd 79ed 8e3c 5fec 90bc d9cc 1c3c
000002d0: 5538 55bd 37a2 07bc 0066 80bd 91c6 2bbd
000002e0: aea8 9dbc 107c bb3c 015a de3c ceb0 073d
000002f0: 5546 40bd dc2b 743d 861e ed3b b85f f43b
00000300: 2b9e a5bc 7853 bb3b 045a 5b3c 76bd 273c
00000310: 936d 073c 6a07 803c daf4 143d ed82 4a3d
00000320: 6ea2 153d 28cd 68bd a783 98bc f144 463d
00000330: f41b 33bd 0b03 e6bc e81a 62bd 9112 aabc
00000340: d630 31bd d846 00bd fbae 0a3d d041 3c3a
00000350: 2d76 44bd 4e88 d8bc b330 0e3d 240c 93bd
00000360: f4db 1abd 3ed0 263d 856a 4cba 01f0 753b
00000370: 22b8 5cbd f25e d5bc 2db5 d23b e61a 7b3d
00000380: 96e9 26bb dfc5 25bc f081 b33b f87e 04bd
00000390: b3cd a23b 8b7e 81bd 45ba d13b 5ced b3bd
000003a0: bc54 8c3c bd42 663b 6dc2 b43c ada3 663d
000003b0: 8383 c43b 4928 e13c 864d b83d 7204 e93c
000003c0: fd32 4abd 6f14 51bd 0608 2e3c 003d aabc
000003d0: 0255 793c 74e4 973d ec2e f2bc f070 09bc
000003e0: f10b 81bd 5f52 86bc 47c0 afbc f917 1dbd
000003f0: 4099 80bd 4bcb 3dbd d6a5 a93d e3fb 9dbc
-0.03272089 -0.006142852 -0.013768543 -0.029412009 0.002624694 0.07461182 0.040683117 0.034850053
0.0063667945 -0.07905834 -0.09404039 -0.023785144 -0.025894813 0.052428793 -0.013796608 -0.023609249
0.041589234 -0.033147693 -0.01864929 -0.030457703 -0.021651037 0.020246254 -0.025490038 0.007944362
-0.022976002 -0.019845095 0.04184777 -0.013759358 -0.027670698 -0.122845694 0.020696674 -0.03775785
-0.029564908 -0.0032720754 0.033461962 0.020802483 0.034221813 0.10919499 0.02135333 0.08580999
-0.026198482 -0.014842973 0.05174194 -0.037403 -0.023685079 0.0409317 0.06138605 0.0028534026
-0.035988614 0.035700597 0.004724144 -0.025769804 -0.0154056 0.018778155 0.021545961 -0.002165712
0.039512854 -0.0413245 -0.03631625 0.024809187 -0.039833706 0.059135694 0.02253985 -0.07570289
0.043164585 -0.013202207 -0.0036994996 0.00057091983 0.037242796 0.023989586 -0.03099304 -0.048103105
-0.028567908 -0.02188341 -0.03880278 0.041901384 -0.005984535 -0.044589058 0.042955138 -0.017330559
0.013894134 0.006762663 0.028591167 -0.016080225 0.002921581 0.054016422 0.042739198 0.037598513
-0.025260583 0.047404595 0.050036427 -0.029844277 0.041061755 -0.010799526 0.053768143 -0.023105197
0.041987594 -0.009269424 -0.03367833 -0.025680551 0.009721882 -0.04308252 -0.038497735 0.0007206296
-0.015441592 -0.040139075 -0.046693034 -0.023686394 0.023856107 -0.047477618 -0.033831198 0.028143032
-0.054864615 -0.03209832 0.0016154626 0.014415227 -0.03431843 0.048288036 0.005628303 -0.05598768
-0.047668163 -0.020553682 0.044906475 -0.034556493 0.0031451618 -0.019328646 -0.02673343 -0.02515836
-0.045369606 -0.013966462 -0.014879124 -0.005065415 0.023684524 -0.02983373 -0.020258443 -0.095859595
0.046626713 0.017562792 0.006146177 0.047833975 0.027920999 0.044340648 -0.048401967 0.008449027
0.020048885 -0.009131095 -0.013129027 -0.02785758 0.040148433 -0.057515163 0.027940566 0.0011140954
0.04784871 0.044581193 0.0336928 -0.08755938 0.044977985 -0.05910431 -0.09347613 -0.003363785
-0.04673206 -0.0463607 0.022737388 0.045548525 -0.024439499 0.026184902 0.021805957 -0.044451304
0.010442406 -0.04730139 0.047931544 0.0033538558 -0.028881384 -0.016044484 0.03370115 0.034282234
-0.049383808 0.01744722 -0.017690836 0.009570324 -0.052055676 -0.008278421 -0.06269455 -0.041937415
-0.019245472 0.022886306 0.027142527 0.0331276 -0.046942074 0.05961214 0.0072363047 0.0074576996
-0.020217022 0.0057167374 0.013388161 0.010238042 0.008265871 0.015628535 0.03636632 0.049441267
0.03653186 -0.056836277 -0.018617464 0.04840559 -0.04372783 -0.028077623 -0.05520144 -0.020760806
-0.043259464 -0.031317562 0.03385828 0.00071814377 -0.047964264 -0.026432183 0.034714412 -0.0718005
-0.03780742 0.04072594 -0.0007797855 0.0037527087 -0.05388654 -0.02604625 0.0064302892 0.06130495
-0.0025468818 -0.010117977 0.0054781362 -0.03234765 0.004968369 -0.06322964 0.006400379 -0.08785507
0.017130248 0.0035134994 0.022065366 0.056308437 0.0059971227 0.02748503 0.089991614 0.028444503
-0.049365032 -0.051044878 0.01062203 -0.02078104 0.015218021 0.07416621 -0.02956339 -0.008388743
-0.06301106 -0.0163967 -0.02145399 -0.03835294 -0.0627923 -0.046336453 0.08283584 -0.019285148

to_latent.weight f4 [24, 96]
00000000: 1ca5 d63e 8889 c43e 3c89 cc3e 7134 ebbe
00000010: 566e eebe 07c7 de3e f39f dcbe 7a07 d43e
00000020: cfd1 943e 299e a5be 6acb fc3e a43f d23e
00000030: 1fa7 e3be e38e dfbe f6c4 c0be 0f87 99be
00000040: 394b ffbe 142c e83e 06bd d3be d826 f83e
00000050: 82d3 c4be 44e8 643e f765 463e b661 f1be
00000060: 8ce6 cbbe 8a31 cc3e cd83 e93e 1939 f13e
00000070: 9d6b cebe 70c8 c83e 74ea fcbe 8588 cebe
00000080: d0c1 fd3e 0770 d13e 72fd be3d 3d21 d7be
00000090: a2f3 e4be 5fde efbe d561 ec3e 9577 f5be
000000a0: 96f8 94be 4fb0 e13e 6034 df3e 2d78 ea3e
000000b0: c37c b73e 44f1 f83e e3d9 e13e c49a 2b3e
000000c0: 8a75 f0be 854d c8be 51a2 debe 51d7 84be
000000d0: 5774 e03e 1e6d d73e 0143 cfbd d6e2 a13e
000000e0: 4918 94be 57e7 bdbe 0539 e83e 7854 fbbe
000000f0: 1a36 83bd 0477 cbbe 4ada 023f 9fd5 c1be
00000100: 299b e73e 1510 e4be f2bb dabe 9f94 ecbe
00000110: 8784 e53e 8a9a e0be 4a49 d43e e117 d23e
00000120: 5218 ecbe 2cab cd3e 4679 28be 77f2 78bd
00000130: a33a cd3e 7aea f93e 3b36 ea3e feb5 df3e
00000140: dadf 01bf 6f71 d5be 9299 e1be 8506 17bd
00000150: e002 eebe 7d2c d73e bdea f1be 4072 963c
00000160: 6439 4c3e 238a e73e 12c7 db3e 11da f53e
00000170: cacc d63e 782e df3e 0305 dbbe bc8d e43e
00000180: 2760 bfbe 13dc bdbe 084f aebe cf31 bf3e
00000190: f3bf c83e afe3 bfbe bf58 cb3e b028 c5be
000001a0: 8bd2 74be bb1e 553e 7030 abbe 2c66 c3be
000001b0: b75d b93e 753d b53e 130b bd3e 4166 513e
000001c0: 5f17 cb3e f41f acbe c5f6 b93e 07ab c8be
000001d0: 977f a03e ee9b 4dbe 9666 e5bd 8523 bf3e
000001e0: 2995 b33e 6ac4 d0be f66e bcbe 6c51 a3be
000001f0: b567 ae3e ff93 a0be 0bec bc3e a36b ad3e
00000200: 4298 c1be 0f9e c4be 52f1 f6bd e05a a93e
00000210: 4c5e b43e fc9d c43e e35d b9be f7db c63e
00000220: baaa 563e c59a bfbe 5a01 d2be 868f abbe
00000230: 1477 90be 2664 b8be 4d90 b3be d39d ccbd
00000240: eaf9 ab3e 5ed7 cf3e 7097 bb3e a2e9 8b3e
00000250: ddcf bcbe b56e cabe a1f3 c33d 4199 7dbe
00000260: 3c97 883e 94f7 873e 7e38 aabe 2e10 c13e
00000270: 0679 d83c 0566 9b3e 41ec afbe 6fbf c03e
00000280: fbdb c9be 9bf0 bc3e d11c b03e a525 b53e
00000290: e36e cebe 41d2 923e a00c a7be f35e a5be
000002a0: d704 a33e 496f abbe 908c 1a3e 04e3 f03d
000002b0: 0ef0 acbe 127e cabe ab6a c8be a259 a7be
000002c0: 1dff d03e e36a ad3e f8fe cc3e a821 d33b
000002d0: f3d3 a33e 5ce8 cbbe 7202 cb3e cd40 11bd
000002e0: 97db edbd f284 b9be 4edd d1be 32d7 c7be
000002f0: 8afa c7be bb8d a8be 3842 bb3e b2c9 b9be
00000300: 7448 f23e ae54 cf3e f876 d93e 31c1 f7be
00000310: d13b e8be a9f5 ea3e c839 00bf bd80 df3e
00000320: b5aa 853e 246d 89be 370c dd3e 3754 013f
00000330: 3ebb 00bf d2d4 fcbe b78f 03bf c939 9abe
00000340: b04d 04bf f354 f23e c24e ecbe 235e fc3e
00000350: 59b8 f8be e5e6 573e b9e5 d13d 1986 ffbe
00000360: e114 febe eb58 ff3e 47be f03e 50ea e43e
00000370: 82dc e5be 3b0b 003f fe75 00bf b0f1 fbbe
00000380: ac6b ea3e e3df ff3e f9e5 2d3d 875d f6be
00000390: ab69 d7be 1dff ffbe 22eb ee3e 4097 06bf
000003a0: 7c3f 4ebe 04b8 fb3e d279 df3e 30ab 033f
000003b0: 6577 ba3e 22aa d93e 9c04 033f 3588 f03d
000003c0: 613f ebbe 42e5 e3be 8395 f1be d121 99be
000003d0: 2a36 eb3e 6c70 fb3e 1a63 06bd 6ab1 8f3e
000003e0: f4ce 8abe 590b a7be d409 f03e 8e2d eebe
000003f0: ad5e 473a 6bf0 cfbe f9d6 013f d00f dabe
0.41922843 0.38386178 0.39948452 -0.45938447 -0.46568555 0.4351122 -0.43090782 0.41411954
0.2906632 -0.3234723 0.49373943 0.4106418 -0.4446344 -0.436637 -0.3765027 -0.29985854
-0.49862078 0.4534613 -0.4135515 0.48467135 -0.38442618 0.22354227 0.19374834 -0.4714486
-0.3982433 0.39881545 0.4560837 0.47113875 -0.40316477 0.39215422 -0.49397624 -0.4033853
0.4956193 0.40905783 0.093256846 -0.42017546 -0.44717127 -0.46849343 0.4616839 -0.47942796
-0.29095906 0.44079825 0.43594646 0.45794812 0.35837373 0.4862157 0.44111547 0.16758257
-0.46964675 -0.39121643 -0.43483213 -0.25945523 0.4383876 0.42075437 -0.10120202 0.31618375
-0.28924778 -0.3709056 0.45356002 -0.49087882 -0.064068034 -0.3973924 0.5111433 -0.37858292
0.45235565 -0.4454352 -0.42721516 -0.4620714 0.44827673 -0.43867904 0.41462165 0.41033843
-0.46112305 0.40169656 -0.16452512 -0.060778107 0.400838 0.48811704 0.457445 0.43693537
-0.50732195 -0.41688105 -0.44062477 -0.036871452 -0.46486568 0.4202613 -0.47249404 0.018365026
0.19943768 0.45222577 0.42925316 0.48017934 0.41953117 0.4359014 -0.4277726 0.44639385
-0.37378046 -0.37081966 -0.3404467 0.37342688 0.39208946 -0.37478396 0.39716145 -0.38507605
-0.23908441 0.20812504 -0.33435392 -0.38163888 0.3620431 0.3539845 0.3692251 0.20449163
0.39666268 -0.33618128 0.36321083 -0.39192984 0.31347343 -0.20079014 -0.11201207 0.37331787
0.35074738 -0.40774852 -0.36803406 -0.31898057 0.34063497 -0.31362912 0.36898836 0.33871183
-0.37811476 -0.3840184 -0.12057747 0.33077145 0.35228193 0.38401783 -0.36204442 0.38839695
0.20963565 -0.37422767 -0.41016656 -0.33507937 -0.2821585 -0.36013907 -0.3507103 -0.0999104
0.33589107 0.40594 0.36638975 0.27326685 -0.36877337 -0.39537588 0.09567953 -0.24765493
0.26677883 0.26556075 -0.33246225 0.37707657 0.026424896 0.30351272 -0.34359935 0.37646052
-0.39425644 0.36902317 0.34396985 0.35380283 -0.40318975 0.28676036 -0.3262682 -0.32299003
0.3183963 -0.3348334 0.15092683 0.1176205 -0.33776897 -0.3954931 -0.3914388 -0.32685572
0.40819636 0.3387061 0.40038276 0.006443221 0.31997642 -0.39825714 0.39650303 -0.03546219
-0.11614149 -0.36234242 -0.40989155 -0.39031368 -0.39058334 -0.32920632 0.36573958 -0.36286694
0.47320902 0.40494293 0.42473578 -0.4838958 -0.45358136 0.4589055 -0.5008817 0.43652907
0.26106802 -0.2684108 0.43173382 0.50519127 -0.5028571 -0.4938112 -0.51391166 -0.30122212
-0.5168104 0.47330436 -0.46153837 0.4929057 -0.48578146 0.21084173 0.10248894 -0.49906996
-0.49625304 0.49872527 0.4702017 0.44710016 -0.44894797 0.50017136 -0.5018004 -0.4920783
0.45785272 0.499755 0.042455647 -0.4811823 -0.42072806 -0.49999323 0.46663767 -0.5257454
-0.20141405 0.4916383 0.4364763 0.51433086 0.36419216 0.42512614 0.5117891 0.117447294
-0.45946792 -0.44510847 -0.4718438 -0.29908612 0.4593976 0.4910921 -0.032809354 0.28065044
-0.27111018 -0.32625845 0.46882498 -0.4651913 0.00076053553 -0.40613112 0.5071865 -0.4259019

to_latent.bias f4 [24]
00000000: 6070 013f 2c25 c8be 267f e93e 91cd d73e
00000010: b9f7 0abf 12a0 11bf 4f18 ecbe fba4 8fbe
00000020: 989d 013f feb3 da3e dc23 03bf c1bd aa3e
00000030: 0f26 ef3e e558 c8be 93f5 1cbf 188a 22bf
00000040: a195 083f a361 d2be eec6 04bf 6129 d33e
00000050: 9e00 1dbf 41fe f53e 26d9 e3be 5e72 fa3e
0.50562096 -0.3909086 0.4560482 0.42149022 -0.54284245 -0.5688487 -0.46112296 -0.28055558
0.50631094 0.42715448 -0.5122659 0.33347896 0.46708724 -0.3913032 -0.61312217 -0.63491964
0.53353316 -0.41090116 -0.5186604 0.41242507 -0.61329067 0.48045543 -0.4450161 0.4891538

from_latent.weight f4 [96, 24]
00000000: dd26 13bd 0484 e6bb 39c1 2d3d 426e 6bbc
00000010: a54f 8e3d e5fc fabc 5d95 3ebd f00e de3c
00000020: 299b ed3d 27f4 82bd 1f28 b43c e337 a73d
00000030: a708 d5bd 2479 cb3c dd2e 523c 4ca3 903d
00000040: 76c8 913d 4fc7 1f3d 14ec c23c 619b fbbc
00000050: 13f0 9cbd 78da a0bd 1aba bd3b f1f3 54bd
00000060: f138 083f fb73 04bf 3c3d 173f f561 f73e
00000070: d316 0fbf 61ca 00bf a6dd 06bf b054 e7be
00000080: 23f9 f13e a5e9 113f d565 18bf f01c d13e
00000090: 016e f83e 4463 0cbf 5479 fdbe ba0c 00bf
000000a0: fe8f 013f 6a4a e1be 06ac 1dbf 1410 083f
000000b0: da75 1bbf 6068 013f d2c3 16bf a040 f53e
000000c0: cd19 9a3c 55e3 98bd 91cb 8f3d fd2c 57bd
000000d0: 6f62 ba3d c6fb f53d 7eb0 163d ea41 71bd
000000e0: 0487 7f3d f98e ac3a 4d97 6d3c 8655 c6bd
000000f0: 4450 8f3d eece 25bd 11b7 81bd 0214 97bc
00000100: 6748 68bd ed8c 9c3d ec3f 16bd 5409 55bd
00000110: 6bd5 5abd f474 45bc 6041 f4bb 9ab8 3aba
00000120: 8076 bdbd 1a99 aebd 2f82 c4bd 01e2 963c
00000130: 5457 9239 5e7b 32bc 2828 473d c0f4 aabd
00000140: 4417 3ebd 6927 8b3d a1c9 ed3c df9a 86bd
00000150: 8711 b9bd eaf2 263d 1780 fc3c 8686 a4bd
00000160: d012 b4bd 33b3 f53c 9cca d5bc 2f08 b5bd
00000170: 4308 563d df6e a3bd 4e5c d53c b88f 493d
00000180: 57d3 ef3d 0ba5 c53d bf77 3cbc 70cf 42bd
00000190: e9ec 83bd e765 50bd d4f8 88bd db30 003c
000001a0: 0e72 fb3c e025 aa39 684e 0dbd 6d70 ac3d
000001b0: c130 d23c 6194 e0bc 1ba3 723d 54e4 453d
000001c0: de04 b7bd 52de 103d 4ff7 9fbd 1eaf c73c
000001d0: 9c1e bc3d c5e7 73bd 75c1 9f3d c8ab 8b3d
000001e0: 0921 553d eed7 52bd 4dce 4e3c f9d0 1bbd
000001f0: ee72 8bbc bc96 d33c c75e b13d e50d c2bd
00000200: 6ff8 fa3b 336f 813d cf68 5cbb d24c 97bc
00000210: c608 73bc b6d3 d8bb 2bab 823d 99db d53c
00000220: 39df f4bc d180 5fbd 0c49 9a3c 8a02 133d
00000230: 4fd9 ccbc 7b57 ad3d c884 283d 8638 a8bd
00000240: 0544 893b e9f3 783d 1278 debc 006a 8c3d
00000250: f6c5 93bd 7c5f f53c 8ff2 b33d 40e2 4dbd
00000260: 651f fbbd b184 293d 1663 77bd ad26 a43d
00000270: 7475 5abc beb1 333d 272a fa3c 0831 cdbd
00000280: 119d ce3d 0927 833d 5d82 82bb 9b48 08bb
00000290: ef45 4cbb e2f3 2e3c 6ce0 083d c3ef 99bd
000002a0: 2cd7 bcbd d727 0a3d c7df f83c dde0 ddbc
000002b0: 5c0f 683d 14c1 983c 8bfd 34bc 7bb1 bfbc
000002c0: 7083 98bd 3e6a 96bc c3f7 1f3d e5b4 8e3d
000002d0: c952 babd ec29 c7bd c4cd 0fbd c78e ca3c
000002e0: 6d9c 9b3d 4ad0 af3d 7d4f 50bd 6d60 8d3d
000002f0: 537f 583d 0da5 9a3d ccc7 8bbc f4dc ce3d
00000300: 1dde 8c3d e5c9 513c ef92 4fbd 0b82 ed3c
00000310: 6b70 c6bd ef4a 3e3d 2715 7d3d 705d 9c3d
00000320: cee3 44bd d78b 9fbd a7ba 683d 276b 893b
00000330: 9a2c 3c3d a0f6 4dbd c507 113d 6ed1 9e3d
00000340: 7210 1a3c 2368 053d 8752 133d 98ee 943d
00000350: dd61 c03d 343c 9e3d b161 e6bc c317 9ebd
00000360: dd4c a5bd 85c6 963c 7893 973d c6c8 783d
00000370: 5430 723d 5699 653d 281c 29bd 6c1c 253c
00000380: 65a3 36bd 1837 423d 6d6c ccbc bd0e 38bd
00000390: 2d89 8e3d 8d3b 74bd f06b 8b3d 0b39 76b9
000003a0: c59d d23c 8289 9fbd cdf6 a83c 8bd5 a3bb
000003b0: 081d aa3d 20b3 03bd cba2 9ebc a1eb c6bd
000003c0: 74a3 cb3d 2694 1dbd e551 703d 0483 cebc
000003d0: 8e6e e33c 4df8 b73c be65 2bbd e426 47bc
000003e0: 68b1 c2bd cb44 313d fd03 153c 540f 2d3c
000003f0: 8ddc 29bd 00a0 d6bd 059b 303d b5ef a3bd
-0.035925735 -0.0070347805 0.0424206 -0.014369549 0.06948785 -0.030638168 -0.046529163 0.027106732
0.1160186 -0.063942246 0.021991787 0.081649564 -0.10402041 0.024838038 0.012828556 0.070623964
0.07118313 0.039008435 0.023794211 -0.030713739 -0.07662978 -0.078541696 0.0057900073 -0.051990453
0.53211886 -0.5173947 0.5907781 0.48316923 -0.558942 -0.50308806 -0.5268196 -0.451818
0.4726039 0.5699714 -0.59530383 0.4084239 0.48521426 -0.5483897 -0.4950663 -0.5001942
0.5061034 -0.44002086 -0.6159061 0.53149533 -0.607267 0.5054989 -0.5889255 0.47900867
0.01881113 -0.07465235 0.07021249 -0.05253314 0.09100806 0.120109126 0.03678941 -0.05890075
0.06238462 0.0013165168 0.014501405 -0.09684281 0.06997731 -0.040480547 -0.06333745 -0.018442158
-0.056709673 0.07644067 -0.036682054 -0.05201085 -0.053426187 -0.01205181 -0.0074540824 -0.00071228447
-0.09251118 -0.085252956 -0.09595143 0.018418314 0.00027912355 -0.010893671 0.04862228 -0.083474636
-0.046408907 0.06794626 0.029026808 -0.06572508 -0.09036546 0.040759005 0.030822797 -0.08033471
-0.08792651 0.029992675 -0.026097588 -0.088394515 0.052253973 -0.07980131 0.02604499 0.049209327
0.11710232 0.0965062 -0.011503159 -0.04756111 -0.064416714 -0.05087843 -0.06688085 0.007824148
0.030694034 0.00032453146 -0.034498602 0.08419881 0.025658013 -0.027414503 0.05923758 0.048313454
-0.08936475 0.03536827 -0.07810842 0.024375495 0.09185526 -0.059547205 0.07800571 0.06819874
0.052033458 -0.051475458 0.012622428 -0.03804109 -0.017022576 0.025828712 0.086606555 -0.094753064
0.00765901 0.06320038 -0.0033631807 -0.018469248 -0.014833635 -0.006617035 0.06380304 0.026105689
-0.029891597 -0.05456621 0.01883366 0.035891093 -0.025005965 0.08463951 0.041142255 -0.08213906
0.0041890168 0.060779486 -0.027156863 0.068561554 -0.072154924 0.029952757 0.08786499 -0.050264597
-0.122618474 0.04138631 -0.06039723 0.08015189 -0.013333667 0.04387068 0.030537678 -0.100191176
0.10088552 0.0640393 -0.0039828257 -0.002079523 -0.0031169613 0.010678263 0.03341715 -0.07516434
-0.09220728 0.0337294 0.030380143 -0.027084762 0.056655273 0.018646754 -0.0110467775 -0.023400059
-0.07446945 -0.018361207 0.039054643 0.06968097 -0.09097821 -0.09724793 -0.035108343 0.024726285
0.07598195 0.0858465 -0.050857056 0.069031574 0.0528558 0.07551012 -0.017063044 0.10100737
0.06878302 0.012804483 -0.050677236 0.028992673 -0.09689411 0.04645818 0.06178775 0.07635009
-0.048068814 -0.07790344 0.05681863 0.0041936818 0.045940973 -0.050284028 0.0354078 0.07754789
0.009403335 0.032570016 0.035967376 0.07272071 0.09393666 0.077263266 -0.028122755 -0.07719376
-0.08071301 0.018405208 0.07401174 0.060738347 0.05912812 0.056054436 -0.041286618 0.010077577
-0.04458942 0.047415823 -0.024954045 -0.04493593 0.06959758 -0.059627105 0.06807697 -0.00023481638
0.025709996 -0.077898994 0.020625496 -0.0049998215 0.083063185 -0.03215325 -0.019364735 -0.097129114
0.099432856 -0.038471363 0.05867185 -0.025208957 0.027762678 0.022457266 -0.041845076 -0.012155268
-0.09506494 0.043278497 0.009095189 0.010562737 -0.0414701 -0.10479736 0.04311659 -0.08004705

from_latent.bias f4 [96]
00000000: 0a51 c33c 47ef 0d3f ccad a5bd 0242 8fbd
00000010: 8f9f 803d 48fc e2bc 2a54 853d 1c7e fd3c
00000020: bce5 c33c f0f3 c03d 6c63 a7bd e026 5fbc
00000030: 2d3a 6e3d 5f83 67bc fe34 e23d ba6c c5bc
00000040: ce56 91be 18c3 8f3d 973d 93bd 054e b53d
00000050: 7d9e 64bd e260 88bd 5a8d a7bc 8c05 613c
00000060: dae0 423d 894a 7e3d 5732 c1bc a4c5 b33d
00000070: 53a0 63bd 53cc 8d3d 0d73 8e3d 8160 2ebf
00000080: f568 cbbc 899c 2ebd 30fe 673d 1fb9 cf3d
00000090: 8524 97bd 4e28 bbbd 2c56 b7bc 26fd 823d
000000a0: 1df9 8c3d 0d43 33bc 5049 b73d 93e5 bfbd
000000b0: d31d d73d 2933 2c3d e960 f13e 41f6 283d
000000c0: 1508 893b bb6f 633c 0bc2 aa3d c7af c73d
000000d0: de2d 623d d6ee 753d 73cb 843d f59b 813d
000000e0: ce95 663d 5684 a93b e851 61bd 55f8 9c3d
000000f0: d01d ab3d 974f 5bbd 3527 5c3d 22d7 d4bd
00000100: 0c48 a3bd edda 1e3d 64b8 ddbd 7c82 123d
00000110: e4a9 793d f23c c4bd 6093 d8bc 786a aabd
00000120: 0d58 80bd 7bd3 d63d 7f7b 21bd 6f41 9c3c
00000130: 7440 27bd 3b69 b8bd de7e c3bc 109e 563d
00000140: 8ffe 843d 000e 06bd 8a63 9b3f d058 bf3d
00000150: 0e7f 3d3d 1c58 34bc b055 5d3c 4c89 cc3d
00000160: 26f3 2ebd dcdb 8b3d 94dd b1bd c0ab 01bd
00000170: 550f c43d ff0c 9d3c f908 ccbd 68ca 893c
0.023842353 0.55443233 -0.0808979 -0.06995012 0.062804334 -0.027708188 0.06510194 0.030943923
0.023913257 0.094215274 -0.0817326 -0.013620108 0.05816095 -0.014130442 0.11045264 -0.024099696
-0.2838654 0.07019633 -0.07189482 0.08852772 -0.05581521 -0.06659104 -0.020453144 0.013734233
0.047577716 0.0620828 -0.023583574 0.08777931 -0.05557282 0.069237374 0.06955538 -0.68116003
-0.02483032 -0.042629752 0.056638896 0.10142731 -0.073800124 -0.09138547 -0.022379957 0.063959405
0.06883452 -0.010941279 0.0894953 -0.0936996 0.105037354 0.042040978 0.4714425 0.04125047
0.0041818717 0.013881619 0.08337792 0.09750324 0.055219524 0.060042225 0.06484117 0.063285746
0.05629521 0.0051732464 -0.055009753 0.07664553 0.08355296 -0.0535427 0.05374833 -0.10392596
-0.07972726 0.038783003 -0.10826185 0.03576897 0.060953036 -0.09581937 -0.026437461 -0.083210886
-0.06266794 0.104895554 -0.039424416 0.01907417 -0.04083295 -0.09004446 -0.023864206 0.052396834
0.06493866 -0.032728195 1.2139752 0.093431115 0.046263747 -0.011007335 0.013509199 0.09987125
-0.042712353 0.06829044 -0.08684841 -0.031657934 0.09573237 0.019171236 -0.09962649 0.016820148

decoder.weight_ih_l0 f4 [384, 60]
00000000: 3cc0 09bd 1ba1 aabc 2b27 6f3d 1af9 05be
00000010: 9492 9c3d 8726 00be 43fe 3cbe a8df e1bd
00000020: 5f9e 813c 6e9d 5abd 88ce 53be 135a 2a3e
00000030: 9110 1c3e 8d77 423d 482e 22be b3f1 bd3d
00000040: 1459 083c 0897 ea3c b0f5 babd d68e 8d3c
00000050: f40b 95bc 4b36 0d3e 3b13 a2bd f242 78bd
00000060: b26a 6dbe 5a8e 2e3e 82f0 dabd 6fa4 1dbd
00000070: d7a5 d93d 6228 15bc 8017 6f3d f658 58bc
00000080: 7df9 55bd 44fe f7bb 5785 8fbd 0547 053c
00000090: be7b bfbd 39f1 f9bd f4f9 dabd a36e 953d
000000a0: 087e 03be acc8 313d 26d1 153d 0964 fb3d
000000b0: a247 a33d d604 083e de04 993d 4022 bbbb
000000c0: c049 5ebd e654 f1bd aaa9 89bd 6bf7 ac3d
000000d0: bb61 8ebd 8861 91bd d4de e639 ee46 4cbd
000000e0: b414 a73d 2fe3 f7bc d9f8 8fbd cd66 cf3d
000000f0: 763d 793b b6d9 06bd 2a82 fe3c 4cb9 b13d
00000100: 076c 0c3d 5149 c53d fdf3 f23a 15e2 2e3d
00000110: 1e4a c33c 0421 c3bb f94d 9c3d a300 4d3d
00000120: fb33 36bb d3cf c83c 7556 163d a0a4 cd3b
00000130: e18a 8c3d ccf7 5dbc 5830 a13d 239a 873d
00000140: fdc9 6e3d fd65 483c e8ef 413d 32ae 943d
00000150: ad50 aa3d ec3e 9bbb 208d fe3c 641d 1d3d
00000160: b709 c3bc 7522 853c cc7a 123d 4971 7b3d
00000170: ebea e83b 81b8 b13d 57fb 5dbb 4678 973d
00000180: 6678 473d 6733 313d e2f9 dd3c e2de ccbc
00000190: ad3e 6f3d f6d9 843d e36e 8b3c 3a96 183d
000001a0: beb6 a23c 79e0 cdbc 4a7c d6bc 03cb aabb
000001b0: 50d1 4b3d 9304 df3b b079 613c 56e5 913c
000001c0: 5564 94bc b90c 6f3d 4ccd 463d 5ef2 833d
000001d0: a0a6 dc3c 4c0d 7cbb fc04 0a3d 2db1 773b
000001e0: fc2e 71bd bac3 6ebc 97b9 4bbd 3ad5 3f3d
000001f0: ba49 2b3d c6e4 a03c d492 f83c fb31 f4bc
00000200: 425a de3d 2b71 99bc 73d3 0a3d ce91 1ebc
00000210: 53d5 563d 1d1d 3d3e 9a6a c4bd a029 4e3c
00000220: 2394 d1bc 57a1 463d 6de0 af3d 4457 393d
00000230: 7d50 253d b724 923d c52b b03d d832 1abd
00000240: 92f1 363d 0136 49bd 78a9 cbbd 3ed1 0f3d
00000250: d535 7d3d bc31 dd3d 366d 883c 61f7 d03d
00000260: a54a 1d3e c3b9 c7bd cbc2 093e 85f4 af3d
00000270: 23de 22bd 85b2 3fbd 2994 b83c 3abd 20bd
00000280: e281 0fbd 345d 623c 0c7f 423d e9ad 153e
00000290: a22f 4f3e 1ecc b13d 9c6e 33bb f2bd 243d
000002a0: 7e82 0f3d 0183 83bd b9e1 053e 4858 4a3d
000002b0: cb7a e7bc 6455 e13c a4dc 17bd 7c2f cebd
000002c0: f7c4 2dbe 3589 5dbc b1ad 8d3d dce5 d53d
000002d0: aeb2 0ebe 5e11 10bd bfde 353d 4f75 b5bb
000002e0: f0e6 5f3d b81b 9cbd 73f7 ddbc 776a a7bc
000002f0: 0bd9 16be 7b49 d3ba 8cb6 0a3d 7c4b 11be
00000300: cc5f fb3c 2e52 efbd 292f 893d b4d0 573e
00000310: 75bf a23d dbbd d5bc 734d d33d feb9 e03d
00000320: bb79 923d 8cc1 bd3d 0953 263d 9e4e 90bd
00000330: e4e8 fe3d f3cc bdbd b034 f93d 095e c3bd
00000340: 8751 77bd 5523 05be 2919 223e d867 3bbd
00000350: 0f29 12be d25e 38bd 5574 fdbc 6399 e3bd
00000360: 794c fb3d f21b 13be 8d81 b9bd 0967 973d
00000370: ce03 56bc 61a3 22bd 92db 87be d354 fdbd
00000380: 5710 ecbb 8ca5 dcbd 5d0a 8abe 31f6 eabd
00000390: 4a6a fe3d afff 383b 71c3 05bd c3a5 c73d
000003a0: df59 6c3d 6540 c6bd 902b 91bc 55e8 d63c
000003b0: 81d8 b93d c367 2a3d fe7d 33bd 786b 823d
000003c0: 0dd8 b5bd 80b0 1b3e 9380 063e 98c6 65bd
000003d0: d0d0 103e 34ac 11be 6335 443d 6544 973c
000003e0: b4f4 80bd 2f3f f43d 4286 a03d 6126 39be
000003f0: c469 debc f9e2 523d 48e8 9b3d 0d87 7bbe
-0.033630595 -0.020828774 0.058386963 -0.13083306 0.07645145 -0.12514697 -0.18456368 -0.11028987
0.015822588 -0.053372793 -0.20684254 0.16635923 0.15240695 0.047477294 -0.15837967 0.09274616
0.008322019 0.02863647 -0.091288924 0.017280024 -0.018194176 0.13790242 -0.07913824 -0.06061072
-0.23185232 0.1704649 -0.106904045 -0.038486894 0.106273346 -0.009103866 0.05837202 -0.013204804
-0.052239884 -0.0075681526 -0.070078544 0.008134608 -0.09349774 -0.12204213 -0.10692206 0.07296493
-0.12841046 0.043404266 0.036576413 0.122749396 0.07972647 0.13283095 0.074716315 -0.00571087
-0.054269552 -0.11783771 -0.06721814 0.08445629 -0.06952234 -0.07098681 0.00044035038 -0.04987233
0.08158246 -0.030259697 -0.07029886 0.101270296 0.0038031018 -0.03292247 0.031067926 0.08677921
0.03428271 0.096331246 0.0018535849 0.042696077 0.023839053 -0.0059548635 0.076320596 0.050049435
-0.002780198 0.02451316 0.036703546 0.0062757283 0.068624265 -0.013547849 0.07870549 0.06621196
0.0582981 0.012231347 0.047347933 0.072597876 0.08316169 -0.0047377255 0.031073153 0.038358107
-0.023808343 0.016251782 0.03576164 0.061387334 0.0071080825 0.086777695 -0.0033871734 0.07395987
0.048698805 0.04326191 0.027096692 -0.025008623 0.05840938 0.06486885 0.017020648 0.037252642
0.019862529 -0.025131451 -0.026182313 -0.005212189 0.049760163 0.006805965 0.013761923 0.017809551
-0.018114248 0.058361743 0.04853563 0.06442712 0.026934922 -0.0038460074 0.03369616 0.0037794814
-0.0588827 -0.014573032 -0.04973754 0.046834208 0.041818358 0.019640338 0.03034345 -0.029808989
0.10857059 -0.01873072 0.03389306 -0.009678317 0.052449536 0.18468137 -0.09590645 0.012583166
-0.025583332 0.04849371 0.08587728 0.04524924 0.040359963 0.07135909 0.086020984 -0.037646145
0.044663973 -0.049123768 -0.09944433 0.03511166 0.061818916 0.10800502 0.016653638 0.10203434
0.15360506 -0.09752228 0.13453214 0.0859156 -0.039762627 -0.04680111 0.022531586 -0.03924296
-0.035035975 0.013816167 0.047484443 0.14617123 0.20233014 0.086815104 -0.002737916 0.04022021
0.035036556 -0.064214714 0.13074388 0.049400598 -0.028256794 0.027506538 -0.037075654 -0.10067651
-0.16969667 -0.013521482 0.06917895 0.10444233 -0.13935348 -0.035172813 0.04440188 -0.005537666
0.0546636 -0.076224744 -0.027095532 -0.020436509 -0.14731233 -0.0016119921 0.033865497 -0.14188951
0.030685328 -0.116855964 0.06698448 0.21075708 0.07946674 -0.026091507 0.10317507 0.10972975
0.071521245 0.09265432 0.040606532 -0.07046245 0.12446764 -0.092676066 0.121682525 -0.0953942
-0.060380485 -0.1300176 0.1582991 -0.04575333 -0.14273475 -0.045012303 -0.03093926 -0.111132406
0.122704454 -0.14366129 -0.09057913 0.07392699 -0.013062431 -0.03970659 -0.26534706 -0.123696946
-0.0072040963 -0.10773763 -0.26961032 -0.114727385 0.12422617 0.0028228571 -0.03265709 0.097484134
0.057702895 -0.09680251 -0.017720968 0.026233831 0.09074498 0.04160286 -0.043821327 0.06368154
-0.08879099 0.15204048 0.13134985 -0.056097597 0.14142156 -0.14225847 0.047902476 0.01846523
-0.062966734 0.11926114 0.07838108 -0.18081047 -0.027150042 0.05148599 0.076126635 -0.24563237
