Models/artifact_1/dense_ae.pt (torch, 32194 bytes, 12 tensors)

enc.0.weight f4 [40, 60]
0.07898269 0.18200627 0.05375103 0.11489641 0.092392534 0.038527746 -0.025372356 0.10246965
0.11005627 -0.04353644 0.10811463 0.011739148 0.10426031 0.011878341 0.14708996 0.035683382
0.08194677 -0.0155385295 -0.05660381 0.038438898 0.06290384 0.15261097 -0.028885618 0.067995995
-0.12036885 0.014411251 -0.0008783194 -0.054045543 0.031508453 -0.059930217 0.21002917 -0.10583485
0.14675559 0.06363479 0.066139475 0.111515924 -0.0112868175 0.19063866 0.073442474 0.05106859
0.19886413 -0.0032688563 0.015013999 0.49050057 0.12836044 -0.021677215 0.07801816 -0.010034817
0.0707741 -0.03518249 -0.0785289 0.14714538 -0.014478574 0.09326638 0.071974054 -0.008250753
0.05929559 0.09203881 0.1585301 -0.0080528585 0.008128583 -0.08811556 0.039808065 -0.04445956
0.039558172 -0.026896767 0.10707402 -0.07651749 -0.07699465 -0.07699929 0.11611757 0.04302253
0.12422602 -0.10654271 -0.12805066 -0.10100273 -0.08684379 0.052290455 0.046227396 0.10727188
-0.066670224 -0.08800861 0.068497345 -0.052182578 0.078353524 -0.03063538 0.07385081 -0.10030614
-0.06515 0.039359376 0.027292594 -0.032915033 0.076952234 0.087763 -0.09361948 -0.06892209
0.11821145 -0.043562345 -0.045767866 -0.12491593 -0.07393141 0.03224951 -0.017040245 -0.09371148
0.0030282438 -0.088185444 -0.109527536 -0.07109024 -0.112989396 -0.082202524 0.12904896 0.02438365
0.039783254 -0.12040903 -0.084789135 -0.0429715 0.020187423 -0.11359735 -0.05562547 -0.07728778
0.00035776198 -0.04803832 -0.008946046 -0.08748162 -0.088613234 -0.07531685 -0.044190407 -0.10189572
0.108246 -0.025621593 0.11107674 0.040225074 -0.10932102 0.08934136 -0.035521045 -0.04948718
-0.10716164 -0.1283456 0.03693673 -0.028200984 0.050261393 -0.1059472 0.09584719 -0.09476593
-0.022292033 0.026964962 0.06664783 0.10422331 0.11760433 -0.10236581 0.032490104 -0.05552902
-0.014147341 -0.09662965 0.11759134 -0.0947526 0.06899735 0.045370653 0.041951627 -0.06979713
0.11734514 0.02836965 0.016607359 -0.1137695 0.054194465 -0.019367576 -0.059143588 0.110889524
0.028782561 -0.07142767 -0.065342255 -0.0061652362 0.07208413 -0.03298927 -0.073660895 -0.044209182
-0.096446946 0.046041057 0.099928156 -0.12153942 0.065363586 0.039236136 0.07696013 -0.04328945
0.12760115 0.042697717 0.02778624 0.057879537 0.05355544 0.07617027 -0.006347938 -0.006539135
-0.05049588 0.040708724 0.22270261 0.04724103 0.114052534 0.06462749 0.05499047 0.026217055
0.047691353 0.4052223 0.1577492 0.008329348 -0.020567173 0.002805209 0.057996195 -0.7226427
0.023889456 0.061893385 0.22113585 0.042016603 -0.044270016 -0.03794741 0.04018132 0.18985038
-0.007759731 -0.07462628 0.08893295 0.038386185 -0.55498856 0.10076102 -0.007861338 -0.42105624
0.029143352 0.11010654 0.05656019 0.005300326 0.006788883 0.040725887 -0.062194664 0.5023999
0.07705161 0.15483049 0.3097091 -0.00065230514 -0.0019335004 -0.02388184 -0.02443657 -0.10459415
0.0528484 -0.06338369 -0.025981598 -0.07429741 -0.023524962 -0.09086469 -0.0843556 0.042823687
-0.03836789 0.07969867 -0.041416235 -0.09470312 -0.022778168 -0.06258062 -0.03949689 -0.1229021
00000000: adc1 a13d da5f 3a3e 0a2a 5c3d cf4e eb3d
00000010: 4c38 bd3d 45cf 1d3d b0d9 cfbc 9cdb d13d
00000020: 2f65 e13d 4453 32bd 346b dd3d 8e55 403c
00000030: 6e86 d53d 609d 423c c09e 163e bd28 123d
00000040: b5d3 a73d 5195 7ebc 66d9 67bd 1b72 1d3d
00000050: bad3 803d 0d46 1c3e 88a1 ecbc 7c41 8b3d
00000060: f283 f6bd 2b1d 6c3c 043f 66ba dc5e 5dbd
00000070: 020f 013d 6379 75bd e311 573e f1bf d8bd
00000080: 1947 163e f552 823d 2274 873d 7662 e43d
00000090: 58ec 38bc c836 433e 0269 963d 4c2d 513d
000000a0: 0aa3 4b3e 4f3a 56bb 47fd 753c e422 fb3e
000000b0: eb70 033e 6a94 b1bc fcc7 9f3d 1369 24bc
000000c0: 03f2 903d 841b 10bd c3d3 a0bd 47ad 163e
000000d0: 8a37 6dbc 7202 bf3d 2267 933d 2b2e 07bc
000000e0: efdf 723d d87e bc3d b755 223e 23f0 03bc
000000f0: c02d 053c ee75 b4bd c80d 233d 3a1b 36bd
00000100: c007 223d 9c56 dcbc a049 db3d 34b5 9cbd
00000110: 5faf 9dbd ceb1 9dbd 0ccf ed3d 6438 303d
00000120: 366a fe3d 1033 dabd b61f 03be 85da cebd
00000130: 28db b1bd 842e 563d f058 3d3d 5cb1 db3d
00000140: 668a 88bd dc3d b4bd 5648 8c3d 66bd 55bd
00000150: d077 a03d 0cf7 fabc 183f 973d 4e6d cdbd
00000160: 5d6d 85bd 4c37 213d b894 df3c ead1 06bd
00000170: 2299 9d3d 16bd b33d 92bb bfbd 0627 8dbd
00000180: d818 f23d 6e6e 32bd 1677 3bbd ecd3 ffbd
00000190: 5a69 97bd 1018 043d fc97 8bbc ceeb bfbd
000001a0: 8075 463b 929a b4bd f94f e0bd c297 91bd
000001b0: fc66 e7bd cc59 a8bd 6925 043e 38c0 c73c
000001c0: c4f3 223d 0299 f6bd eda5 adbd e202 30bd
000001d0: 1860 a53c baa5 e8bd 88d7 63bd 0e49 9ebd
000001e0: 0092 bb39 d4c3 44bd 7092 12bc 9029 b3bd
000001f0: db7a b5bd b83f 9abd 0001 35bd b4ae d0bd
00000200: 14b0 dd3d 60e4 d1bc 347c e33d 0cc3 243d
00000210: b3e3 dfbd 9af8 b63d 847e 11bd 12b3 4abd
00000220: 9077 dbbd 076d 03be f84a 173d c005 e7bc
00000230: e4de 4d3d d8fa d8bd 884b c43d a414 c2bd
00000240: c89d b6bc a0e5 dc3c a87e 883d 0873 d53d
00000250: 8ada f03d 2aa5 d1bd 5814 053d 6672 63bd
00000260: 40ca 67bc c4e5 c5bd bad3 f03d a70d c2bd
00000270: 7c4e 8d3d 94d6 393d 78d5 2b3d ccf1 8ebd
00000280: a652 f03d 7867 e83c 280c 883c fcff e8bd
00000290: 04fb 5d3d c0a8 9ebc 8c40 72bd 0c1a e33d
000002a0: 68c9 eb3c ac48 92bd 29d2 85bd c005 cabb
000002b0: d8a0 933d c21f 07bd 86db 96bd b014 35bd
000002c0: fa85 c5bd 8c95 3c3d 22a7 cc3d a9e9 f8bd
000002d0: 58dd 853d 12b6 203d 469d 9d3d 4750 31bd
000002e0: e0a9 023e cde3 2e3d f89f e33c 1813 6d3d
000002f0: f35c 5b3d 29ff 9b3d 5d02 d0bb 3d46 d6bb
00000300: c5d4 4ebd 31be 263d 270c 643e cf7f 413d
00000310: 6094 e93d 6b5b 843d b03d 613d 26c5 d63c
00000320: 0258 433d 4c79 cf3e 0289 213e d177 083c
00000330: 7d7c a8bc 99d7 373b 6b8d 6d3d 1dff 38bf
00000340: d2b3 c33c eb83 7d3d 7071 623e 9a19 2c3d
00000350: 7a54 35bd be6e 1bbd 2b95 243d 2368 423e
00000360: 5745 febb aad5 98bd 7a22 b63d d53a 1d3d
00000370: bb13 0ebf cb5b ce3d d7cc 00bc af94 d7be
00000380: 0abe ee3c 8a7f e13d a8ab 673d 5bae ad3b
00000390: 4775 de3b 30d0 263d d5bf 7ebd 489d 003f
000003a0: 3ccd 9d3d e28b 1e3e 3192 9e3e 75ff 2aba
000003b0: 826d fdba d9a3 c3bc 342f c8bc 7535 d6bd
000003c0: 9077 583d 4fcf 81bd 5cd7 d4bc 3e29 98bd
000003d0: 6cb7 c0bc 4417 babd a1c2 acbd e467 2f3d
000003e0: a627 1dbd 0e39 a33d 12a4 29bd b6f3 c1bd
000003f0: 4899 babc 452a 80bd 7ec7 21bd 19b4 fbbd

enc.0.bias f4 [40]
-0.099650286 -0.076235995 -0.053124204 -0.008640571 0.04224862 -0.049751334 0.066708945 -0.15431212
0.13459907 0.020839123 -0.071185544 -0.045121968 0.09764589 -0.07113927 -0.14454034 0.041329205
-0.034265485 0.09707889 -0.07678428 0.068340026 -0.11494401 -0.10687308 0.017815713 0.03794493
0.09709428 0.11758961 -0.01668535 -0.022119882 0.0034748083 -0.04633387 -0.012800312 -0.12632892
-0.1059787 0.088467 -0.0835147 0.023348823 -0.011639334 0.031446666 0.11733559 -0.07909723
00000000: 7315 ccbd 9e21 9cbd c498 59bd 2e91 0dbc
00000010: e40c 2d3d 0ec8 4bbd b39e 883d ff03 1ebe
00000020: 57d4 093e cfb6 aa3c bac9 91bd d0d1 38bd
00000030: 92fa c73d 77b1 91bd 6202 14be d048 293d
00000040: f759 0cbd 4cd1 c63d 1441 9dbd dbf5 8b3d
00000050: c467 ebbd 46e0 dabd 42f2 913c 256c 1b3d
00000060: 5ed9 c63d d2d2 f03d b7af 88bc c134 b5bc
00000070: 9cb9 633b 96c8 3dbd 66b8 51bc 5e5c 01be
00000080: 5c0b d9bd 302e b53d c109 abbd 0846 bf3c
00000090: e8b2 3ebc 38ce 003d a44d f03d bbfd a1bd

enc.2.weight f4 [20, 40]
-0.050017092 0.028012946 0.054018304 -0.17398547 0.056196615 -0.09324386 0.007082738 0.086864956
-0.033085316 -0.0050019026 -0.011813536 0.11548559 0.08986078 0.0265899 -0.11526229 -0.085861675
0.09109378 0.11375038 0.091549516 -0.13195089 0.123137936 -0.015114412 0.09143388 0.13732974
0.017331019 -0.09303024 0.14872997 -0.08239632 0.10331394 -0.15161383 -0.049728848 -0.1492912
-0.07092613 0.067138165 -0.11329304 -0.1568443 0.08799937 0.08440444 -0.0017290115 -0.11146409
-0.059168823 -0.0511942 0.09764962 -0.06913345 -0.045539267 -0.112080485 -0.09195984 0.068255424
0.0838547 0.022971928 -0.059324034 0.13443476 0.031208515 -0.0610314 -0.07223561 -0.02212818
0.058270138 0.05783294 0.11462633 -0.02462331 0.13077484 -0.06422385 -0.09026826 -0.058391042
-0.14834371 -0.12096269 -0.14307326 -0.009344161 0.0014906079 -0.04103721 -0.10805243 0.12596495
-0.052389488 0.075349614 0.110112116 -0.1213856 -0.037083376 0.09138465 0.15326913 -0.019947827
0.06688207 -0.12409824 -0.102732815 0.0876696 -0.014970154 0.15620427 -0.028615668 -0.10772435
0.1016725 0.13826801 0.0146739185 -0.13313238 -0.006845847 -0.076039635 0.07036822 0.0073243976
-0.0133519545 0.09236708 0.05237387 -0.13374597 0.13134904 0.09361297 -0.13871482 0.11955036
0.044857457 -0.07754128 -0.11307725 -0.026234716 -0.15854506 0.08672178 0.11099109 -0.07956788
0.14657943 -0.058548205 0.027076751 -0.15380396 -0.046747647 0.06391436 0.0681051 -0.0053019524
-0.14183456 0.110519305 0.104681805 -0.03628272 -0.07271277 0.033524185 -0.062340014 0.08121929
0.0028499966 0.0052001257 0.010808587 0.02255291 -0.012744824 0.1241751 0.020369953 -0.119475126
-0.018487422 -0.16218999 -0.13598345 -0.032071225 0.02490197 -0.04341581 0.08684044 -0.08494064
-0.06626327 -0.08743491 -0.00765977 -0.013392627 0.12997201 -0.09150447 -0.086984836 -0.050204474
0.11875652 0.037529215 0.077041745 -0.03167016 0.09266277 0.09496693 0.11314134 -0.021296367
-0.17618951 -0.07500358 0.05386439 0.05348615 -0.06177579 0.13082643 -0.023141287 -0.047148816
-0.038829118 -0.027934387 0.14802442 -0.032079507 0.08628023 -0.14255913 -0.12166794 0.0177778
0.060004286 0.055583764 0.014254972 -0.19108145 -0.012867496 -0.1229454 -0.18041445 0.021621034
-0.1000395 0.10279707 -0.092051245 0.050955072 0.07578012 -0.143338 0.06702318 -0.056286234
0.081928715 0.15301229 -0.07631822 -0.103820056 0.065899864 0.017582342 -0.015769139 0.119956
-0.07639178 -0.007807046 0.108604595 0.061792642 -0.1022704 0.04109642 -0.12055184 -0.08586745
0.10166909 -0.04213929 -0.080536425 0.011207476 0.03863834 -0.098286256 -0.10662621 -0.15312842
0.040854022 -0.102019735 0.0120496005 -0.035363466 -0.10338434 -0.050453953 -0.12154056 -0.083694875
-0.004928604 -0.13517395 -0.13867114 0.11843686 0.014878213 -0.06992647 -0.00525707 0.11725174
-0.13190897 -0.08382938 -0.11433855 -0.011495039 -0.005441144 -0.12321907 0.109744295 -0.121418774
0.20301236 -0.108840704 -0.021668792 -0.036071923 -0.070278056 0.14540817 -0.1032154 0.045802463
-0.3248351 0.03751674 0.13480584 0.15733562 0.010183965 -0.0896258 0.22330256 0.011800095
00000000: b9de 4cbd 687b e53c 4c42 5d3d 3f29 32be
00000010: 6c2e 663d a3f6 bebd 5016 e83b 41e6 b13d
00000020: 7884 07bd 00e7 a3bb 908d 41bc b683 ec3d
00000030: ee08 b83d 10d3 d93c a30e ecbd 3fd8 afbd
00000040: 608f ba3d f6f5 e83d 507e bb3d 221e 07be
00000050: be2f fc3d 70a2 77bc b041 bb3d 2ba0 0c3e
00000060: c8f9 8d3c a386 bebd ab4c 183e 67bf a8bd
00000070: 4296 d33d a840 1bbe 7ab0 4bbd cbdf 18be
00000080: b841 91bd bc7f 893d 2e06 e8bd cb9b 20be
00000090: 0439 b43d 3cdc ac3d 00a0 e2ba 4947 e4bd
000000a0: 025b 72bd 02b1 51bd 86fc c73d d795 8dbd
000000b0: 6287 3abd 748a e5bd 7155 bcbd 80c9 8b3d
000000c0: 03bc ab3d a02f bc3c c2fd 72bd 44a9 093e
000000d0: 00a9 ff3c 10fc 79bd 43f0 93bd 2846 b5bc
000000e0: abac 6e3d 3ce2 6c3d 36c1 ea3d d3b6 c9bc
000000f0: d7e9 053e cb87 83bd 91de b8bd 722b 6fbd
00000100: 6ae7 17be 49bb f7bd cc81 12be 4018 19bc
00000110: 8060 c33a a216 28bd 984a ddbd f5fc 003e
00000120: 5c96 56bd e650 9a3d 7682 e13d 0399 f8bd
00000130: bde4 17bd e027 bb3d 95f2 1c3e a069 a3bc
00000140: 77f9 883d 3827 febd 9565 d2bd 1f8c b33d
00000150: 6045 75bc 03f4 1f3e 686b eabc 969e dcbd
00000160: ac39 d03d 2196 0d3e e06a 703c db53 08be
00000170: 2053 e0bb abba 9bbd 371d 903d 8001 f03b
00000180: 28c2 5abc f42a bd3d fc85 563d b4f4 08be
00000190: 5d80 063e 28b8 bf3d 420b 0ebe d2d6 f43d
000001a0: 74bc 373d f6cd 9ebd 0c95 e7bd 30ea d6bc
000001b0: a359 22be 309b b13d 4c4f e33d 7cf4 a2bd
000001c0: eb18 163e 3ed0 6fbd 10d0 dd3c c97e 1dbe
000001d0: 767a 3fbd 88e5 823d b07a 8b3d 00bc adbb
000001e0: 143d 11be f257 e23d 6a63 d63d 309d 14bd
000001f0: 6fea 94bd a850 093d 3e58 7fbd 4d56 a63d
00000200: 02c7 3a3b d165 aa3b 8016 313c e1c0 b83c
00000210: abcf 50bc 844f fe3d e3de a63c 60af f4bd
00000220: ef72 97bc 2215 26be 3f3f 0bbe 1e5d 03bd
00000230: 37ff cb3c c7d4 31bd 67d9 b13d 5cf5 adbd
00000240: 0ab5 87bd 1311 b3bd cffe fabb c06c 5bbc
00000250: 6217 053e b266 bbbd 1b25 b2bd 35a3 4dbd
00000260: 9e36 f33d 3cb8 193d 10c8 9d3d 92b8 01bd
00000270: fac5 bd3d 067e c23d a6b6 e73d b875 aebc
00000280: 066b 34be 7a9b 99bd e8a0 5c3d 4b14 5b3d
00000290: 9c08 7dbd 5df7 053e cc92 bdbc 1e1f 41bd
000002a0: 480b 1fbd a8d6 e4bc b793 173e cd65 03bd
000002b0: b0b3 b03d 05fb 11be 0a2d f9bd c0a2 913c
000002c0: 0ec7 753d cdab 633d b08d 693c dbaa 43be
000002d0: 31d2 52bc ccca fbbd 91be 38be 981e b13c
000002e0: 82e1 ccbd 4587 d23d 5d85 bcbd 44b6 503d
000002f0: 9c32 9b3d 32c7 12be 7343 893d 658c 66bd
00000300: 3eca a73d 41af 1c3e ba4c 9cbd 9c9f d4bd
00000310: 82f6 863d d808 903c 482e 81bc 7eab f53d
00000320: 4b73 9cbd 40d2 ffbb 166c de3d 481a 7d3d
00000330: 2573 d1bd b854 283d e2e3 f6bd 46db afbd
00000340: e237 d03d 409a 2cbd 48f0 a4bd 909f 373c
00000350: 3c43 1e3d 4e4a c9bd d85e dabd b2cd 1cbe
00000360: 8c56 273d b9ef d0bd b06b 453c 48d9 10bd
00000370: 2bbb d3bd cea8 4ebd 42ea f8bd 3868 abbd
00000380: 2080 a1bb 0a6b 0abe cfff 0dbe 068f f23d
00000390: c0c3 733c 9c35 8fbd 8043 acbb ae21 f03d
000003a0: 2513 07be bdae abbd 542a eabd b055 3cbc
000003b0: a04b b2bb 485a fcbd 9ec1 e03d 68aa f8bd
000003c0: 79e2 4f3e e0e7 debd c082 b1bc 27c0 13bd
000003d0: f1ed 8fbd e1e5 143e 9862 d3bd 5d9b 3b3d
000003e0: c950 a6be 27ab 193d 8b0a 0a3e 971c 213e
000003f0: a5da 263c bb8d b7bd 6da9 643e 3055 413c

enc.2.bias f4 [20]
-0.14615387 -0.051180404 -0.0746605 -0.028400904 0.10830573 0.070978135 -0.20858397 -0.023210434
0.12491736 -0.026990404 0.048956703 -0.08269914 0.020727625 0.0461374 -0.13219848 0.021532718
0.1224349 -0.11141997 -0.05552092 -0.13800864
00000000: 5ca9 15be 8ba2 51bd 9be7 98bd 03a9 e8bc
00000010: 65cf dd3d fc5c 913d 0997 55be cf23 bebc
00000020: acd4 ff3d fb1a ddbc d386 483d 2b5e a9bd
00000030: fbcc a93c 92fa 3c3d 0a5f 07be 6265 b03c
00000040: 26bf fa3d 2730 e4bd e769 63bd 2352 0dbe

enc.4.weight f4 [10, 20]
0.03479907 -0.08202344 0.213907 -0.21538013 -0.12638244 -0.13572451 0.0604589 0.031731367
-0.063718125 0.19083902 -0.19302925 0.078810245 -0.12304 -0.05091718 -0.21533343 -0.16692404
-0.18971902 0.09755382 -0.08396581 0.11696887 -0.12118346 -0.055401847 0.027066946 0.17307115
-0.07355478 0.12962973 0.033859298 0.1126599 0.10770542 0.075265236 -0.10300235 -0.06275892
0.051682968 0.1218752 -0.011934668 0.07528472 -0.17130636 0.11847525 -0.06239818 -0.18704373
-0.10864698 -0.14877641 0.049720585 -0.09938159 -0.07114958 -0.014010072 -0.22174753 -0.11454391
0.055847898 0.041055672 0.22609258 -0.13498452 -0.03621972 -0.004737526 -0.11696862 -0.15142176
0.12553594 0.054639034 0.07216853 -0.16154921 0.11276394 0.05228699 -0.2173751 0.01854991
-0.043274008 -0.095415145 -0.29832834 -0.28640795 0.3636118 -0.16639274 0.25202006 -0.17577817
-0.23112011 -0.09160425 -0.0934586 0.23438269 0.034689788 -0.1383216 -0.032592747 0.24621743
-0.02702871 0.076473415 0.12152859 -0.032799028 -0.10607511 0.08230898 0.02141744 0.10557948
-0.06695287 -0.075266525 0.24251668 0.04300481 0.33499295 0.030035943 -0.12525228 0.19663191
-0.017210105 -0.054387543 0.19939657 -0.0249525 0.04540524 -0.21277826 0.10705054 0.110960834
-0.18387103 0.124803245 0.2313438 0.068836525 0.23385736 0.08265013 0.08734043 -0.08305329
-0.2761141 -0.12031717 0.08797884 0.028763505 -0.17356238 0.19845368 0.15580101 -0.13456514
0.115689516 -0.094786555 0.07017401 0.1861153 -0.19778736 -0.111178875 -0.042329334 0.0013683529
-0.2045848 -0.15173298 -0.047604915 -0.032239154 0.048230767 0.028413266 0.04587114 -0.012509484
0.0012703198 -0.012906313 0.052739117 0.12675461 -0.111591026 -0.11583979 0.09814441 -0.1616976
0.14531267 0.103301585 0.032340705 -0.09707683 0.006704971 -0.17679554 -0.20117494 0.21057132
-0.20055881 -0.18553863 -0.08685945 0.012557164 0.051213562 -0.11018951 -0.02169855 -0.049933583
0.18709749 0.17321527 0.082364805 0.019520037 0.15085089 -0.18053663 0.2306856 -0.20961453
0.15386844 -0.18569125 0.117770374 -0.18384582 0.18718332 0.040886432 0.18019119 -0.13385868
0.22978579 -0.15705153 -0.095792465 0.11785467 -0.037638232 -0.15640919 -0.19026995 -0.042287853
0.047580764 0.19640607 0.2675788 0.26102513 -0.30286825 -0.19897206 0.21711874 -0.12467079
-0.5104731 -0.18043166 -0.15260552 -0.0075322245 0.0965502 0.01781068 -0.041855227 -0.0046667736
00000000: 7889 0e3d e8fb a7bd 700a 5b3e 9c8c 5cbe
00000010: 666a 01be 5efb 0abe c0a3 773d c0f8 013d
00000020: a67e 82bd 4e6b 433e 76a9 45be 4467 a13d
00000030: 65fc fbbd 888e 50bd 5e80 5cbe 23ee 2abe
00000040: b445 42be 4cca c73d 44f6 abbd 608d ef3d
00000050: 092f f8bd 0ced 62bd 80bb dd3c 9039 313e
00000060: e3a3 96bd a8bd 043e 0cb0 0a3d 3cba e63d
00000070: a994 dc3d a924 9a3d e5f2 d2bd c087 80bd
00000080: 85b1 533d b499 f93d a089 43bc e02e 9a3d
00000090: ef6a 2fbe 27a3 f23d 3c95 7fbd 6488 3fbe
000000a0: 4f82 debd d858 18be d0a7 4b3d 9388 cbbd
000000b0: dfb6 91bd 808a 65bc c911 63be ff95 eabd
000000c0: c4c0 643d fe29 283d d084 673e 6239 0abe
000000d0: 215b 14bd 403d 9bbb 3e8d efbd 4e0e 1bbe
000000e0: 7e8c 003e 2ecd 5f3d 18cd 933d 286d 25be
000000f0: c8f0 e63d e22a 563d 9497 5ebe fbf5 973c
00000100: 1640 31bd 0469 c3bd 7ebe 98be 10a4 92be
00000110: 532b ba3e dc62 2abe c608 813e 31ff 33be
00000120: c0aa 6cbe 029b bbbd 3967 bfbd 0402 703e
00000130: e116 0e3d 2da4 0dbe f97f 05bd 6c20 7c3e
00000140: 506b ddbc 189e 9c3d fbe3 f83d 4658 06bd
00000150: e83d d9bd 9c91 a83d a173 af3c 0e3a d83d
00000160: 961e 89bd 5625 9abd 4b56 783e d025 303d
00000170: 3284 ab3e f00d f63c 2242 00be e059 493e
00000180: 35fc 8cbc 79c5 5ebd 9d2e 4c3e 2f69 ccbc
00000190: d8fa 393d 8be2 59be 503d db3d 6f3f e33d
000001a0: b048 3cbe d898 ff3d 64e5 6c3e 2afa 8c3d
000001b0: 4e78 6f3e 7944 a93d 8adf b23d d817 aabd
000001c0: d45e 8dbe d968 f6bd 402e b43d 71a1 eb3c
000001d0: 56ba 31be 7137 4b3e 4d8a 1f3e 72cb 09be
000001e0: a0ee ec3d 741f c2bd 64b7 8f3d 0295 3e3e
000001f0: c588 4abe c0b1 e3bd 8661 2dbd 4e5a b33a
00000200: ae7e 51be e45f 1bbe 5ffd 42bd 340d 04bd
00000210: a08d 453d f0c2 e83c 60e3 3b3d 94f4 4cbc
00000220: dc80 a63a 0075 53bc f904 583d f6cb 013e
00000230: d689 e4bd 693d edbd f0ff c83d 0e94 25be
00000240: d8cc 143e c88f d33d b077 043d 38d0 c6bd
00000250: 60b5 db3b e409 35be ce00 4ebe 02a0 573e
00000260: 4a5f 4dbe d7fd 3dbe 5ee3 b1bd 90bc 4d3c
00000270: 50c5 513d 0aab e1bd 28c1 b1bc 2887 4cbd
00000280: 7c96 3f3e 585f 313e e1ae a83d 7ce8 9f3c
00000290: a878 1a3e 98de 38be d938 6c3e 31a5 56be
000002a0: b08f 1d3e d925 3ebe 9831 f13d 1442 3cbe
000002b0: fcac 3f3e 8878 273d 0a84 383e 4012 09be
000002c0: f74c 6b3e 1ed2 20be d72e c4bd ca5d f13d
000002d0: 8c2a 1abd bb29 20be 20d6 42be 0736 2dbd
000002e0: 0ce4 423d ac1e 493e 1700 893e 16a5 853e
000002f0: 8c11 9bbe 55bf 4bbe 6054 5e3e 6653 ffbd
00000300: 5dae 02bf 14c3 38be 9f44 1cbe e1d0 f6bb
00000310: 1cbc c53d b4e7 913c 6370 2bbd bceb 98bb

enc.4.bias f4 [10]
-0.044306472 -0.043946803 0.2154372 0.16083418 0.16806644 -0.24364664 -0.21372277 -0.033418924
-0.058103066 0.07891826
00000000: b47a 35bd 9001 34bd 929b 5c3e b7b1 243e
00000010: 9c19 2c3e 817e 79be 24da 5abe 48e2 08bd
00000020: 7bfd 6dbd e69f a13d

dec.0.weight f4 [20, 10]
0.2976838 0.052899912 0.16556714 0.09675423 0.3735385 -0.121396564 -0.21146755 0.018457562
-0.34730762 0.0071097505 0.22117075 -0.10407184 0.32592818 -0.18619479 0.30593258 0.4223717
0.20491871 0.08635959 0.17751051 -0.13883512 -0.17449223 -0.23925686 0.30213395 -0.1698905
-0.021295253 -0.3349189 0.08487171 -0.10779773 -0.15671128 0.112707354 -0.29131356 -0.0018981533
-0.089659154 0.28655362 -0.094538674 0.08003022 0.1565789 -0.2526703 0.13956162 0.49803084
-0.19384664 0.026774086 -0.22020924 0.28449777 0.2663866 -0.47305554 -0.2531251 -0.27961436
-0.07146874 -0.09872422 -0.11346348 0.20836964 -0.21793544 -0.2523897 -0.24720049 -0.1866557
0.3097339 0.03993368 -0.05536726 -0.09293312 -0.24220645 -0.06859709 0.1572029 0.25197715
0.24040893 0.019315941 -0.17995544 -0.18669039 0.3038546 -0.3061558 0.07486519 -0.05926218
0.4466677 0.21060961 -0.037151497 -0.115805745 0.049087908 -0.22118238 -0.035715215 0.12810518
0.15442288 -0.085526094 -0.21346435 -0.26932144 -0.29953018 0.03966534 -0.19246863 0.0114684105
-0.14981411 -0.21400052 0.21323004 0.20827186 0.1696862 0.34204498 -0.16732444 -0.17011335
-0.24269205 0.21233967 0.2537244 0.33949512 -0.22126943 -0.16958995 0.30828324 -0.25110918
-0.21060969 0.116419464 -0.27643168 -0.089408696 0.13436726 0.25906464 -0.035882324 -0.2798428
0.11817217 0.25516158 -0.29522866 -0.0754043 -0.22875181 -0.161472 0.045609724 0.08666439
0.13076404 -0.2588771 -0.13587445 0.28266746 0.036929455 0.05878131 -0.17089668 0.29984006
-0.25061622 -0.30410004 0.23043975 -0.18838908 0.25231165 -0.2328426 -0.09745131 -0.1405117
0.25170466 0.21922943 -0.014382632 0.021093642 -0.11934245 -0.13163316 0.034034297 0.13323198
-0.10252579 0.34961522 0.03596263 0.0034908056 -0.2692394 0.09059193 -0.29251295 0.09108337
0.081732966 0.029072534 0.23258801 0.07530325 -0.087335676 -0.22128195 -0.28621122 0.22122344
0.17213467 -0.22672239 -0.061391935 -0.13463178 0.2811804 -0.3449961 0.2663781 0.22367248
0.30364966 0.25897458 0.09862518 0.12444043 -0.31204253 -0.08406803 -0.04451544 0.17223512
-0.13008747 0.1448966 0.16959354 0.17008443 0.16276035 -0.03398736 0.1120982 -0.17098123
0.23613517 -0.15425919 -0.018446177 -0.27841094 0.361952 -0.116345465 0.23552927 -0.20687786
-0.2645642 -0.050616443 -0.25285578 0.060765564 0.0042594075 -0.11596474 0.19800058 0.20487174
00000000: 036a 983e 94ad 583d 6f8a 293e 1527 c63d
00000010: 7040 bf3e c39e f8bd f38a 58be 5034 973c
00000020: 4ed2 b1be e9f8 e83b 967a 623e 9e23 d5bd
00000030: 0fe0 a63e d9a9 3ebe 32a3 9c3e 1a41 d83e
00000040: 36d6 513e 4cdd b03d 51c5 353e cb2a 0ebe
00000050: 17ae 32be c0ff 74be 4db1 9a3e c6f7 2dbe
00000060: 6273 aebc 7d7a abbe 38d1 ad3d 0ec5 dcbd
00000070: ec78 20be 1dd3 e63d 0d27 95be 75cb f8ba
00000080: 389f b7bd 28b7 923e 7e9d c1bd e2e6 a33d
00000090: 3856 203e 005e 81be 3ee9 0e3e e6fd fe3e
000000a0: bc7f 46be 5455 db3c 887e 61be b1a9 913e
000000b0: d363 883e 5634 f2be 9d99 81be 9d29 8fbe
000000c0: 345e 92bd ed2f cabd 8a5f e8bd da5e 553e
000000d0: 782a 5fbe 3939 81be 2022 7dbe ac22 3fbe
000000e0: 7195 9e3e 8091 233d c8c8 62bd b853 bebd
000000f0: f804 78be a27c 8cbd ccf9 203e 2603 813e
00000100: c22d 763e 773c 9e3c 3d46 38be c42b 3fbe
00000110: d592 9b3e 74c0 9cbe ec52 993d e6bc 72bd
00000120: a1b1 e43e 0caa 573e 2b2c 18bd 902b edbd
00000130: 6710 493d a27d 62be 1e4a 12bd 012e 033e
00000140: 0821 1e3e 4e28 afbd 6696 5abe 80e4 89be
00000150: 055c 99be 2078 223d 7f16 45be 00e6 3b3c
00000160: df68 19be f422 5bbe fa58 5a3e 3845 553e
00000170: 38c2 2d3e 8520 af3e 1957 2bbe 3232 2ebe
00000180: 4484 78be 926f 593e 2ae8 813e 4ed2 ad3e
00000190: 7494 62be fda8 2dbe 4dd7 9d3e 6291 80be
000001a0: 11aa 57be 546d ee3d 7488 8dbe e81b b7bd
000001b0: 9297 093e 1fa4 843e 58f9 12bd 8e47 8fbe
000001c0: 4004 f23d 8aa4 823e 3628 97be 926d 9abd
000001d0: ea3d 6abe ea58 25be 43d1 3a3d 1a7d b13d
000001e0: 02e7 053e 8a8b 84be ac22 0bbe cab9 903e
000001f0: 5743 173d acc4 703d 8aff 2ebe a384 993e
00000200: c550 80be 00b3 9bbe 66f8 6b3e 11e9 40be
00000210: fe2e 813e 4a6e 6ebe 8d94 c7bd 4de2 0fbe
00000220: 6fdf 803e ae7d 603e 22a5 6bbc 93cc ac3c
00000230: d069 f4bd d8ca 06be 8c67 0b3d f76d 083e
00000240: 0bf9 d1bd c400 b33e 8d4d 133d 00c6 643b
00000250: bfd9 89be 4388 b93d 42c4 95be eb89 ba3d
00000260: 9d63 a73d 8629 ee3c 8d2b 6e3e 9738 9a3d
00000270: 0cdd b2bd bc97 62be 478a 92be 6688 623e
00000280: 1244 303e ea29 68be 1c76 7bbd eadc 09be
00000290: e1f6 8f3e 54a3 b0be b662 883e 660a 653e
000002a0: f877 9b3e 5198 843e 00fc c93d a0da fe3d
000002b0: 0ac4 9fbe dc2b acbd d255 36bd 675e 303e
000002c0: a635 05be c65f 143e eea9 2d3e 9d2a 2e3e
000002d0: a6aa 263e 5436 0bbd be93 e53d b415 2fbe
000002e0: 6bcd 713e 1ff6 1dbe 701c 97bc e18b 8ebe
000002f0: c651 b93e 8846 eebd 962e 713e cad7 53be
00000300: f574 87be 3053 4fbd 5076 81be 50e5 783d
00000310: 8092 8b3b ec7e edbd aac0 4a3e e6c9 513e

dec.0.bias f4 [20]
-0.12867218 -0.40867156 0.3032699 -0.25654155 -0.014876611 -0.08421935 0.075390756 -0.09330548
0.0010105073 -0.10832015 -0.14245503 -0.20868124 0.11047909 0.30202162 0.06260245 -0.021668196
0.24748762 0.24246033 -0.13855015 -0.25894284
00000000: a4c2 03be 663d d1be 3146 9b3e 6a59 83be
00000010: 07bd 73bc 327b acbd 7866 9a3d f216 bfbd
00000020: 0073 843a f4d6 ddbd bbdf 11be 89b0 55be
00000030: dc42 e23d 94a2 9a3e b735 803d 8081 b1bc
00000040: 656d 7d3e 8547 783e 17e0 0dbe 2894 84be

dec.2.weight f4 [40, 20]
0.052473456 0.066764206 -0.17693906 -0.20059192 0.023454696 0.21835029 -0.20000501 -0.10956216
-0.07711415 -0.19751494 -0.13768056 0.1755149 0.17102236 -0.1645056 0.0047935545 -0.18211624
0.092873365 -0.15272626 -0.113953575 -0.103644155 -0.018011136 0.32988504 -0.12841512 -0.15148349
0.1308154 -0.013549015 0.012763257 -0.112075455 -0.002856478 0.058958154 0.120991975 -0.09115653
0.28287154 0.03731867 -0.012076118 0.16978289 -0.03483206 0.08307516 -0.2747877 0.20071483
0.210792 -0.16708168 -0.20013852 -0.06507957 -0.1374763 0.059743613 0.09953469 -0.02849111
0.1569083 0.008473277 -0.06572065 -0.19086424 0.071067005 -0.21068358 -0.0007646531 0.03268385
-0.12523058 0.067175984 0.043467104 0.1496427 0.13985431 -0.18095964 -0.18164855 -0.082068935
-0.17794453 0.07010919 -0.16367215 -0.17071816 0.06512815 0.1185184 -0.06500749 -0.22281444
0.015866365 0.101179175 0.15801208 0.003964811 0.1379685 -0.2164421 0.21391973 -0.14439093
-0.28314817 0.57224786 -0.05505263 -0.3357965 -0.124557495 0.16917509 0.2830283 0.03365643
0.18038228 -0.17804252 -0.049375266 0.09446146 0.38706324 -0.11959552 0.23468474 -0.034888923
-0.11784235 0.057990436 -0.21387228 -0.20522599 0.035395656 0.054146275 0.046047967 -0.066778
-0.19206928 -0.1796316 0.19207631 -0.22281404 0.06739354 0.15501322 0.1708301 -0.14098504
-0.093879364 -0.21067144 0.11310183 -0.23845516 -0.22992219 -0.17104925 0.15886821 0.1449391
0.31763434 0.46067503 0.08658774 -0.20626451 -0.042122945 0.073780924 0.08344591 0.14886826
-0.17202502 -0.045270562 -0.1186549 -0.043971613 0.04583423 0.05114809 -0.18468167 0.2731704
-0.074795835 -0.02685321 0.16116506 0.090106755 0.15659624 0.12626699 0.16373417 0.047194064
0.14281741 -0.09719609 -0.120489314 0.106773436 0.058671057 -0.008385211 -0.18861431 0.07306662
0.14484203 -0.025816426 0.051371604 0.09954539 -0.22082937 -0.036789685 -0.082950294 -0.11428955
0.10697337 0.19881105 0.007166496 0.12822053 -0.19973637 0.039393634 -0.051935602 -0.15923423
0.045848936 0.057419293 -0.010800183 0.09495321 0.090919204 0.18232521 -0.0068723466 -0.019638954
-0.03003491 0.012910151 -0.17520182 -0.027523577 -0.35812038 -0.15249947 -0.08064497 -0.14902925
-0.13279042 -0.018045425 0.061126232 0.11098603 0.101481676 -0.15219043 0.21870434 -0.17990418
0.07215679 0.313329 0.260797 -0.005860321 -0.11821455 0.16462833 0.06288812 -0.11920473
-0.03538385 -0.13598695 0.085392594 0.047594726 0.11084044 -0.07671906 -0.21584995 -0.09416735
-0.17487903 -0.053869024 0.081263304 -0.18602571 -0.010437563 -0.21877246 -0.15845883 -0.15655577
-0.07613483 -0.11329661 0.034418494 0.13669178 -0.12844746 -0.1728492 -0.06208911 -0.06596268
0.2534844 -0.12806642 0.25649405 -0.05056444 -0.1668935 0.120159455 -0.09209688 0.06901198
0.59721243 -0.041264806 0.24284564 -0.074701115 -0.10124352 -0.04605335 -0.034835782 -0.09835787
0.11791696 0.630885 -0.15686496 0.35227734 0.0634299 0.1294947 0.019230053 -0.16125137
0.09228554 -0.11726695 -0.1372537 0.2251243 0.10997036 -0.24730022 0.23268287 0.05055909
00000000: 68ee 563d acbb 883d 832f 35be f867 4dbe
00000010: 1024 c03c 3897 5f3e 1dce 4cbe 2062 e0bd
00000020: 06ee 9dbd 5b41 4abe 22fc 0cbe 2eba 333e
00000030: 7c20 2f3e 2874 28be 4013 9d3b ae7c 3abe
00000040: 6434 be3d 4664 1cbe 7e60 e9bd 6343 d4bd
00000050: 178c 93bc b1e6 a83e 417f 03be 7d1e 1bbe
00000060: 79f4 053e b0fc 5dbc fb1c 513c d187 e5bd
00000070: c033 3bbb 1b7e 713d a4ca f73d 46b0 babd
00000080: 8ad4 903e 76db 183d e9da 45bc 91db 2d3e
00000090: 10ac 0ebd 4f23 aa3d f9b0 8cbe 3088 4d3e
000000a0: dcd9 573e 7617 2bbe 1df1 4cbe 7048 85bd
000000b0: 96c6 0cbe b8b5 743d d8d8 cb3d 3066 e9bc
000000c0: 92ac 203e 80d3 0a3c 8c98 86bd ea71 43be
000000d0: 948b 913d 70bd 57be 0073 48ba 80df 053d
000000e0: 723c 00be 9093 893d 900a 323d f03b 193e
000000f0: f835 0f3e 7c4d 39be 1402 3abe c213 a8bd
00000100: 1737 36be 6895 8f3d ac99 27be bed0 2ebe
00000110: e861 853d c6b9 f23d a622 85bd 7829 64be
00000120: 2efa 813c 0737 cf3d ebcd 213e 3feb 813b
00000130: 9d47 0d3e ffa2 5dbe c60d 5b3e 37db 13be
00000140: ccf8 90be d67e 123f de7e 61bd 85ed abbe
00000150: 0018 ffbd 3c3c 2d3e 16e9 903e 53db 093d
00000160: 22b6 383e c750 36be b83d 4abd 0375 c13d
00000170: 272d c63e 7fee f4bd 3251 703e b0e7 0ebd
00000180: 5457 f1bd 6187 6d3d 5601 5bbe c326 52be
00000190: 09fb 103d 7cc8 5d3d cb9c 3c3d e7c2 88bd
000001a0: cfad 44be 59f1 37be a7af 443e 5d29 64be
000001b0: a005 8a3d c9bb 1e3e 16ee 2e3e 625e 10be
000001c0: d343 c0bd 41ba 57be efa1 e73d 972d 74be
000001d0: b970 6bbe 8927 2fbe 59ae 223e ea6a 143e
000001e0: f8a0 a23e 99dd eb3e ea54 b13d 0137 53be
000001f0: 1c89 2cbd 741a 973d b0e5 aa3d ec70 183e
00000200: 5427 30be a06d 39bd 5701 f3bd 941b 34bd
00000210: acbc 3b3d a980 513d 311d 3dbe fedc 8b3e
00000220: 8f2e 99bd 43fb dbbc 7408 253e e489 b83d
00000230: c45a 203e 224c 013e eea9 273e 904e 413d
00000240: ba3e 123e be0e c7bd 1ac3 f6bd 08ac da3d
00000250: 1051 703d 2062 09bc 1c24 41be f4a3 953d
00000260: 7851 143e f87c d3bc 086b 523d 74de cb3d
00000270: 1821 62be c8b0 16bd d8e1 a9bd a410 eabd
00000280: db14 db3d 2095 4b3e edd4 ea3b 3e4c 033e
00000290: b187 4cbe 385b 213d 6dba 54bd 4c0e 23be
000002a0: 18cc 3b3d 7e30 6b3d 40f3 30bc d476 c23d
000002b0: d933 ba3d 76b3 3a3e 6c31 e1bb dfe1 a0bc
000002c0: c60b f6bc 1985 533c 1b68 33be 2079 e1bc
000002d0: 8e5b b7be d228 1cbe 3129 a5bd 209b 18be
000002e0: 36fa 07be 00d4 93bc 805f 7a3d a54c e33d
000002f0: a0d5 cf3d cfd7 1bbe 08f4 5f3e cd38 38be
00000300: f0c6 933d a96c a03e 2f87 853e f007 c0bb
00000310: 781a f2bd 5494 283e 7dcb 803d 9c21 f4bd
00000320: a8ee 10bd 2a40 0bbe 50e2 ae3d b0f2 423d
00000330: 5000 e33d e21e 9dbd c507 5dbe d0da c0bd
00000340: 7d13 33be c4a5 5cbd 606d a63d 867d 3ebe
00000350: 5002 2bbc e305 60be 0843 22be 2850 20be
00000360: 94ec 9bbd 0e08 e8bd 68fa 0c3d eef8 0b3e
00000370: bb87 03be 61ff 30be 2751 7ebd 7117 87bd
00000380: b5c8 813e d823 03be 3053 833e a91c 4fbd
00000390: 21e6 2abe 2916 f63d 4a9d bcbd 2756 8d3d
000003a0: eae2 183f 4905 29bd 87ac 783e e6fc 98bd
000003b0: c358 cfbd 70a2 3cbd f7af 0ebd da6f c9bd
000003c0: 727e f13d ae81 213f 35a1 20be b25d b43e
000003d0: 89e7 813d 429a 043e 5888 9d3c 141f 25be
000003e0: 3400 bd3d a829 f0bd 3c8c 0cbe fc86 663e
000003f0: 2438 e13d 453c 7dbe 6b44 6e3e 0c17 4f3d

dec.2.bias f4 [40]
-0.004428789 0.056275167 -0.092987984 0.02328349 0.21411666 -0.077058904 -0.057370517 -0.21291596
-0.056928575 0.25068408 -0.21132381 0.038888417 0.12883496 0.026776081 -0.007222485 -0.01278391
-0.08379274 0.058414344 -0.2152895 0.033883736 -0.05647321 -0.05680299 0.075663365 0.17114864
-0.18192254 -0.20347854 -0.12884197 -0.18285859 -0.08862771 0.10150739 -0.1930745 -0.13144231
-0.18228507 -0.050694168 -0.0062773526 -0.12865539 0.12309748 0.12743238 -0.038044125 0.11865859
00000000: 601f 91bb ca80 663d 7c70 bebd 05bd be3c
00000010: 6641 5b3e 0fd1 9dbd 59fd 6abd a406 5abe
00000020: f02d 69bd aa59 803e 4565 58be 7649 1f3d
00000030: 50ed 033e 8359 db3c 98aa ecbb 9b73 51bc
00000040: 879b abbd e143 6f3d da74 5cbe acc9 0a3d
00000050: 7450 67bd 41aa 68bd 65f5 9a3d 9741 2f3e
00000060: e749 3abe ae5c 50be 26ef 03be 483f 3bbe
00000070: 7282 b5bd 1be3 cf3d 52b5 45be d098 06be
00000080: f0a8 3abe b0a4 4fbd 40b2 cdbb 3dbe 03be
00000090: 881a fc3d a27d 023e 28d4 1bbd 4603 f33d

dec.4.weight f4 [60, 40]
0.036282018 0.18399657 -0.008072287 0.13704668 0.14172679 0.057936724 0.16825876 -0.10588916
-0.07192489 0.18104124 0.057411373 0.248174 0.017451568 -0.19397028 0.11959004 0.07138166
0.018022757 0.003934606 -0.051877476 0.033799898 0.08432916 -0.13861334 0.0322891 0.20050143
0.29383892 0.11178313 0.020859368 -0.09967214 0.14371963 0.006400355 -0.11882381 0.0783564
0.042498708 0.20072745 0.14492668 0.1903343 0.18746576 0.079623565 0.10946824 0.039504286
0.11525349 -0.00038844364 0.06715666 -0.057199903 0.23981869 -0.13275215 -0.059807424 -0.042677514
-0.07001502 0.13733207 -0.04436756 0.16853474 0.17580143 -0.18496343 0.2925743 0.09172848
0.0125471465 0.102534756 -0.028623909 0.077809796 0.14609502 0.05413662 0.09384916 0.06684885
0.016252557 -0.14397794 0.26460096 0.1380185 0.115123644 0.091268286 -0.012037426 -0.07404373
-0.01756543 0.013289232 -0.08128988 0.16511998 0.05966789 0.10742602 0.009155855 0.012837431
0.042959377 0.0035186252 -0.064590156 0.11003114 0.31655622 -0.038158007 0.04231858 -0.12982304
-0.031382985 0.15333219 0.12568648 0.045304336 0.22180292 0.0085133845 0.08092492 0.20326707
0.17904902 0.1325187 -0.10716611 -0.019046845 0.050980225 0.13700096 0.1403419 0.059658457
-0.14721105 0.09718375 0.2628766 0.11387552 -0.06952693 0.228146 -0.047935136 0.08266495
0.09245162 -0.13017468 0.039128184 0.1554642 0.041006427 0.26366383 0.12343563 0.22544041
-0.001426354 0.06987404 -0.08640593 0.055884942 0.13424104 0.15100758 0.2489171 0.012201503
-0.103027515 0.19291608 0.14149533 0.10507769 0.07438918 0.3061275 -0.052471902 0.020246819
0.14482541 0.14053203 -0.060451955 -0.030410707 -0.07502369 0.12359704 0.1386503 0.17523822
-0.200702 0.039498985 0.22957863 0.05507912 -0.15997012 0.19549854 -0.062746026 -0.0056144893
-0.10183756 -0.030691693 0.008248642 -0.0025007057 0.20851998 0.23490559 -0.13225222 0.22016001
-0.10922566 0.04590739 0.07573913 -0.00277555 0.019273698 -0.031806562 0.43703026 -0.07423267
0.03708885 -0.14609297 0.10770358 0.07760064 0.19749625 0.33593482 0.025365908 0.006476823
0.2235193 0.078636594 -0.051512837 -0.037576117 0.11477636 0.06046261 -0.26485118 0.14075625
-0.058955383 -0.08584362 0.19361483 0.07827295 0.029214945 0.18421963 0.15713103 0.123293206
-0.14522086 0.054422475 0.009619787 0.17723623 -0.105061896 0.028753195 0.08322196 0.08145368
-0.09575305 0.25152156 -0.0035280883 0.11187945 -0.07641112 -0.032992937 0.20220383 -0.015307665
0.0412015 -0.12488267 0.15389647 0.036135558 0.08405762 0.10496829 -0.0076349243 0.034152754
-0.109674536 0.029125243 -0.06974236 0.14461465 -0.0007649958 0.12294881 -0.13626444 0.13329731
0.3116678 -0.12234856 0.00065460027 0.13517182 0.07793428 0.016116532 0.012689248 -0.08488219
0.01137121 0.19720444 0.050159976 0.07703912 0.15785322 0.009910157 0.041079313 0.09524843
-0.14455403 -0.020776588 -0.15174468 0.07380696 0.18070678 -0.12864396 0.17506473 0.03206612
-0.099937566 0.08278829 0.12191798 0.25137347 0.11363364 -0.14566498 0.05620295 0.0753928
00000000: 749c 143d 9969 3c3e a041 04bc f755 0c3e
00000010: d420 113e 0f4f 6d3d 064c 2c3e 6adc d8bd
00000020: 5b4d 93bd e062 393e 3028 6b3d 5321 7e3e
00000030: 97f6 8e3c 25a0 46be 9feb f43d 8c30 923d
00000040: 76a4 933c deed 803b 7a7d 54bd c371 0a3d
00000050: c4b4 ac3d a8f0 0dbe 9341 043d 3f50 4d3e
00000060: 0e72 963e 8eee e43d 44e1 aa3c e820 ccbd
00000070: 3d2b 133e 12ba d13b e659 f3bd 5279 a03d
00000080: 2013 2e3d 7f8b 4d3e a967 143e ffe6 423e
00000090: 06f7 3f3e ae11 a33d e230 e03d 3fcf 213d
000000a0: 060a ec3d 06a8 cbb9 6e89 893d 724a 6abd
000000b0: 0893 753e 2ef0 07be a1f8 74bd 9ece 2ebd
000000c0: 0964 8fbd c7a0 0c3e c2ba 35bd 5f94 2c3e
000000d0: 4a05 343e 0e67 3dbe 4ccc 953e 24dc bb3d
000000e0: 8c92 4d3c befd d13d b07c eabc be5a 9f3d
000000f0: ef99 153e 5cbe 5d3d fd33 c03d 0de8 883d
00000100: 1524 853c f46e 13be c779 873e b954 0d3e
00000110: f2c5 eb3d deea ba3d a038 45bc 3da4 97bd
00000120: 60e5 8fbc 14bb 593c 4f7b a6bd 3615 293e
00000130: 5166 743d 2c02 dc3d 7002 163c 1754 523c
00000140: 2cf6 2f3d bc98 663b d847 84bd 0258 e13d
00000150: a813 a23e 924b 1cbd 3f56 2d3d 55f0 04be
00000160: 728b 00bd 1d03 1d3e f5b3 003e 0a91 393d
00000170: 4e20 633e b97b 0b3c f7bb a53d 3e25 503e
00000180: a058 373e fbb2 073e e879 dbbd 2108 9cbc
00000190: a4d0 503d fb49 0c3e c9b5 0f3e 6d5c 743d
000001a0: 7ebe 16be 4608 c73d c397 863e 9237 e93d
000001b0: 2364 8ebd 1b9f 693e a257 44bd 3e4c a93d
000001c0: 4657 bd3d 834c 05be e044 203d 0232 1f3e
000001d0: 5bf6 273d f2fe 863e d2cb fc3d dad9 663e
000001e0: 80f4 baba 1f1a 8f3d 98f5 b0bd 9ce7 643d
000001f0: 7c76 093e bba1 1a3e 20e4 7e3e d0e8 473c
00000200: 1700 d3bd cb8b 453e 27e4 103e f932 d73d
00000210: 5b59 983d bebc 9c3e c7ec 56bd a8dc a53c
00000220: 1d4d 143e a1e7 0f3e 789c 77bd e01f f9bc
00000230: 05a6 99bd 7220 fd3d 58fa 0d3e a671 333e
00000240: d384 4dbe b0c9 213d a916 6b3e a59a 613d
00000250: 35cf 23be c530 483e fd80 80bd c0f9 b7bb
00000260: 3690 d0bd 256d fbbc 5025 073c e1e2 23bb
00000270: 4386 553e 178b 703e 206d 07be a071 613e
00000280: b4b1 dfbd 6309 3c3d 1e1d 9b3d 00e6 35bb
00000290: e0e3 9d3c 9947 02bd 6ec2 df3e 4c07 98bd
000002a0: 7aea 173d 6599 15be b293 dc3d 16ed 9e3d
000002b0: 753c 4a3e a6ff ab3e 2acc cf3c 873b d43b
000002c0: 3ee2 643e 390c a13d 20ff 52bd 6ae9 19bd
000002d0: de0f eb3d a4a7 773d 939a 87be 6822 103e
000002e0: 337b 71bd c8ce afbd f742 463e 924d a03d
000002f0: 2e54 ef3c 12a4 3c3e f5e6 203e 2681 fc3d
00000300: c7b4 14be 1aea 5e3d 509c 1d3c 6a7d 353e
00000310: b12a d7bd d28b eb3c 4670 aa3d 30d1 a63d
00000320: 2d1a c4bd 6fc7 803e 8037 67bb 0e21 e53d
00000330: 6f7d 9cbd 9a23 07bd 850e 4f3e 00cd 7abc
00000340: e7c2 283d 7cc2 ffbd 0997 1d3e e102 143d
00000350: 6726 ac3d 9df9 d63d 632e fabb c2e3 0b3d
00000360: 0b9d e0bd 1098 ee3c 15d5 8ebd dd15 143e
00000370: 008a 48ba 96cc fb3d e888 0bbe 177f 083e
00000380: ec92 9f3e e291 fabd 7b99 2b3a 7b6a 0a3e
00000390: 029c 9f3d d106 843c 90e6 4f3c b7d6 adbd
000003a0: 504e 3a3c f6ef 493e 8c74 4d3d b0c6 9d3d
000003b0: 46a4 213e 365e 223c c842 283d 9c11 c33d
000003c0: f905 14be aa33 aabc f562 1bbe 1a28 973d
000003d0: 330b 393e 3ebb 03be 2b44 333e c457 033d
000003e0: 11ac ccbd e88c a93d 22b0 f93d 06b4 803e
000003f0: c1b8 e83d 3329 15be 1135 663d 8a67 9a3d

dec.4.bias f4 [60]
0.112785004 0.21056536 0.14682432 0.12880895 0.13213481 0.2372893 0.059270516 0.19624889
0.13955808 0.15884317 0.18709037 0.13298549 0.12674187 0.11736903 -0.01871855 0.24235559
0.035475098 0.037480764 0.15016878 0.13024905 0.119047515 0.08714358 0.2509687 0.020401519
0.048271626 0.1386928 0.057627074 -0.010764853 0.30236483 0.16621946 -0.040864874 0.19755942
0.17457798 0.17800307 0.2576493 0.08074731 0.20380346 -0.060048833 0.070445836 0.15423314
0.18224263 0.10999354 0.23717852 -0.070278645 0.047351312 0.22300328 0.08865478 0.0541846
0.085291885 -0.019352157 0.1701412 0.011336554 0.091383435 0.2064765 0.05524717 0.018628497
0.0005956169 0.22265755 0.2257641 0.22983491
00000000: d3fb e63d 729e 573e 1d59 163e 7ee6 033e
00000010: 594e 073e f7fb 723e a4c5 723d 78f5 483e
00000020: 50e8 0e3e c9a7 223e 9e94 3f3e 592d 083e
00000030: 9fc8 013e 2d5f f03d a557 99bc 102c 783e
00000040: 564e 113d 6e85 193d d8c5 193e 0260 053e
00000050: 2fcf f33d 5578 b23d f87e 803e 1621 a73c
00000060: 78b8 453d 7c05 0e3e 5e0a 6c3d 115f 30bc
00000070: 90cf 9a3e 6f35 2a3e ed61 27bd 044d 4a3e
00000080: 92c4 323e 7046 363e 9cea 833e d85e a53d
00000090: dbb1 503e c4f5 75bd e845 903d 4bef 1d3e
000000a0: d09d 3a3e 4b44 e13d edde 723e 40ee 8fbd
000000b0: 73f3 413d f95a 643e a390 b53d acf0 5d3d
000000c0: 83ad ae3d 6a88 9ebc 7f39 2e3e f4bc 393c
000000d0: 3d27 bb3d 936e 533e db4a 623d ca9a 983c
000000e0: 2c23 1c3a 5700 643e b42e 673e d859 6b3e
