Models/artifact_1/lstm_ae.pt (torch, 285440 bytes, 14 tensors)

encoder.weight_ih_l0 f4 [256, 60]
-0.029522844 -0.013869035 0.0048771226 0.032049213 -0.019681947 0.032367893 0.03395496 -0.008157182
0.043774266 -0.05789374 -0.035948902 -0.00518099 -0.0067219064 0.023421863 0.047683463 -0.04767173
0.034643758 0.015840696 0.054829627 0.03523721 -0.014349948 -0.009361548 -0.04393383 0.014567058
0.051663805 0.022717867 0.05337972 0.026368551 0.012703194 -0.014292867 -0.057036187 -0.012376044
0.05604207 0.05740376 -0.022335976 0.05418788 0.054422077 -0.05633309 -0.065122105 -0.03288146
-0.00668048 0.025573779 0.027642384 0.041824166 -0.032332126 0.04415777 0.015051637 -0.04686895
-0.048791423 0.023470545 0.061470225 -0.043832596 0.007822772 -0.06249983 0.043002415 0.019464273
-0.016815346 0.03488075 0.027380351 0.044499356 0.015475262 0.009488751 0.040468924 0.031096334
-0.047094986 -0.016422011 0.04976718 -0.024812318 0.059853904 -0.0038605742 0.072099224 -0.029890204
0.0555958 -0.020317413 0.055507906 0.04524542 0.035396542 0.028201753 0.04840097 -0.017413491
-0.012456914 0.026658427 -0.0380182 0.012818697 0.03644009 -0.051068444 0.005276803 0.012458704
-0.042028103 0.060690667 0.011891205 -0.053229116 -0.014078024 0.020773241 0.056583848 -0.012495114
0.066634834 -0.019054668 -0.04434447 -0.009201065 -0.034304 0.030779546 0.05245172 -0.04679861
-0.03941001 0.045514718 -0.005373162 0.0690301 0.06880942 -0.034905173 0.047826245 -0.05485519
0.035389744 -0.028838126 0.008525834 0.07300341 0.017888267 -0.026622627 0.039117467 -0.001830552
0.059250645 -0.04937262 -0.011224752 -0.05546834 -0.037447795 -0.018841147 -0.04355735 -0.044977546
-0.016378533 -0.037709136 -0.0400037 0.0035669224 -0.04958187 0.03802935 0.043505006 0.060744956
0.020457126 -0.0062337257 -0.011534862 -0.031384047 0.04490363 0.03655899 0.047672562 -0.01281755
-0.0456109 0.022019878 0.057871256 -0.010471938 0.053317934 0.046617474 0.023211533 -0.017854935
-0.022139879 -0.011559149 -0.004954443 -0.0135882115 -0.06430872 -0.04528081 -0.020936325 0.05073019
0.027278166 -0.0601272 -0.047265526 -0.038736615 0.06261126 0.016344564 0.05288233 -0.053311843
0.061673023 0.053721458 0.0045796353 -0.030874182 0.025878802 -0.035474367 -0.027368782 0.024765652
-0.05070789 0.01606591 -0.00352087 0.0006147842 0.0030250556 0.01591833 -0.039460894 0.027172804
-0.061932012 0.027772885 -0.053647008 0.06353422 0.015876679 0.018287987 0.01753888 0.012826489
-0.025246866 -0.06423877 0.039482474 0.039982434 -0.012078566 0.003309706 -0.0042432602 -0.014908585
0.04504369 -0.039471574 -0.061689176 -0.010914067 -0.038490806 -0.043601952 -0.01897123 -0.0025404156
0.043364618 0.037151907 0.053739175 0.049408432 0.019855717 -0.0004304037 -0.0021079478 -0.050107773
0.0062936503 -0.015437432 -0.018183758 0.05549753 0.03029298 0.041422877 0.042644463 -0.03822487
0.01905248 -0.008281864 0.023039961 0.03881369 -0.016572947 0.04954117 0.0027599062 -0.0125611145
0.04324987 0.05114831 -0.018628305 0.037970442 -0.01470953 -0.00201827 -0.046926104 -0.028151056
-0.1385226 0.03639936 0.17492743 0.026008576 -0.19441923 -0.22725105 -0.16393927 0.06999
0.1904674 0.053549513 -0.10378004 -0.27548724 -0.266449 -0.050701912 0.18638936 0.08704708
00000000: e4d9 f1bc f33a 63bc 45d0 9f3b 0946 033d
00000010: 093c a1bc 3294 043d 5b14 0b3d b3a5 05bc
00000020: a54c 333d fc21 6dbd 283f 13bd 4bc5 a9bb
00000030: 7043 dcbb 35df bf3c bc4f 433d 6f43 43bd
00000040: 9de6 0d3d 59c4 813c 0895 603d e554 103d
00000050: 0b1c 6bbc 2e61 19bc f6f3 33bd abaa 6e3c
00000060: 6d9d 533d d21a ba3c b1a4 5a3d dc02 d83c
00000070: 0f21 503c a12c 6abc c79e 69bd e4c4 4abc
00000080: 5f8c 653d 3420 6b3d f0f9 b6bc 1cf4 5d3d
00000090: afe9 5e3d 87bd 66bd bd5e 85bd b6ae 06bd
000000a0: eee7 dabb 1a80 d13c 4872 e23c d14f 2b3d
000000b0: b16e 04bd c7de 343d 249b 763c a8f9 3fbd
000000c0: 84d9 47bd 4d45 c03c 34c8 7b3d cf89 33bd
000000d0: 152b 003c d2ff 7fbd 4d23 303d 8a73 9f3c
000000e0: 56c0 89bc 1edf 0e3d c24c e03c f544 363d
000000f0: f48b 7d3c b576 1b3c bec2 253d bdbd fe3c
00000100: ace6 40bd 7487 86bc acd8 4b3d 3443 cbbc
00000110: 5e29 753d b001 7dbb c2a8 933d 4ddc f4bc
00000120: 6cb8 633d b470 a6bc 425c 633d 4353 393d
00000130: f7fb 103d 5d07 e73c 1840 463d bda6 8ebc
00000140: 1618 4cbc c662 da3c f9b8 1bbd 8305 523c
00000150: 3442 153d 252d 51bd 08e9 ac3b 981f 4c3c
00000160: a925 2cbd c796 783d 54d3 423c c606 5abd
00000170: 83a7 66bc a52c aa3c 77c4 673d 4eb8 4cbc
00000180: d877 883d 8918 9cbc 8ca2 35bd 10c0 16bc
00000190: 5a82 0cbd 6325 fc3c 9dd7 563d e6af 3fbd
000001a0: 646c 21bd a46d 3a3d 5a11 b0bb a75f 8d3d
000001b0: f4eb 8c3d baf8 0ebd 74e5 433d d6af 60bd
000001c0: d6f4 103d ef3d ecbc f1af 0b3c d082 953d
000001d0: 6a8a 923c b217 dabc a339 203d 22ef efba
000001e0: ceb0 723d f23a 4abd 06e8 37bc c532 63bd
000001f0: dc62 19bd c058 9abc 3169 32bd 603a 38bd
00000200: 462c 86bc e574 1abd ebda 23bd 07c3 693b
00000210: 5c16 4bbd aac4 1b3d 4e32 323d b4cf 783d
00000220: b495 a73c 4844 ccbb b8fc 3cbc 8f8c 00bd
00000230: deec 373d e1be 153d 4e44 433d b400 52bc
00000240: 7fd2 3abd 0863 b43c 690a 6d3d 7e92 2bbc
00000250: e863 5a3d f7f1 3e3d 1d26 be3c 8344 92bc
00000260: b15e b5bc 9662 3dbc e158 a2bb 17a1 5ebc
00000270: 4ab4 83bd 5f78 39bd a882 abbc 76ca 4f3d
00000280: 7676 df3c f047 76bd 7f99 41bd 49aa 1ebd
00000290: 553a 803d 09e5 853c 249b 583d 855d 5abd
000002a0: da9c 7c3d 080b 5c3d c410 963b daeb fcbc
000002b0: c8ff d33c 924d 11bd 7f34 e0bc 56e1 ca3c
000002c0: 14b3 4fbd a89c 833c 66be 66bb 7829 213a
000002d0: 0340 463b 2867 823c bfa1 21bd 8099 de3c
000002e0: 6cac 7dbd f683 e33c f7bc 5bbd 3b1e 823d
000002f0: cf0f 823c b0d0 953c b3ad 8f3c 3226 523c
00000300: 84d2 cebc 9e8f 83bd 60b8 213d 9fc4 233d
00000310: 2de5 45bc a7e7 583b 0c0b 8bbb 2343 74bc
00000320: bb7f 383d f2ac 21bd caad 7cbd ead0 32bc
00000330: 89a8 1dbd f697 32bd 8e69 9bbc 1a7d 26bb
00000340: 199f 313d 992c 183d 9c1d 5c3d 7f60 4a3d
00000350: 75a8 a23c cfa7 e1b9 7f25 0abb cf3d 4dbd
00000360: f73a ce3b 48ed 7cbc 1bf6 94bc 6151 633d
00000370: fc28 f83c 09ab 293d f6ab 2e3d ae91 1cbd
00000380: f213 9c3c a8b0 07bc 4dbe bc3c 1bfb 1e3d
00000390: fdc3 87bc afeb 4a3d 8bdf 343b 22cd 4dbc
000003a0: c726 313d e480 513d 639a 98bc e586 1b3d
000003b0: 3e00 71bc f444 04bb 9635 40bd 0b9d e6bc
000003c0: ded8 0dbe 7f17 153d 2d20 333e f00f d53c
000003d0: d615 47be 80b4 68be b2df 27be eb56 8f3d
000003e0: e309 433e bc56 5b3d a18a d4bd aa0c 8dbe
000003f0: 016c 88be cfac 4fbd dadc 3e3e bd45 b23d

encoder.weight_hh_l0 f4 [256, 64]
0.048461612 -0.001404309 -0.03101137 0.00992171 0.033032782 -0.059317328 -0.056494657 -0.06576488
0.03927188 -0.065700985 0.040916808 0.039411493 0.013700666 0.060385235 -0.011646385 -0.0023222324
0.027686726 -0.04553952 0.05484335 -0.028294193 -0.054175623 0.0228926 -0.027707169 0.0556521
-0.0098673245 0.045396686 -0.017107854 -0.039699342 -0.014642069 -0.009553309 0.024962096 0.012092654
-0.030062443 -0.0510552 -0.065099925 0.06496998 0.013805988 -0.0007392159 0.049894333 0.013638709
0.010538335 -0.040834814 -0.047789205 -0.056814015 -0.003982029 -0.0071166586 -0.0420275 0.042550355
-0.006019482 0.022578117 -0.020511847 -0.024553018 -0.03399142 -0.014892928 -0.01760254 -0.03622772
0.060030527 0.051363267 0.061830938 0.060665425 -0.024265576 0.028925702 -0.026039526 0.06298953
-0.028856 -0.040309723 -0.040980972 -0.00928551 -0.047335815 0.016556004 -0.004810633 -0.049950715
0.06340684 -0.029073814 0.06954477 -0.0136550525 0.03357581 0.056696434 -0.037665475 0.040756453
0.053899404 -0.0008942564 -0.05188424 -0.014312995 0.007948231 -0.04136619 0.06765909 -0.029701592
-0.017292203 0.020093398 -0.07124229 0.04658065 -0.009793515 -0.00028988038 -0.06629543 -0.048018727
-0.03953436 -0.05697285 0.05199628 -0.013348544 0.013494419 -0.0017417257 -0.023477776 -0.04259141
-0.045125417 0.01515796 -0.022422811 0.023334948 0.037535936 -0.013565525 -0.0026509697 -0.0017505985
-0.041387893 0.056812175 -0.04407715 -0.016255371 0.05636747 -0.014975677 0.023417251 0.05267533
-0.046545863 0.0072055543 -0.018740179 -0.04793205 -0.06762382 0.04850658 -0.018321218 0.04846413
0.063851655 0.002412115 0.05437646 -0.015600476 0.037858102 -0.0037182306 -0.044276714 -0.03333817
-0.04204588 0.017539507 -0.0015567989 0.052106746 0.016826563 -0.014924997 -0.008436521 0.04259556
-0.03531539 0.065160155 -0.0041978867 0.013089778 0.061031457 -0.05823743 0.044683885 0.053785454
0.054711204 0.023031829 -0.020516077 -0.04489863 0.048468374 0.015624188 0.051010855 0.0403151
-0.035411004 0.043983277 0.0055127116 -0.060509946 0.005764478 -0.032890603 -0.024164136 -0.022919359
-0.06157869 -0.04403692 0.054186888 -0.035146005 -0.012328216 -0.009200393 0.052591316 0.032790344
-0.027847387 0.0032079618 -0.029636694 0.0055123544 -0.033346374 -0.038172953 -0.017800719 -0.04963185
-0.027953032 0.02376404 -0.01156749 -0.053356532 -0.04475579 -0.0395093 0.040495783 -0.045244876
-0.0043684184 0.037324823 -0.05982966 0.01218915 0.025391879 0.05920991 0.02553218 -0.021525647
0.065267734 -0.0078236535 -0.0013507849 0.020360315 -0.049658682 0.05516291 0.018553194 0.04555242
0.019141236 -0.055184126 0.026684333 -0.0050909827 0.047073554 0.025147766 0.011423848 0.027659949
0.042911805 0.020775393 0.056654792 0.06324043 -0.052173983 -0.045600377 -0.050117396 -0.05165694
0.034752656 0.043666285 0.0041897623 -0.01236831 -0.059129845 -0.06364936 0.01655685 0.0159803
0.023426186 -0.0040035406 0.016791353 0.016843881 -0.028404877 0.05501254 -0.0033494267 -0.0008211729
-0.04256155 0.048659686 0.05801125 0.0149118025 -0.042162035 -0.038974736 -0.06447693 -0.005127499
0.032133896 -0.036537588 -0.0335474 -0.038424805 0.01184288 0.03225032 -0.049161814 -0.03391617
00000000: af7f 463d ca10 b8ba 8e0b febc ab8e 223c
00000010: 624d 073d baf6 72bd f166 67bd bdaf 86bd
00000020: 8ddb 203d 3d8e 86bd 6298 273d f26d 213d
00000030: c278 603c 8256 773d 7bd0 3ebc 9830 18bb
00000040: 46cf e23c a687 3abd 6ca3 603d 39c9 e7bc
00000050: 42e7 5dbd 4389 bb3c 25fa e2bc 75f3 633d
00000060: 8faa 21bc e0f1 393d c525 8cbc c79b 22bd
00000070: 4ae5 6fbc 7b85 1cbc 4f7d cc3c 4420 463c
00000080: 8345 f6bc 421f 51bd 1c53 85bd fb0e 853d
00000090: 8332 623c f0c7 41ba 005e 4c3d e474 5f3c
000000a0: fba8 2c3c 6842 27bd 9dbe 43bd d0b5 68bd
000000b0: ae7b 82bb dc32 e9bb 0725 2cbd 4849 2e3d
000000c0: 133f c5bb bef5 b83c 7608 a8bc 6923 c9bc
000000d0: 963a 0bbd 7801 74bc 3433 90bc 8563 14bd
000000e0: 92e2 753d 4a62 523d 7042 7d3d 4f7c 783d
000000f0: 9ac8 c6bc 98f5 ec3c d850 d5bc a800 813d
00000100: 6b63 ecbc cf1b 25bd aadb 27bd 4022 18bc
00000110: 33e3 41bd 75a0 873c 84a2 9dbb 1f99 4cbd
00000120: 72db 813d 352c eebc 7d6d 8e3d 71b9 5fbc
00000130: ca86 093d 853a 683d 1d47 1abd 3df0 263d
00000140: 9fc5 5c3d 886c 6aba 9284 54bd 0d81 6abc
00000150: 4c39 023c 986f 29bd d990 8a3d c150 f3bc
00000160: 61a8 8dbc e99a a43c 7ae7 91bd 5acb 3e3d
00000170: fb74 20bc 16fb 97b9 e6c5 87bd 49af 44bd
00000180: c8ee 21bd 5d5c 69bd 0dfa 543d dab3 5abc
00000190: b217 5d3c 9e4a e4ba 7754 c0bc 5574 2ebd
000001a0: 6ed5 38bd 1859 783c 0bb0 b7bc ef28 bf3c
000001b0: 48bf 193d f041 5ebc e4bb 2dbb 5774 e5ba
000001c0: 5a86 29bd e2b3 683d 3e8a 34bd fc29 85bc
000001d0: 94e1 663d 8b5c 75bc 89d5 bf3c 16c2 573d
000001e0: e0a6 3ebd 921c ec3b 0185 99bc 6654 44bd
000001f0: 5b7e 8abd d6ae 463d 6116 96bc 5382 463d
00000200: a8c4 823d 9314 1e3b dab9 5e3d 2499 7fbc
00000210: 1911 1b3d 8fad 73bb 805b 35bd 9b8d 08bd
00000220: 4d38 2cbd 03af 8f3c 810d ccba e26d 553d
00000230: dcd7 893c fa87 74bc 5539 0abc af78 2e3d
00000240: dfa6 10bd b072 853d 6d8e 89bb 8276 563c
00000250: 1ffc 793d 5f8a 6ebd 7306 373d 234e 5c3d
00000260: db18 603d 3fad bc3c 5511 a8bc a0e7 37bd
00000270: c686 463d 98fc 7f3c c2f0 503d 7221 253d
00000280: 210b 11bd cf27 343d faa3 b43b 47d9 77bd
00000290: f2e3 bc3b 4cb8 06bd def3 c5bc 61c1 bbbc
000002a0: f039 7cbd 0f60 34bd 12f3 5d3d 42f5 0fbd
000002b0: 49fc 49bc 3fbd 16bc fe69 573d 2b4f 063d
000002c0: 3420 e4bc ab3c 523b a7c8 f2bc fba0 b43b
000002d0: 3596 08bd 3e5b 1cbd d0d2 91bc c44a 4bbd
000002e0: c2fd e4bc ceac c23c 9285 3dbc 618c 5abd
000002f0: d951 37bd 81d4 21bd e8de 253d b152 39bd
00000300: f324 8fbb eae1 183d f20f 75bd 00b5 473c
00000310: a102 d03c 1786 723d dd28 d13c 8e56 b0bc
00000320: 17ab 853d c82e 00bc d20c b1ba adca a63c
00000330: e766 4bbd 81f2 613d defc 973c 2d95 3a3d
00000340: 15ce 9c3c c008 62bd 1a99 da3c 42d2 a6bb
00000350: 33d0 403d b002 ce3c 172b 3b3c 1e97 e23c
00000360: 4ac4 2f3d 2831 aa3c db0e 683d 3384 813d
00000370: 63b4 55bd 76c7 3abd e647 4dbd 3a96 53bd
00000380: cd58 0e3d 6bdb 323d 464a 893b 74a4 4abc
00000390: 2332 72bd 985a 82bd 3ba2 873c 1ee9 823c
000003a0: 46e8 bf3c 2230 83bb 058e 893c 2efc 893c
000003b0: 58b1 e8bc d454 613d 0e82 5bbb fb43 57ba
000003c0: 0555 2ebd 614f 473d 349d 6d3d a250 743c
000003d0: 19b2 2cbd f9a3 1fbd 7b0c 84bd 9404 a8bb
000003e0: d59e 033d 70a8 15bd 0069 09bd 5463 1dbd
000003f0: a408 423c e918 043d e65d 49bd afeb 0abd

encoder.bias_ih_l0 f4 [256]
0.03521895 0.027023949 0.048960473 0.057829548 -0.07357063 0.039688084 -0.03726028 0.0427681
-0.030450862 0.045418542 0.008271988 0.00023271731 0.027585547 0.040783603 -0.027359335 0.004678068
-0.025115328 0.13865516 -0.08916533 0.018554935 -0.03861827 0.020308826 -0.061453775 -0.053382292
-0.050005868 0.040536072 -0.015917197 -0.05955652 -0.020652069 -0.01281876 0.017920183 0.06262909
0.021548562 0.009861669 0.006004949 -0.05180433 -0.03983041 0.055959135 0.056489818 0.00416014
-0.029105712 0.05002383 -0.03035144 -0.113335475 -0.058881942 -0.016254265 -0.0012105746 -0.013340276
0.112611905 -0.042283118 0.06734132 -0.008896024 0.06833203 0.0005694315 0.08403881 0.020287028
0.025876768 -0.01566883 -0.015256028 -0.026549071 0.004953224 -0.048265457 -0.006253358 0.072038874
-0.016279578 0.056551185 -0.045248568 -0.00027412217 -0.07320334 -0.031476438 0.019384293 -0.037062384
0.007685671 -0.043437507 0.054755762 0.09491656 0.03830084 -0.04848596 -0.012299952 0.062456608
-0.031467583 0.08913154 0.076299705 0.038771592 -0.0162756 0.03612911 -0.079952866 -0.020586852
0.05049398 0.07228069 -0.05619044 0.02937148 0.05180647 -0.05531676 0.067641675 -0.038967486
-0.045854762 0.03897184 -0.02091948 0.04912498 -0.02443657 -0.062729046 -0.10130574 -0.010597129
-0.071852684 -0.038938005 -0.049825657 -0.0462285 -0.0224694 -0.011486566 0.039681535 -0.054764725
0.02368855 -0.03342172 0.061067756 -0.051031947 -0.055997483 0.020126538 -0.15495175 -0.030443328
0.006970136 -0.102167726 0.028172977 0.06310973 -0.01289353 0.0690943 0.053051043 0.014784269
0.0002855845 0.069422975 -0.067021154 0.07872206 0.10757908 0.049911585 0.02086999 -0.029329041
0.056528643 0.09676209 0.037987236 0.10829653 0.08729252 -0.010814484 0.047948822 -0.019773092
0.042749397 -0.0661167 -0.0076409136 -0.021250179 -0.031489674 -0.04456958 0.07071811 -0.0020556885
0.029257994 0.010955875 -0.017822213 0.07056793 0.0035850438 -0.06668052 -0.07431096 0.06914223
-0.039175984 -0.030083293 -0.022965621 -0.009429438 0.011020011 0.042743374 -0.023459084 -0.012154615
-0.0597164 0.024440616 0.053984445 -0.085988365 -0.037615277 0.03495422 -0.025687136 -0.035939813
0.023501614 0.006769863 -0.002569624 -0.07363147 -0.06522476 -0.017639782 0.006267876 0.07106105
0.06094859 0.02912955 -0.06072897 0.019356646 -0.014355063 0.05466249 -0.0014138331 -0.12782109
-0.069767885 -0.16248998 -0.1415152 -0.1740611 -0.042521086 -0.19826709 -0.07748534 -0.17569627
-0.10793488 -0.014013916 -0.16478077 0.020503784 -0.08420376 -0.20002411 -0.1405856 0.03262913
-0.065926686 0.061882842 0.04889919 -0.09298596 -0.21889535 -0.09613295 0.037621833 0.0047009103
-0.16597088 -0.08744928 -0.107469864 -0.0839371 -0.13228162 -0.08540552 0.14343674 -0.08822237
-0.16259123 -0.1168051 -0.096372716 -0.14506792 0.025645336 -0.14450537 -0.038587674 -0.09700379
-0.01016722 -0.051940773 -0.03524405 -0.020689791 -0.026038278 -0.050979324 -0.1367644 -0.10162287
0.14328815 -0.07241442 0.09956728 -0.17026602 -0.19083019 -0.16985153 0.1215716 -0.07283744
-0.10424762 -0.02414475 -0.038170584 -0.17116253 -0.124155514 -0.11703236 -0.07875805 -0.04338078
00000000: bf41 103d 5461 dd3c c78a 483d adde 6c3d
00000010: 33ac 96bd f98f 223d 3c9e 18bd 9a2d 2f3d
00000020: 1674 f9bc cb08 3a3d 3b87 073c 9405 7439
00000030: 16fb e13c b50c 273d af20 e0bc 7b4a 993b
00000040: a9be cdbc 9efb 0d3e 509c b6bd 8500 983c
00000050: 312e 1ebd b25e a63c f4b6 7bbd 64a7 5abd
00000060: f4d2 4cbd 2709 263d c864 82bc 8af1 73bd
00000070: 872e a9bc c705 52bc 59cd 923c ae43 803d
00000080: 9c86 b03c d692 213c 2ac5 c43b c730 54bd
00000090: 3625 23bd 6835 653d de61 673d c951 883b
000000a0: 1a6f eebc cae5 4c3d 95a3 f8bc 6e1c e8bd
000000b0: 312e 71bd aa27 85bc 25ac 9eba 2c91 5abc
000000c0: 12a1 e63d 1031 2dbd 3fea 893d a1c0 11bc
000000d0: aaf1 8b3d e745 153a 8a1c ac3d fb30 a63c
000000e0: 84fb d33c eb5b 80bc 6bf4 79bc 707d d9bc
000000f0: a84e a23b 00b2 45bd f8e8 ccbb 1e89 933d
00000100: c05c 85bc 37a2 673d 9056 39bd 0eb8 8fb9
00000110: a2eb 95bd 70ed 00bd cfcb 9e3c bace 17bd
00000120: 15d8 fb3b 87eb 31bd 9447 603d 9d63 c23d
00000130: 57e1 1c3d 3799 46bd bd85 49bc 80d2 7f3d
00000140: 27e4 00bd 998a b63d 0543 9c3d f6ce 1e3d
00000150: 6854 85bc 1efc 133d 54be a3bd c2a5 a8bc
00000160: c7d2 4e3d e607 943d f227 66bd 759c f03c
00000170: 0533 543d d493 62bd b887 8a3d 5f9c 1fbd
00000180: 34d2 3bbd f0a0 1f3d 545f abbc 4637 493d
00000190: 342f c8bc 1678 80bd 6279 cfbd 959f 2dbc
000001a0: 8027 93bd 757d 1fbd fd15 4cbd 185a 3dbd
000001b0: bf11 b8bc 2632 3cbc 1b89 223d fa50 60bd
000001c0: 7d0e c23c 37e5 08bd 2f22 7a3d e006 51bd
000001d0: 9e5d 65bd 69e0 a43c acab 1ebe 4964 f9bc
000001e0: bd65 e43b 503d d1bd 04cb e63c ad3f 813d
000001f0: 623f 53bc 5081 8d3d 0d4c 593d b839 723c
00000200: 81ba 9539 a22d 8e3d 6342 89bd 0839 a13d
00000210: 6c52 dc3d 1770 4c3d 8bf7 aa3c 7543 f0bc
00000220: 948a 673d 342b c63d 8198 1b3d 92ca dd3d
00000230: 6cc6 b23d 3c2f 31bc fc65 443d 2efb a1bc
00000240: fe19 2f3d 3168 87bd a160 fabb db14 aebc
00000250: 51fb 00bd 988e 36bd a8d4 903d bbb8 06bb
00000260: 76ae ef3c 4580 333c e4ff 91bc eb85 903d
00000270: 0ef3 6a3b cc8f 88bd 5830 98bd 719a 8d3d
00000280: ff76 20bd 3d71 f6bc 6622 bcbc ee7d 1abc
00000290: 478d 343c ad13 2f3d 442d c0bc 2624 47bc
000002a0: 2f99 74bd b037 c83c cb1e 5d3d ab1a b0bd
000002b0: 7a12 1abd 282c 0f3d d46d d2bc a035 13bd
000002c0: 7586 c03c bad5 dd3b 2367 28bb 19cc 96bd
000002d0: 8f94 85bd 4e81 90bc c162 cd3b 7588 913d
000002e0: 3ba5 793d 18a1 ee3c f1be 78bd d491 9e3c
000002f0: 8031 6bbc c6e5 5f3d 5e50 b9ba 88e3 02be
00000300: 77e2 8ebd c663 26be 5ce9 10be 133d 32be
00000310: 972a 2ebd 8706 4bbe a2b0 9ebd b9e9 33be
00000320: f60c ddbd a09a 65bc 4abc 28be 8df7 a73c
00000330: 0573 acbd 1fd3 4cbe acf5 0fbe 1fa6 053d
00000340: 9204 87bd dd78 7d3d 844a 483d 6c6f bebd
00000350: 1a26 60be 5ae1 c4bd 5a19 1a3d 180a 9a3b
00000360: 45f4 29be 9c18 b3bd 2919 dcbd 37e7 abbd
00000370: d574 07be 17e9 aebd 15e1 123e eead b4bd
00000380: 517e 26be 8337 efbd 0f5f c5bd af8c 14be
00000390: 2b16 d23c 37f9 13be 1c0e 1ebd eca9 c6bd
000003a0: 6994 26bc d9bf 54bd 115c 10bd a37d a9bc
000003b0: 3a4e d5bc b2cf 50bd f80b 0cbe a71f d0bd
000003c0: 21ba 123e 034e 94bd eee9 cb3d 375a 2ebe
000003d0: fd68 43be 8fed 2dbe 88fa f83d cc2b 95bd
000003e0: c77f d5bd 36cb c5bc c258 1cbd 3b45 2fbe
000003f0: 3f45 febd a9ae efbd e74b a1bd 0bb0 31bd

encoder.bias_hh_l0 f4 [256]
-0.036260262 -0.033065025 -0.053032283 -0.046631217 0.0041970755 -0.024755502 -0.123348236 -0.042828258
-0.014601717 0.07527849 0.0008074764 0.04500417 -0.0024241915 0.06251055 0.04609225 0.02886682
-0.0003687427 0.052587748 -0.008925891 -0.017149473 -0.031812605 -0.02371082 -0.079975665 -0.15008654
0.019359292 0.0616483 0.023009047 0.033670295 -0.06040027 0.029585853 -0.017702857 0.049413145
0.018984284 0.011161276 -0.031766713 0.041644424 0.05568332 0.038678315 -0.037817918 -0.032589067
-0.02002934 0.010152138 -0.007681283 -0.102172896 0.046619453 -0.085696414 0.0415204 0.055483233
0.011161126 -0.05700266 0.030060917 -0.041467242 0.0031323284 0.00062072615 0.14991361 0.013423367
0.03539721 -0.0584022 0.00089469715 0.01182289 0.020817159 -0.0004358652 0.038589127 0.05874877
-0.0152044725 0.018004913 0.0011764239 -0.04907794 -0.076953135 -0.007806114 -0.08407483 -0.008814984
-0.0020436167 -0.0524638 0.058275204 0.071145825 -0.04745273 0.0345362 0.05664177 -0.02293288
-0.076310076 -0.027367484 0.0813169 -0.042227596 0.069996074 0.054292075 -0.051500153 -0.06339281
0.0021718873 -0.025458414 -0.05691143 -0.046170928 -0.019834215 0.009543073 0.07204847 0.0053290026
-0.0064600916 -0.013306835 0.053583246 0.00436527 -0.05608502 -0.056149356 0.005025695 0.0214881
0.045531973 -0.0029582113 0.0237676 -0.077522784 -0.049906142 0.017633418 -0.04155931 -0.03488504
0.03699287 -0.0036852092 -0.026035096 0.051418297 -0.06514418 -0.031036273 -0.06684901 0.052949082
0.01745293 -0.035727844 -0.046341334 0.06235435 0.015286664 0.022876333 0.04473386 0.008838791
-0.084040195 0.0708399 -0.06103645 0.02192368 0.08970934 0.06561068 0.06438869 0.06785645
-0.010641147 0.113496296 0.019151725 0.06803065 0.09212977 -0.002079514 0.053150274 -0.06725362
-0.025185026 -0.0019174393 -0.012557429 0.00035516435 -0.022310926 -0.0098029 0.031419586 0.004280221
0.068889886 -0.018978948 0.10389775 0.064084806 0.055995356 -0.072053015 0.009849751 0.03236745
-0.076662295 0.045022264 0.01830671 -0.020645559 0.08672464 -0.01964123 -0.02773803 -0.03220377
-0.008812759 0.008510351 0.0139902355 0.024793396 -0.035415947 -0.03678445 -0.056992978 -0.0014660581
0.03470971 -0.060186684 -0.08565476 -0.0076908246 -0.04292061 -0.025772154 0.029161334 0.068672106
0.06512218 -0.03430512 0.0014596335 -0.0018095198 0.0049995026 -0.001317494 -0.018250091 -0.14310731
-0.17957453 -0.14281353 -0.11224435 -0.19036376 0.038308147 -0.16895363 -0.0048208344 -0.07892176
-0.13906612 -0.07457076 -0.19264242 -0.01567899 -0.196726 -0.10392747 -0.1357905 0.08033609
-0.15931185 0.02421577 0.051519822 -0.10118577 -0.21749602 -0.1506428 -0.033952545 -0.08149495
-0.092103295 -0.16489461 -0.052644055 -0.13992555 -0.13670823 -0.074370824 0.072609305 -0.17419183
-0.15242882 -0.1172651 -0.07293238 -0.13005489 -0.040339537 -0.18714546 -0.059060894 -0.17257448
0.05267724 -0.03997406 -0.06365091 0.03265034 -0.016302936 -0.049244776 -0.122098826 -0.08725757
0.16258231 -0.17773229 0.07454229 -0.16236553 -0.19423515 -0.2131885 0.05640692 -0.16003929
-0.02428245 -0.025899353 0.034552656 -0.21737722 -0.15941317 -0.062574185 -0.15427476 0.045316022
00000000: a485 14bd 316f 07bd 6138 59bd 6000 3fbd
00000010: 9f87 893b 0dcc cabc 009e fcbd af6c 2fbd
00000020: 0a3c 6fbc 9c2b 9a3d d3ac 533a 4b56 383d
00000030: 2fdf 1ebb 8805 803d 3acb 3c3d 1c7a ec3c
00000040: cf53 c1b9 4066 573d e63d 12bc 0d7d 8cbc
00000050: ef4d 02bd 323d c2bc 48ca a3bd 49b0 19be
00000060: 6197 9e3c ee82 7c3d 787d bc3c dde9 093d
00000070: 4666 77bd 085e f23c 9505 91bc 7065 4a3d
00000080: ee84 9b3c c9dd 363c d01d 02bd 5893 2a3d
00000090: 3114 643d 276d 1e3d f6e6 1abd 1d7c 05bd
000000a0: 9214 a4bc 2755 263c 46b3 fbbb 0640 d1bd
000000b0: 0af4 3e3d 9a81 afbd 4c11 2a3d 6342 633d
000000c0: 28dd 363c 9f7b 69bd 5042 f63c 8ed9 29bd
000000d0: c047 4d3b 3ab8 223a f482 193e afed 5b3c
000000e0: aafc 103d 2537 6fbd 1c8a 6a3a cbb4 413c
000000f0: bf88 aa3c d684 e4b9 a20f 1e3d 8da2 703d
00000100: 2e1c 79bc 0a7f 933c 3c32 9a3a f305 49bd
00000110: 9b99 9dbd 6eca ffbb 6d2f acbd b96c 10bc
00000120: 33ee 05bb 48e4 56bd fbb1 6e3d e7b4 913d
00000130: cb5d 42bd d575 0d3d 3301 683d bcdd bbbc
00000140: 7548 9cbd c631 e0bc 7a89 a63d d8f6 2cbd
00000150: 1a5a 8f3d 5e61 5e3d d3f1 52bd 17d4 81bd
00000160: 3956 0e3b 2a8e d0bc f61b 69bd ba1d 3dbd
00000170: 5d7b a2bc 8d5a 1c3c 268e 933d ea9e ae3b
00000180: 2daf d3bb e904 5abc 1b7a 5b3d 8a0a 8f3b
00000190: 68b9 65bd defc 65bd 96ae a43b d007 b03c
000001a0: bc7f 3a3d 8dde 41bb 45b4 c23c 44c4 9ebd
000001b0: 626a 4cbd f573 903c 183a 2abd 9ee3 0ebd
000001c0: d685 173d 8d83 71bb 8e47 d5bc fe9b 523d
000001d0: 506a 85bd c83f febc 22e8 88bd 23e1 583d
000001e0: 72f9 8e3c 5c57 12bd 69d0 3dbd 4667 7f3d
000001f0: ea74 7a3c 2667 bb3c da3a 373d 94d0 103c
00000200: 441d acbd 8214 913d 5b01 7abd 4a99 b33c
00000210: 88b9 b73d e45e 863d 38de 833d 53f8 8a3d
00000220: 3558 2ebc bf70 e83d 14e4 9c3c a753 8b3d
00000230: 88ae bc3d 7548 08bb 1ab4 593d 44bc 89bd
00000240: d450 cebc 9652 fbba adbd 4dbc 5a35 ba39
00000250: 67c5 b6bc 589c 20bc d3b1 003d 1941 8c3b
00000260: 2416 8d3d bd79 9bbc 58c8 d43d e53e 833d
00000270: 635b 653d 8890 93bd da60 213c bb93 043d
00000280: 1f01 9dbd 4469 383d f4f7 953c e020 a9bc
00000290: b09c b13d a5e6 a0bc dd3a e3bc 1ae8 03bd
000002a0: 6463 10bc 006f 0b3c 4d37 653c 851b cb3c
000002b0: 5010 11bd 4bab 16bd 7871 69bd bf28 c0ba
000002c0: c52b 0e3d 5086 76bd c36b afbd 5003 fcbb
000002d0: 86cd 2fbd 2020 d3bc c0e3 ee3c f6a3 8c3d
000002e0: c75e 853d 8783 0cbd 2c51 bf3a 692d edba
000002f0: ded2 a33b c3af acba 3781 95bc b98a 12be
00000300: 63e2 37be b63d 12be 5ee0 e5bd b8ee 42be
00000310: 01e9 1c3d 2e02 2dbe 17f8 9dbb bba1 a1bd
00000320: 5967 0ebe 8eb8 98bd 0e44 45be 3a71 80bc
00000330: 8a72 49be edd7 d4bd aa0c 0bbe 3f87 a43d
00000340: a522 23be 2760 c63c 7306 533d 7c3a cfbd
00000350: 47b7 5ebe 1b42 1abe d311 0bbd d3e6 a6bd
00000360: a7a0 bcbd 22da 28be 4ba1 57bd a548 0fbe
00000370: 3efd 0bbe bb4f 98bd 30b4 943d 585f 32be
00000380: 4d16 1cbe af28 f0bd 925d 95bd 1c2d 05be
00000390: 123b 25bd 0fa3 3fbe d6e9 71bd 5db7 30be
000003a0: 17c4 573d d7bb 23bd 695b 82bd 5dbc 053d
000003b0: bc8d 85bc e4b4 49bd f30e fabd 19b4 b2bd
000003c0: fa7b 263e 74ff 35be a1a9 983d 2643 26be
000003d0: 94e5 46be 164e 5abe f10a 673d 57e1 23be
000003e0: fdeb c6bc e12a d4bc 1687 0d3d 2298 5ebe
000003f0: 353d 23be e526 80bd 34fa 1dbe 4b9d 393d

to_latent.weight f4 [16, 64]
-0.75655746 0.8414453 -0.45533505 0.6215778 0.8308995 0.835479 0.39755216 0.7912639
0.08687354 -0.5264286 0.7945171 0.8110039 0.64213127 -0.7750909 0.8574459 -0.5669165
0.6887677 -0.8258157 0.5938829 -0.7151057 -0.8385077 0.89445734 0.73940426 0.7193785
0.80334514 -0.78684145 0.48630485 -0.4934383 0.6004546 -0.799078 0.35196292 0.75406724
-0.63636184 0.719295 -0.45086592 0.8221367 0.20972022 0.7242171 0.4055699 0.8304082
0.069585554 -0.18228297 -0.008964135 0.703879 -0.37175256 0.30955064 -0.7770346 -0.062298905
0.8084668 -0.6392157 -0.06565142 -0.7785914 -0.81796145 -0.7527415 0.91900223 0.77059495
-0.08387925 -0.6768656 -0.057212517 -0.7824617 -0.83372694 0.82400674 0.82236904 -0.8340485
-0.67902935 0.7851678 -0.51181316 0.7692361 0.7657057 0.71325403 0.4594678 0.6986724
-0.031288538 -0.28335086 0.76703805 0.8208171 0.617523 -0.7144759 0.7036557 -0.59776986
0.6548555 -0.7290091 0.33206373 -0.57834154 -0.77364707 0.7755039 0.6267571 0.49355114
0.7161017 -0.77358943 0.5356573 -0.5992771 0.5533074 -0.7038352 0.41429052 0.7966249
-0.6992995 0.7723733 -0.22028066 0.7292651 0.47400564 0.72108734 0.3212497 0.7313529
-0.2140199 0.022836054 0.09070408 0.5901097 -0.45992565 0.25496247 -0.69918555 -0.27935418
0.6765856 -0.7145258 -0.4053589 -0.7495127 -0.6903262 -0.74217933 0.81248635 0.7415603
0.0005480815 -0.6506396 -0.17224324 -0.72597027 -0.7077868 0.7461005 0.716502 -0.80032974
0.7354898 -0.80486923 0.5170525 -0.533666 -0.74911267 -0.8090112 -0.50633436 -0.7624105
-0.073713034 0.38322106 -0.7064877 -0.7795483 -0.6317883 0.8121982 -0.79673755 0.5553165
-0.7222403 0.7111113 -0.44004768 0.6880142 0.7285502 -0.8532288 -0.68755275 -0.65433055
-0.79460865 0.81980926 -0.4606627 0.5190919 -0.52322465 0.6883054 -0.42621604 -0.742371
0.6445559 -0.81449527 0.41568252 -0.83070177 -0.38504303 -0.6535456 -0.3240094 -0.7128274
0.06850961 0.013689654 0.17706783 -0.7183558 0.39498523 -0.34887692 0.66528857 0.18691617
-0.8030255 0.58621407 0.14022516 0.7012253 0.7791501 0.75003636 -0.7796263 -0.81002903
0.04242753 0.66269046 0.07802683 0.7952048 0.7168706 -0.83032024 -0.7318311 0.7151148
0.63844275 -0.7136147 0.504794 -0.5547075 -0.68704045 -0.7217427 -0.42872444 -0.6961298
-0.06659214 0.42824927 -0.7065666 -0.706426 -0.6012615 0.7162052 -0.76158917 0.5980553
-0.6582122 0.7275715 -0.476397 0.59898114 0.67184997 -0.7225411 -0.71399564 -0.5554025
-0.62643856 0.7618454 -0.44084707 0.51756257 -0.5146755 0.6406876 -0.29707187 -0.6674664
0.69124 -0.66760683 0.35425127 -0.7652424 -0.2576781 -0.6204468 -0.32950956 -0.6764622
0.036634747 0.059056573 0.019218095 -0.65931404 0.38756898 -0.24950622 0.6640135 0.077252254
-0.73665833 0.5540209 0.088389345 0.68877876 0.6276663 0.7134378 -0.8262968 -0.7220253
0.10321351 0.59069353 0.05864483 0.6941077 0.7124526 -0.70233697 -0.7228129 0.7395087
00000000: c0ad 41bf f668 573f ad21 e9be b91f 1f3f
00000010: d4b5 543f f4e1 553f f58b cb3e 4590 4a3f
00000020: c1ea b13d 06c4 06bf 7965 4b3f f49d 4f3f
00000030: b762 243f 5b6c 46bf 9381 5b3f 7121 11bf
00000040: 1453 303f a868 53bf b608 183f 2b11 37bf
00000050: 71a8 56bf 28fb 643f 9949 3d3f 3029 383f
00000060: 07a8 4d3f 716e 49bf f3fc f83e f2a3 fcbe
00000070: 65b7 193f 6090 4cbf 7c34 b43e 8d0a 413f
00000080: 9ce8 22bf b823 383f e6d7 e6be 8d77 523f
00000090: e6c0 563e 4b66 393f dca6 cf3e a295 543f
000000a0: df82 8e3d 63a8 3abe 4fde 12bc 6a31 343f
000000b0: 5a56 bebe 6c7d 9e3e bdeb 46bf 232d 7fbd
000000c0: aef7 4e3f a4a3 23bf 4074 86bd c451 47bf
000000d0: ec65 51bf abb3 40bf bb43 6b3f b645 453f
000000e0: e2c8 abbd 1047 2dbf ac57 6abd 694f 48bf
000000f0: 216f 55bf 1bf2 523f c786 523f 3484 55bf
00000100: ded4 2dbf c200 493f 3006 03bf a8ec 443f
00000110: 4a05 443f d197 363f 5d3f eb3e 32dc 323f
00000120: 6928 00bd 5d13 91be 9b5c 443f 1221 523f
00000130: fd15 1e3f e5e7 36bf c822 343f 7207 19bf
00000140: 9ca4 273f 57a0 3abf 4204 aa3e 310e 14bf
00000150: bc0d 46bf 6c87 463f 2773 203f bcb2 fc3e
00000160: 7152 373f f509 46bf d620 093f 396a 19bf
00000170: 8ea5 0d3f 8b2e 34bf e31d d43e 9cef 4b3f
00000180: 4b05 33bf 42ba 453f 4191 61be 1eb1 3a3f
00000190: deb0 f23e 2e99 383f d77a a43e f239 3b3f
000001a0: 0828 5bbe ad12 bb3c 10c3 b93d 6e11 173f
000001b0: 607b ebbe 718a 823e d3fd 32bf 8307 8fbe
000001c0: b734 2d3f 2aeb 36bf 348b cfbe 10e0 3fbf
000001d0: 38b9 30bf 77ff 3dbf 1bff 4f3f e5d6 3d3f
000001e0: 20ad 0f3a 5190 26bf 8860 30be 30d9 39bf
000001f0: 8431 35bf 7100 3f3f ad6c 373f 69e2 4cbf
00000200: 0f49 3c3f e90b 4ebf 8d5d 043f 569e 08bf
00000210: d9c5 3fbf 5c1b 4fbf 219f 01bf 562d 43bf
00000220: dcf6 96bd 8d35 c43e 61dc 34bf 7a90 47bf
00000230: e1bc 21bf 39ec 4f3f fef6 4bbf 3929 0e3f
00000240: bee4 38bf 640b 363f ee4d e1be b321 303f
00000250: 4482 3a3f 346d 5abf 7503 30bf 3582 27bf
00000260: 796b 4bbf 05df 513f fbdb ebbe 35e3 043f
00000270: 0df2 05bf c834 303f fd38 dabe 070c 3ebf
00000280: 9e01 253f c382 50bf 57d4 d43e dfa8 54bf
00000290: 5c24 c5be c44e 27bf 8fe4 a5be db7b 36bf
000002a0: c44e 8c3d 924a 603c 4551 353e 2ae6 37bf
000002b0: 813b ca3e ff9f b2be 5a50 2a3f f466 3f3e
000002c0: 1493 4dbf 2012 163f 2f97 0f3e 8083 333f
000002d0: 6276 473f 6202 403f 9795 47bf 105e 4fbf
000002e0: 7dc8 2d3d 15a6 293f 88cc 9f3d 8b92 4b3f
000002f0: d584 373f de8f 54bf 4859 3bbf c311 373f
00000300: fc70 233f 74af 36bf 2e3a 013f 5001 0ebf
00000310: e2e1 2fbf 21c4 38bf c581 dbbe 9035 32bf
00000320: 7661 88bd 7d43 db3e 8ce1 34bf 56d8 34bf
00000330: 46ec 19bf 3959 373f 82f7 42bf 271a 193f
00000340: 9880 28bf 2042 3a3f 4fea f3be d456 193f
00000350: 5cfe 2b3f 74f8 38bf 6bc8 36bf dc2e 0ebf
00000360: 475e 20bf 4d08 433f b5b6 e1be fb7e 043f
00000370: c6c1 03bf 1a04 243f ce19 98be 14df 2abf
00000380: 1bf5 303f 48e8 2abf 6c60 b53e ede6 43bf
00000390: 62ee 83be 9ad5 1ebf 7ab5 a8be a02c 2dbf
000003a0: 510e 163d 4ee5 713d 446f 9d3c cec8 28bf
000003b0: 716f c63e 8f7e 7fbe cafc 293f 6e36 9e3d
000003c0: a495 3cbf 50d4 0d3f 7905 b53d ce53 303f
000003d0: bdae 203f dca3 363f 3088 53bf a6d6 38bf
000003e0: 9b61 d33d b137 173f 9035 703d 0bb1 313f
000003f0: 4b63 363f 5bcc 33bf 440a 39bf 7150 3d3f

to_latent.bias f4 [16]
1.0000608 0.635144 -0.75320375 -0.801672 0.7055648 -0.50495833 0.64913195 -0.89714384
-0.77643186 -0.51967 -0.7315426 -0.72134185 0.94555134 0.4988339 -0.6842842 -0.7352095
00000000: fe01 803f cc98 223f f6d1 40bf 603a 4dbf
00000010: e59f 343f f344 01bf 832d 263f 38ab 65bf
00000020: 3dc4 46bf 1809 05bf 6046 3bbf dca9 38bf
00000030: a70f 723f 2867 ff3e 402d 2fbf b136 3cbf

from_latent.weight f4 [64, 16]
-0.07860386 0.119946346 -0.07173107 0.12045978 0.37631363 -0.080995634 -0.046209946 0.11472838
0.48136464 -0.032812603 0.84940135 -0.27298254 0.15810242 0.087009445 0.02350811 0.016911091
0.015297775 -0.05490354 0.11957566 0.038327094 -0.06778853 -0.037561633 -0.018630307 -0.047398794
-0.15634787 -0.104655765 -0.040893454 0.099491194 0.13582416 -0.047001023 0.10112 -0.039703585
0.13789314 -0.07209747 0.0068411482 -0.09981943 0.17785141 -0.092787996 0.066771336 0.02343728
0.2987046 0.088955484 0.52953297 -0.19089033 0.108889975 0.1458616 0.06755667 0.1037245
0.35034388 0.30848077 -0.26799494 -0.31960994 0.34798753 -0.34253278 0.35414642 -0.3508125
-0.42077887 -0.43932554 -0.4467428 -0.18683535 0.29117024 0.2568564 -0.33940715 -0.1987115
-0.06583471 0.1116287 -0.0016591973 0.045392778 -0.13650446 0.08691239 0.12650794 -0.0823143
0.054165177 -0.11619854 0.056360316 -0.025829699 -0.06624478 0.056671716 0.006973573 0.034594133
-0.08225335 0.03317266 -0.064766206 -0.1056831 -0.022392372 -0.004241572 -0.06208731 0.021333355
-0.076837584 0.00043483195 0.018035088 0.08212263 -0.070569076 -0.1578257 0.11140173 0.06257651
0.42399636 0.5431543 -0.465022 -0.41992792 0.4870502 -0.33873156 0.49759212 -0.3924038
0.11595001 -0.41867876 -0.14765789 -0.50775623 0.2383599 0.28684023 -0.22725743 -0.39003295
-3.3504272 -3.1916885 3.2796402 3.2558074 -3.174977 3.1114557 -3.265723 3.3665178
3.2362523 3.3147678 3.1647425 3.1434834 -3.3533077 -3.1930134 3.2173622 3.2744408
-0.051315315 -0.035187133 -0.0075288685 0.13962778 0.11155319 -0.03778498 0.093764156 0.1136257
0.015195175 0.09875818 0.087759495 0.08504768 0.031718947 0.07350283 -0.098322414 -0.015087868
-0.04305437 -0.04423247 -0.14328647 -0.10959588 0.05706298 -0.044764373 -0.07701617 -0.052703805
-0.037849784 -0.018925795 0.027996005 -0.006190105 -0.07105462 -0.0577756 0.094843514 -0.061142117
-0.2984753 0.3596227 -0.14037944 0.012692462 0.30002558 0.033560574 0.25829393 0.49721107
0.692924 -0.29572922 0.21988443 -0.49385545 -0.10470246 0.11973892 0.29550943 0.073932156
0.078972206 0.14464197 -0.056822386 -0.06581423 -0.11251915 0.07834453 -0.04598539 -0.007380577
-0.05785785 0.036403593 0.0737864 0.015896939 0.06007584 0.07482683 -0.08967571 0.0027356392
-0.023294043 0.045553066 0.088855185 0.09905218 0.062983625 0.09407142 0.06420752 -0.07348352
-0.03513311 0.11984414 -0.1240947 -0.019977363 0.021411454 0.10941676 0.051750027 0.10517917
-0.18581787 -0.116539955 0.034352157 0.01667295 -0.112319805 -0.086918496 -0.071322285 0.009152635
0.056035038 0.08047434 0.058352478 0.015593712 -0.09993932 0.09894871 0.06896594 -0.06540885
-0.00028521175 0.09113927 0.11611841 -0.10317893 -0.07768045 0.06862695 0.06557744 -0.04943869
-0.043587513 -0.093917094 0.123900265 0.041451868 0.09475905 -0.05976557 0.04839225 0.046027243
0.007772205 0.06658067 -0.007695756 0.08992166 -0.10718142 0.110514276 0.042598505 -0.043630626
-0.085512124 0.0772604 0.027784912 -0.11524645 0.119474925 0.061252125 0.025394099 0.13343811
00000000: 10fb a0bd 6ea6 f53d bde7 92bd 9eb3 f63d
00000010: 2eac c03e 0ae1 a5bd a446 3dbd b7f6 ea3d
00000020: 6d75 f63e 8266 06bd 5e72 593f 5ec4 8bbe
00000030: 9ae5 213e 0232 b23d 1494 c03c 2189 8a3c
00000040: 85a3 7a3c 89e2 60bd 15e4 f43d dffc 1c3d
00000050: b6d4 8abd 3ada 19bd 969e 98bc 3d25 42bd
00000060: a819 20be c355 d6bd e57f 27bd 0ac2 cb3d
00000070: 7d15 0b3e 2584 40bd 0118 cf3d 3aa0 22bd
00000080: dc33 0d3e d7a7 93bd b62b e03b 216e ccbd
00000090: ae1e 363e a207 bebd 69bf 883d 8aff bf3c
000000a0: cfef 983e 4b2e b63d 798f 073f c178 43be
000000b0: b501 df3d be5c 153e 275b 8a3d 836d d43d
000000c0: 4660 b33e 31f1 9d3e a236 89be eaa3 a3be
000000d0: 6c2b b23e 7560 afbe ae52 b53e b29d b3be
000000e0: 5470 d7be 47ef e0be 79bb e4be c451 3fbe
000000f0: 4414 953e af82 833e c6c6 adbe 077b 4bbe
00000100: 59d4 86bd 969d e43d 6c79 d9ba c7ed 393d
00000110: d3c7 0bbe 20ff b13d 4c8b 013e 6694 a8bd
00000120: 4edc 5d3d 80f9 edbd 13da 663d ce98 d3bc
00000130: 58ab 87bd 9a20 683d 9282 e43b 94b2 0d3d
00000140: 7274 a8bd 0ee0 073d 25a4 84bd 6270 d8bd
00000150: 3570 b7bc e3fc 8abb 434f 7ebd 4ac3 ae3c
00000160: 065d 9dbd 28fa e339 52be 933c e92f a83d
00000170: 8586 90bd 0f9d 21be 9726 e43d 1d28 803d
00000180: 0d16 d93e 290c 0b3f 5d17 eebe cb00 d7be
00000190: a55e f93e 396e adbe 65c4 fe3e 27e9 c8be
000001a0: 3377 ed3d 105d d6be a133 17be 50fc 01bf
000001b0: 9e14 743e b9dc 923e 2cb6 68be 66b2 c7be
000001c0: 666d 56c0 a044 4cc0 a0e5 5140 265f 5040
000001d0: d332 4bc0 1722 4740 9b01 51c0 0775 5740
000001e0: c21e 4f40 2825 5440 248b 4a40 d52e 4940
000001f0: 989c 56c0 555a 4cc0 43e9 4d40 7090 5140
00000200: 0230 52bd 6220 10bd bab4 f6bb 96fa 0e3e
00000210: 0076 e43d 6cc4 1abd 6c07 c03d 97b4 e83d
00000220: 2ff5 783c bb41 ca3d 40bb b33d 7a2d ae3d
00000230: baeb 013d a788 963d 435d c9bd 1b33 77bc
00000240: c759 30bd 1b2d 35bd b0b9 12be ce73 e0bd
00000250: dfba 693d d95a 37bd a7ba 9dbd f2df 57bd
00000260: 6008 1bbd 450a 9bbc e157 e53c 5dd6 cabb
00000270: 1685 91bd 1ca6 6cbd 513d c23d 2870 7abd
00000280: c1d1 98be 7720 b83e a1bf 0fbe 0bf4 4f3c
00000290: f49c 993e d076 093d 1a3f 843e 7392 fe3e
000002a0: 7863 313f d269 97be 6229 613e 9fda fcbe
000002b0: 3e6e d6bd ae39 f53d 034d 973e be69 973d
000002c0: 2ebc a13d 061d 143e 97be 68bd 9cc9 86bd
000002d0: 7170 e6bd 1973 a03d 2d5b 3cbd c4d8 f1bb
000002e0: 5afc 6cbd ef1b 153d 531d 973d 4c3a 823c
000002f0: 1612 763d cf3e 993d e6a7 b7bd 6948 333b
00000300: 26d3 bebc da95 3a3d b5f9 b53d dfdb ca3d
00000310: 8ffd 803d 84a8 c03d 3b7f 833d 877e 96bd
00000320: bce7 0fbd d870 f53d 5d25 febd 91a7 a3bc
00000330: 1367 af3c e515 e03d d6f7 533d 2d68 d73d
00000340: 0a47 3ebe 80ac eebd d9b4 0c3d b695 883c
00000350: ed07 e6bd 5302 b2bd 6b11 92bd eff4 153c
00000360: ff84 653d bbcf a43d 0203 6f3d c57c 7f3c
00000370: fcac ccbd 9fa5 ca3d 043e 8d3d 13f5 85bd
00000380: 7988 95b9 3aa7 ba3d 7dcf ed3d 7a4f d3bd
00000390: ee16 9fbd 498c 8c3d 774d 863d 3980 4abd
000003a0: d288 32bd 9b57 c0bd 6cbf fd3d 6fc9 293d
000003b0: 0811 c23d becc 74bd f436 463d 1087 3c3d
000003c0: fbad fe3b 725b 883d ae2c fcbb d928 b83d
000003d0: ef81 dbbd 4f55 e23d c57b 2e3d 07b6 32bd
000003e0: fb20 afbd b33a 9e3d 2f9d e33c 5506 ecbd
000003f0: 45af f43d 82e3 7a3d 4907 d03c 00a4 083e

from_latent.bias f4 [64]
-0.3125704 0.065637946 -0.116227254 0.3065037 -0.06618362 -0.024981689 0.23991622 -3.451487
0.119103804 -0.13703191 -0.40804547 0.08053166 0.13540901 0.06860044 -0.0854118 -0.07339515
-0.14369757 0.08530975 -0.07467384 -0.12904856 -0.11553637 0.19478297 0.07772288 -0.00061576697
0.15833221 0.94856334 -0.055460516 0.12845364 0.6451067 -0.21167131 -0.09427441 -0.008701441
0.13684227 -0.2810716 0.15873507 0.17790808 0.097054705 0.041859914 0.039272193 -0.051768523
-0.05574813 0.10078361 -0.10381838 -0.057636894 -0.13991924 0.0434452 0.0591577 -0.67276746
0.011238496 0.066398114 0.08199622 0.06309133 0.14145622 -0.11489706 -0.23713638 -0.0787722
-0.12878673 -0.080248736 0.2225776 -0.02475309 0.1949823 0.026288008 -0.1615864 -0.12658188
00000000: 3a09 a0be 306d 863d 8e08 eebd 0eee 9c3e
00000010: 478b 87bd 66a6 ccbc 99ac 753e 2ae5 5cc0
00000020: b2ec f33d 1852 0cbe 56eb d0be c8ed a43d
00000030: a9a8 0a3e 637e 8c3d 62ec aebd 3250 96bd
00000040: 7525 13be e1b6 ae3d 99ee 98bd 4e25 04be
00000050: 559e ecbd 3075 473e 2c2d 9f3d 6c6b 21ba
00000060: d721 223e 0cd5 723f 912a 63bd 5a89 033e
00000070: b625 253f 5dc0 58be f112 c1bd 7d90 0ebc
00000080: 6120 0c3e 9ee8 8fbe 728b 223e 892d 363e
00000090: 9ec4 c63d 4d75 2b3d e1db 203d 3b0b 54bd
000000a0: 2758 64bd a367 ce3d bb9e d4bd aa14 6cbd
000000b0: fd46 0fbe 98f3 313d 584f 723d 7d3a 2cbf
000000c0: ab21 383c bcfb 873d a2ed a73d 0736 813d
000000d0: e6d9 103e 264f ebbd e1d3 72be 5253 a1bd
000000e0: abe0 03be 7359 a4bd 62eb 633e fec6 cabc
000000f0: 71a9 473e f359 d73c e876 25be ae9e 01be

decoder.weight_ih_l0 f4 [256, 60]
0.09777024 0.073867105 0.028382251 -0.0029584437 0.06238269 0.05733694 0.050524037 0.05227995
0.009033875 0.03653572 0.067849405 0.055334304 0.068666905 0.06695491 0.07895199 0.09607148
0.06475963 0.108444564 0.060178198 0.08070205 0.03803964 0.07633115 0.08493339 0.10204436
0.06577066 0.00995168 0.10692873 0.12372446 0.10294087 0.043359473 0.057120994 0.1215922
0.116492935 0.0061586984 0.056886144 0.010798339 0.045689996 0.0008435646 0.056639913 0.0040563145
0.013257104 0.05339378 0.08309531 0.044696327 0.032742396 0.11591731 0.06712816 0.019282274
0.029725846 0.08679277 0.06551543 0.06293679 0.07962901 0.04229835 0.036044344 0.095801815
0.10921259 0.06893857 0.0968407 0.058317184 -0.028082337 -0.0132660875 0.050178275 0.05188325
0.034897935 -0.013470603 0.053776965 0.08513709 0.053849194 0.049389202 0.08638098 0.029105648
-0.011708634 -0.03765041 0.0015348326 0.0341794 0.065142654 -0.0004526537 0.03959856 0.04689349
0.028094362 -0.018932248 0.013264895 -0.0369563 0.0066016368 0.079492934 0.024661714 0.05573083
0.020394556 0.003922251 0.016922941 0.084293924 -0.025843613 0.044742834 -0.006375431 0.0251901
0.019467102 -0.001311099 0.07502592 0.032395832 0.0022994853 0.006780572 0.07138793 0.03278686
-0.006748112 0.082407676 -0.013942962 0.057790574 0.009396238 0.012998186 0.0666207 0.008174877
0.043186948 0.027648782 0.07768161 0.00038380738 0.07791392 0.0009979404 0.023343226 -0.03809407
0.07678344 0.09319249 0.014628445 0.09634901 0.08012392 0.09361242 0.110060856 0.017376386
0.030698836 0.03662899 0.079315424 0.03400223 0.07058793 0.0055693844 0.07503149 0.09687574
0.008366573 0.026929282 0.070687965 0.056369826 0.11758713 0.09065748 0.069619656 0.036708657
-0.010703191 0.07343192 0.07816451 0.088068895 0.10008335 -0.0014313222 0.10957943 -0.006460436
0.03524289 0.08200495 0.10724955 0.023536552 0.02275857 0.036270846 0.0059464723 0.11500134
0.026669968 -0.006915761 0.028922752 0.11005154 0.07032566 0.07103765 0.021210516 0.093579225
0.09431351 -0.0006990082 0.004021942 0.13396722 0.0173402 0.05220797 0.094888255 0.11834572
0.056844264 0.046351407 0.051173598 0.02215392 -0.021902882 0.05878775 0.07507286 -0.0031031168
0.078750566 0.04056886 0.04267654 0.020243747 0.07902199 0.032507364 -0.02197629 0.005553153
-0.025575442 -0.01619205 0.011079491 0.09957421 0.030413685 0.048583657 0.08270614 -0.0037802402
-0.011404037 -0.021572258 -0.0351276 0.021814555 0.059768897 0.006220438 0.0710645 -0.012248669
-0.013047693 0.07760677 0.04848939 0.07608944 0.010078321 0.060449246 -0.02962303 -0.040169243
0.008531848 0.080985315 0.02554565 -0.013412056 0.00040904497 0.09618188 0.07551182 -0.010635537
-0.011866371 0.047484364 -0.011250333 0.022667162 0.018470425 0.058002573 0.048616465 0.10187395
0.035492335 -0.017909477 -0.04008397 -0.02847387 -0.008454585 0.057988137 0.061516102 0.058552694
0.06430077 -0.05914736 0.21994525 -0.26640934 0.056309123 0.087548755 0.17504889 -0.20091003
-0.104970105 0.12416169 -0.11532615 -0.12117844 0.18781094 0.04223316 -0.0667865 -0.1095887
00000000: c33b c83d a347 973d e581 e83c 73e2 41bb
00000010: fe84 7f3d 24da 6a3d 4bf2 4e3d 8023 563d
00000020: d102 143c 7ba6 153d a1f4 8a3d 39a6 623d
00000030: 3ca1 8c3d a81f 893d 95b1 a13d 20c1 c43d
00000040: b2a0 843d 2f18 de3d 6a7d 763d 1e47 a53d
00000050: 74cf 1b3d 8253 9c3d 8ff1 ad3d a2fc d03d
00000060: c5b2 863d 5f0c 233c 73fd da3d 4063 fd3d
00000070: aad2 d23d b499 313d b4f7 693d 5505 f93d
00000080: d993 ee3d e8ce c93b 7201 693d 84eb 303c
00000090: 6f25 3b3d a922 5d3a 41ff 673d d5ea 843b
000000a0: 5334 593c 70b3 5a3d e02d aa3d 7f13 373d
000000b0: e41c 063d 0e66 ed3d 7d7a 893d dcf5 9d3c
000000c0: 9e83 f33c 68c0 b13d f42c 863d 01e5 803d
000000d0: 8914 a33d 0941 2d3d 3ca3 133d be33 c43d
000000e0: daaa df3d aa2f 8d3d 6b54 c63d 00de 6e3d
000000f0: ee0c e6bc 015a 59bc bc87 4d3d 8883 543d
00000100: 23f1 0e3d ceb3 5cbc 3c45 5c3d 5b5c ae3d
00000110: f990 5c3d 554c 4a3d 83e8 b03d f86e ee3c
00000120: 92d5 3fbc 5137 1abd 702c c93a b3ff 0b3d
00000130: 8369 853d 2752 edb9 1a32 223d 6313 403d
00000140: 2626 e63c cd17 9bbc 0155 593c 7d5f 17bd
00000150: 8b52 d83b 31cd a23d 5d07 ca3c 0346 643d
00000160: 7c12 a73c 3a86 803b fba1 8a3c 4ba2 ac3d
00000170: fcb5 d3bc 4344 373d fee8 d0bb 785b ce3c
00000180: 7979 9f3c 2fd9 abba 31a7 993d 7eb1 043d
00000190: f6b2 163b 8f2f de3b d633 923d 844b 063d
000001a0: 441f ddbb 5bc5 a83d 0571 64bc cfb5 6c3d
000001b0: aef2 193c 58f6 543c 6f70 883d ebef 053c
000001c0: cce4 303d b37f e23c 8917 9f3d c139 c939
000001d0: 5591 9f3d 53cd 823a 4b3a bf3c 8708 1cbd
000001e0: a340 9d3d b4db be3d 25ac 6f3c a152 c53d
000001f0: 0318 a43d deb7 bf3d 9667 e13d ec58 8e3c
00000200: 207c fb3c 4808 163d 2070 a23d ec45 0b3d
00000210: 6890 903d 627f b63b 1caa 993d ca66 c63d
00000220: f313 093c cc9a dc3c dac4 903d 0ce4 663d
00000230: 85d1 f03d a1aa b93d c094 8e3d d15b 163d
00000240: 705c 2fbc 7963 963d b714 a03d 775d b43d
00000250: 80f8 cc3d 349b bbba 2e6b e03d 11b2 d3bb
00000260: d95a 103d 36f2 a73d a7a5 db3d bacf c03c
00000270: 2e70 ba3c bd90 143d a0da c23b d385 eb3d
00000280: fa7a da3c 9c9d e2bb 68ef ec3c b462 e13d
00000290: e606 903d 307c 913d adc1 ad3c 77a6 bf3d
000002a0: 7127 c13d a53d 37ba 7fca 833b b42e 093e
000002b0: 090d 8e3c 06d8 553d c654 c23d 3e5f f23d
000002c0: 88d5 683d f9da 3d3d 689b 513d 237c b53c
000002d0: ac6d b3bc 6ccb 703d cdbf 993d a95d 4bbb
000002e0: fa47 a13d 882b 263d 98cd 2e3d 37d6 a53c
000002f0: 48d6 a13d 7126 053d 9f07 b4bc 39f7 b53b
00000300: 9783 d1bc 31a5 84bc c186 353c 90ed cb3d
00000310: 1f26 f93c a8ff 463d d661 a93d e8bd 77bb
00000320: ffd7 3abc 4eb8 b0bc f5e1 0fbd 70b4 b23c
00000330: 3bd0 743d d1d4 cb3b 448a 913d a4ae 48bc
00000340: fec5 55bc 4cf0 9e3d d09c 463d c8d4 9b3d
00000350: 8b1f 253c a199 773d ffab f2bc 8188 24bd
00000360: 2ac9 0b3c a1db a53d 1c45 d13c 3dbe 5bbc
00000370: 1675 d639 01fb c43d f1a5 9a3d ad40 2ebc
00000380: 2b6b 42bc f77e 423d 5153 38bc 7cb0 b93c
00000390: 4a4f 973c 1b94 6d3d 0f22 473d 4aa3 d03d
000003a0: 6960 113d e5b6 92bc 172f 24bd 0942 e9bc
000003b0: 1a85 0abc f884 6d3d 4ff8 7b3d f3d4 6f3d
000003c0: 1fb0 833d 8144 72bd 5439 613e ce66 88be
000003d0: 65a4 663d c34c b33d 0440 333e 5cbb 4dbe
000003e0: 91fa d6bd 7c48 fe3d 1e30 ecbd 672c f8bd
000003f0: 8351 403e aefc 2c3d 5cc7 88bd 0a70 e0bd
