Models/artifact_5/dense_ae.pt (torch, 32194 bytes, 12 tensors)

enc.0.weight f4 [40, 60]
00000000: 7701 de3d bb4b 10bb 3b01 6abd 8f85 2ebe
00000010: f46e 823d 66a7 a63d d520 903d 766b 4e3d
00000020: f60a 873c ee5c e1bd a5ac 903d 7a56 9a3d
00000030: 7e76 f83d b691 c23c 5b0d 41bc c339 88bd
00000040: 650d adbd a200 f83c 116e 343e 156d 383e
00000050: 1fe7 a0bd 5216 1abd e157 bbbd a6e2 43bd
00000060: 7f68 ba3d f450 9a3d ad1d 723d 7c87 89be
00000070: c37e 0ebe 0bf9 833d 6f87 da3c c4b2 1a3e
00000080: df80 023e 74fd 67bd 0ffe a8bc 4beb 803d
00000090: 5271 ca3d 782f a13b 0e62 5b3d 7e63 e5bd
000000a0: 7127 57bd bc7f 423d 6e8f 30bd 248f ab3d
000000b0: 1d3b 5b3e 362c af3d 221d 1abe 0e5a a63d
000000c0: 3153 6cbd 26af fb3d 37e0 0f3e 8836 053e
000000d0: 27fd 8ebd a1b2 46bd dbac e5bd 0efc 513e
000000e0: 88bb b93d f0e1 1f3e dca5 853c a879 b43c
000000f0: ed6a a73c 7a2d e2bc 82ac c83b 7bd4 9fbd
00000100: bd25 b63d 6b17 d53c 56bf 863c a807 6ebd
00000110: 1d6e a43d b4c9 863d 3816 0cbe 83da c3bd
00000120: 5762 aabd 32ee 13bd 8fab b1bc 6c30 a23d
00000130: a8ae fe3b 1195 17bd 257c d2bd 27a8 223d
00000140: 1d54 59bd b494 8e3d 84c9 13bd 8baf 0a3b
00000150: 44ac 603d e0d9 983d 8d16 fbbb 80fd 0b3d
00000160: d2f1 54bd 57d7 e9bb 6f04 debc 2f15 5abd
00000170: dc0e 6dbd 25bd 77bd 2f30 d4bd 81f0 01be
00000180: 1995 efbd f619 dfbd 3df5 b93d 5903 3b3d
00000190: 552b c6bd 20e9 d33d c2fd 6e3d 1906 b23d
000001a0: 4849 523b 2a51 e3bd 7d97 013d 8904 d73d
000001b0: f2d4 b1bb 4cfe 693d c192 2fbd 3cae a4bd
000001c0: 3563 60bc 8670 fa3c c34f 3b3d 3982 323d
000001d0: acd9 eb3d 6ac2 a1bc aef9 f23d 180d 04be
000001e0: 9ac9 f0bb 274d a9bd 1faf 8c3d 9266 cb3d
000001f0: c736 48bd 6a92 4e3d bba6 f6bd b434 453d
00000200: aff7 dfbd 98b0 9c3d e8be 2f3d abc3 74bd
00000210: f542 9bbc ebaa af3d 1271 073e 67b7 de3d
00000220: 03c0 4bbd df2c a6bd b2cc d2bd 7a3d 76bd
00000230: 7186 b43d 8c1f 2a3d 4b59 13bc e7bc e03c
00000240: 141e 143e d304 5abc e9d3 893d 6abf 6e3e
00000250: 97d3 cdbc 4bc0 7abd cf85 97bd 4e02 083b
00000260: 62c5 373d 3c0d 69bd 9fe7 943d bf59 dd3d
00000270: 11fb 7e3d 77b3 48bd c18d 7b3d 272d 863c
00000280: 0111 903d 03f8 063e 4538 8cbd e7ca 7c3e
00000290: fb53 843d 3efe 94bc 825f 36bd 22dd c43d
000002a0: ae76 f73d 6876 92bd 22cf b5bd 59cf af3b
000002b0: 4efd e03d 6bbf 103e 8cbf 90bc 148c 053e
000002c0: 1c2c 853d 6175 3f3c fdf8 9dbc 5cde e03d
000002d0: e6b0 6bbd b0a9 503c f9c5 a7bd e0eb 913c
000002e0: 4aa0 ffbd 7efb cbbd 62f2 86bd c4ab febd
000002f0: a231 8c3d eb33 e2bd c485 933d 2c04 84bc
00000300: 2e21 6abd 963c aa3d 0411 adbd 22fe ea3d
00000310: 00ab 243a b45b e43d c822 9bbd 00c6 073b
00000320: 2e54 78bd b7d2 f6bd 8060 f9ba 447d 763d
00000330: 38b7 f9bd d8cf 9e3c a3bd a3bd 9055 7cbc
00000340: 58af 06bd 90b8 143d ea94 a9bd a84e 9f3d
00000350: b0be 6c3d 7402 f8bc 6486 71bd 4ad7 c0bd
00000360: 067c a1bd 0cee ea3d 94f7 9b3d 207b 563d
00000370: e84e efbd ead8 8b3d 00d9 623c 3033 503d
00000380: 4006 a3bb 0000 60b6 c87a 93bc 30c8 9e3d
00000390: c824 b13d 8651 aa3d 3c88 2b3d 2ceb 853d
000003a0: 80b9 90ba 90bf 873c b793 febd 6050 c4bc
000003b0: 32c7 d8bd f81a 0fbd 8089 123d 4042 7fbc
000003c0: fa4a 22be 7b47 08bd 5d41 823d 1f04 fc3d
000003d0: 3d70 493e 2f88 c8bc 419d 02be 7e27 b1bd
000003e0: e401 ba3d 8c6b 143e 1094 403e 0615 c53d
000003f0: 2e5b 473b 6f8e b3bd bf87 68bb ea8b e23d
0.10840123 -0.0022017795 -0.05713008 -0.17043136 0.06368819 0.081373975 0.07037512 0.05039545
0.016484719 -0.11004053 0.07064179 0.07536025 0.121319756 0.023751121 -0.011782969 -0.06651642
-0.084498204 0.03027374 0.17620112 0.18010361 -0.07856583 -0.037618943 -0.09147621 -0.04782357
0.09101962 0.07534972 0.059110332 -0.2686118 -0.13915543 0.064439856 0.026675908 0.15107256
0.12744473 -0.056638196 -0.020628957 0.062948786 0.098848954 0.004918989 0.05356031 -0.11200617
-0.05252785 0.0474851 -0.043105535 0.08376911 0.21409269 0.085533544 -0.15050176 0.08122645
-0.057696525 0.12289266 0.14050375 0.13009083 -0.06981879 -0.048510198 -0.1121461 0.20506307
0.09068972 0.15613532 0.01631444 0.022030666 0.020436728 -0.027609576 0.00612408 -0.07804199
0.08893917 0.026012143 0.016448658 -0.05811277 0.08028815 0.065814406 -0.13680351 -0.09563162
-0.08319538 -0.036115833 -0.02168825 0.07919392 0.0077722855 -0.037007395 -0.10277585 0.039711144
-0.053058732 0.069619566 -0.036080852 0.002116176 0.054851785 0.07463431 -0.0076626004 0.034177303
-0.05198843 -0.007136266 -0.027101723 -0.05324286 -0.0578755 -0.060483117 -0.10360753 -0.12689401
-0.1169836 -0.108936235 0.090799786 0.04565749 -0.09676234 0.103471994 0.05834747 0.08692569
0.0032087136 -0.11099465 0.03163861 0.10498912 -0.0054269964 0.057127282 -0.042864565 -0.08041045
-0.013695528 0.030571233 0.045730364 0.04358122 0.11516127 -0.019746024 0.11864029 -0.1289562
-0.0073482515 -0.08266669 0.06869339 0.09931673 -0.048880365 0.0504326 -0.1204352 0.048145965
-0.10935914 0.0765087 0.04290667 -0.059756916 -0.018952826 0.08577522 0.13226727 0.10874825
-0.049743664 -0.08114027 -0.10292949 -0.060117222 0.08814705 0.04153399 -0.008993457 0.027433826
0.14464599 -0.013306814 0.06729872 0.23315206 -0.025125308 -0.06121854 -0.07398569 0.0020753327
0.044865973 -0.056897387 0.07270741 0.10808133 0.062251154 -0.048999276 0.061414484 0.016378952
0.07034493 0.13180546 -0.0684667 0.24686776 0.064613305 -0.018187638 -0.044524677 0.0961249
0.12083183 -0.071514904 -0.08877398 0.005365294 0.10985814 0.1413552 -0.017669462 0.13041717
0.06502554 0.0116857 -0.019283766 0.10979912 -0.05754175 0.012735769 -0.08192057 0.01781267
-0.124817446 -0.09960078 -0.065891996 -0.124351054 0.06845404 -0.11045059 0.07203248 -0.01611527
-0.05716055 0.08312337 -0.08450511 0.11474253 0.00062815845 0.111503035 -0.07574993 0.0020717382
-0.060627155 -0.120519094 -0.0019025952 0.060178056 -0.12193149 0.019386217 -0.07995155 -0.015401259
-0.032882065 0.036308825 -0.08280356 0.07778674 0.05779904 -0.030274607 -0.058966056 -0.09416063
-0.07884984 0.11471185 0.07615581 0.052363515 -0.11684972 0.068284824 0.013845682 0.050830066
-0.0049751103 -3.33786e-06 -0.018002883 0.077530265 0.086495936 0.083163306 0.04187797 0.06538996
-0.0011041611 0.016570836 -0.12430518 -0.023964107 -0.105848685 -0.03493783 0.03577566 -0.01557976
-0.15848914 -0.033271294 0.06360123 0.123054735 0.19671722 -0.024479 -0.127553 -0.08650111
0.09082392 0.14494151 0.18806481 0.096231505 0.0030419338 -0.087674014 -0.0035481302 0.11061843

enc.0.bias f4 [40]
00000000: c87e 31bd 966f 48bd b85b ed3b 48cd 283d
00000010: 6e4c bc3d 3843 703d baba 6bbd 7bf6 7cbe
00000020: 1511 62be ab25 e33d 4c1b c23d 04d3 d3bd
00000030: 6af0 4bbe 316a 073c 00bc b63c b0c5 fdbd
00000040: 0c92 553d 5a5d 67bc e926 a0bd 0d94 e4bd
00000050: 4020 00bd bb67 87bd fe60 e0bd 5eaa 42be
00000060: d863 bebd e541 dabd e278 b9bd 7bec 04be
00000070: 62c0 96bd 1c1b 38be e49b e1bc d0ac fcbd
00000080: 91db e0bc eddf ac3d 31bf a4bc 3638 513d
00000090: 48d8 89bd 8ac0 9d3d f752 c3bd a6a4 3abe
-0.0433338 -0.04893454 0.0072435997 0.041211396 0.09194265 0.058657855 -0.057551123 -0.247034
-0.22076829 0.11091169 0.09477863 -0.103429824 -0.1991593 0.008265064 0.022306442 -0.123912215
0.052141234 -0.014121378 -0.078199215 -0.11161051 -0.031280756 -0.06611582 -0.10956 -0.19010302
-0.092963874 -0.106571 -0.0905626 -0.12980835 -0.07360913 -0.17979091 -0.027540155 -0.12337649
-0.027448447 0.08441148 -0.020110698 0.051078998 -0.067307055 0.077027395 -0.09537309 -0.18226871

enc.2.weight f4 [20, 40]
00000000: d99d 11be bee8 c83d 7e21 cc3d 8cf5 0cbe
00000010: 8049 ea3a 00f6 dfbc 1cc0 1a3d 6076 9cbb
00000020: b0e2 ac3c e28d a43d c8be afbc 3a40 dfbd
00000030: 24fa 9dbd 6be4 153e c068 c73b 7507 203e
00000040: a09c e23b 6726 16be f092 7d3d ffd8 0cbe
00000050: eb2d 0d3e e023 583c ec30 163d 106e a5bd
00000060: b2ee bf3d d0b3 3bbc 75d1 90bd e0b5 593d
00000070: f4ff 523d 8ac3 56bd 708e 923d 30ab 1fbd
00000080: 3432 683d aefc 8b3d 5ee4 e13d 39f9 173e
00000090: 94a0 a3bd 0ad7 a73d 988a eabc 2ecd c9bd
000000a0: a84e 633e 760c c1bd 526f b13d 22a4 d33d
000000b0: 3f02 943e 8847 443d b8ec 9bbd cf5c 153e
000000c0: 2fbd 7e3e 967d 9d3d f2ee 18bd e825 e13b
000000d0: 66df 293c 2804 82bd 2ac3 96bd 840a f53d
000000e0: 24f9 9f3c 07fa aa3d 9242 4d3c fa28 0c3e
000000f0: f902 013e 4edd 63be fee2 d4bd f2ff 443d
00000100: 729a 35bd ccfe 5b3e fbf1 143e 0c18 ea3d
00000110: cff8 1fbe de1e 683d 409a 33bd 2afc 15be
00000120: 9803 10be 8734 e6bc 471b 893d 2dd4 703d
00000130: 1a0a cc3d 15bb 2f3c 6329 01be bfdc f4bc
00000140: 47fd 7bbd 6bcd d1bd f6cb bd3c a948 ccbd
00000150: 4bfe 75be 5943 e3bd d10b 17be 8d04 ea3d
00000160: 38cf 483e 0e70 18be 9e68 2ebd 7d43 fdbd
00000170: 8a61 3d3e 6a3d 03be 08a4 bb3d e845 f4bd
00000180: af4f 623e 1421 28bd 2acf 843d 4209 a9bd
00000190: 786e f53c ea75 d23d b91e 403c 3b0a 9b3d
000001a0: 988b 573d 978d 9fbd 3657 f5bd 7321 0d3e
000001b0: a0e9 533d 3813 43bd e8ec b8bd 71fe 6b3c
000001c0: ed86 4b3e 48f3 103e 5bd5 363e 48ed a63d
000001d0: 1668 3fbd 8ecb ddbd 2fda 273e 87a2 f73d
000001e0: 5da4 683e 334f 06be 30de 1bbe 0056 bebc
000001f0: 8540 c93d 4957 133e a447 7d3d 48ff 963d
00000200: 3e48 193e 700b e5bd 8ef1 67bd 4276 f43e
00000210: eed0 3cbe fc58 113e 3e33 a8bd 1399 8ebd
00000220: 417c e33d ee23 fabd 4b03 cbbe f768 b03d
00000230: a843 90bd 0cf0 613e 09c0 bc3d bbd6 013e
00000240: e0ef 92bc 2cf7 cfbc be9b c43d df6e 0dbe
00000250: 7ae9 da3d 4e75 57be 68ce f83c 956d 6c3e
00000260: 23fe 47bd 0a63 a33d d085 e7bd 8394 963c
00000270: 1547 133e 83d1 ea3d 03be e63d e818 a73c
00000280: 1ea3 0fbe ce28 023e ea85 913c c811 c83c
00000290: 21c8 efbd e4bf 9b3d db09 143e 0f26 10be
000002a0: db95 a13c c9dd 8abc f55e 883c bcdf a9bd
000002b0: 4778 5dbb 3b67 bb3d 884e 563d 85d5 0abc
000002c0: cb03 b23d 8c5d 773d 6b31 33be 1aee e8bd
000002d0: 8cc7 1bbe ec5e 17be 345e e33d 5efc cebd
000002e0: 7376 1a3e c0fc 613d 6068 173d 9347 c63d
000002f0: 4891 f0bc f32b 0abe f6f0 be3d e286 e3bd
00000300: 50df af3d 4b89 c23c 7ed4 2e3d eea0 92bc
00000310: bed9 ed3d a2a9 f93d cc4f 88bd 9e6a ba3d
00000320: dd4a 0f3e 3545 f03d ce3e 1c3e d03c a03d
00000330: b110 8fbe 0019 903a 9827 cfbc 33fb b23d
00000340: 0e2c 36bd 63bb 013e 9560 463d 2b72 98be
00000350: b63e eb3d fd7d 8cbc 279b 013e 85e8 a0bc
00000360: a89b 843e 11d4 e03d c8bd 543e 39d8 3c3e
00000370: 9496 80bd fc94 f1bd 41aa 003d df16 0f3e
00000380: d472 b1bd f799 14bd b779 003e e346 6a3c
00000390: 1020 9a3c 0da0 ff3d 9009 bbbc 09c8 f8bc
000003a0: 2926 9d3c 5a91 42bd 679a 28bd 91ed 0d3e
000003b0: 70b7 1c3d 7812 033e c467 903d 5d7b 113e
000003c0: 1552 cb3e 2ff4 653d e69e 54bd 2a8a e63d
000003d0: e379 50be f6a1 06be 927c ee3d 8940 403d
000003e0: 8a03 60bd 3a96 cfbd 75da 11bc 5b0b ff3d
000003f0: 9775 0f3e 0d4e 973d c927 123e fe4f 003e
-0.1422037 0.09810017 0.09967326 -0.13765544 0.0017874688 -0.027338982 0.037780866 -0.0047748536
0.021104187 0.080348745 -0.021453276 -0.10900922 -0.07713726 0.14637916 0.006085485 0.15627845
0.006915644 -0.14663087 0.06190771 -0.13754652 0.13787048 0.013192147 0.03666775 -0.080776334
0.093716994 -0.011456445 -0.07071201 0.053151965 0.051513627 -0.052432574 0.07156074 -0.038981616
0.056688502 0.06835304 0.11029886 0.14841165 -0.07989612 0.08195312 -0.02863054 -0.09853588
0.22197974 -0.09426205 0.08663811 0.1033404 0.28907964 0.04791978 -0.0761351 0.14586185
0.24876855 0.07689969 -0.03733725 0.006870974 0.010368204 -0.06348449 -0.07361443 0.11964896
0.01952798 0.0834847 0.012528079 0.13687506 0.1259879 -0.2225239 -0.10394858 0.04809565
-0.044336744 0.21483916 0.14545433 0.11430368 -0.15622257 0.056670062 -0.043848276 -0.14646974
-0.14063871 -0.028101219 0.06694656 0.058796097 0.09962864 0.010725756 -0.12613444 -0.029890416
-0.06152084 -0.102442585 0.023168545 -0.09974796 -0.24022786 -0.1109683 -0.14750601 0.11426649
0.19610298 -0.14886495 -0.04258024 -0.12366388 0.1849424 -0.12816396 0.09162146 -0.11927396
0.2210071 -0.04104717 0.06484826 -0.08253719 0.029959902 0.102763966 0.011726075 0.07570311
0.05262336 -0.07790678 -0.11979525 0.13782291 0.051736474 -0.04762575 -0.09029561 0.014403925
0.19875689 0.14155304 0.17854826 0.081507266 -0.046730123 -0.108298406 0.16391824 0.120915465
0.2271895 -0.1311615 -0.15221477 -0.023234367 0.09826759 0.14388765 0.0618359 0.0737291
0.14968964 -0.11183822 -0.05662685 0.47746474 -0.18439075 0.14194101 -0.08212899 -0.0696279
0.11107684 -0.12213884 -0.3965095 0.086137705 -0.070441544 0.22064227 0.09216315 0.1267957
-0.017936647 -0.025386415 0.09600018 -0.13811825 0.10689063 -0.21040842 0.03037186 0.23088677
-0.048826348 0.079778746 -0.113048196 0.018381363 0.14382584 0.114657424 0.112667106 0.020397618
-0.14027068 0.12710878 0.01776405 0.024422541 -0.117080934 0.076049596 0.14456885 -0.14077018
0.019724777 -0.016951459 0.016646842 -0.08294627 -0.0033793615 0.09150549 0.052320987 -0.008473759
0.0869213 0.060391948 -0.1749932 -0.11373539 -0.1521284 -0.14782304 0.11101952 -0.10106729
0.15084247 0.05517268 0.036964774 0.096816204 -0.02936615 -0.13493328 0.093233034 -0.11109711
0.08587515 0.023747107 0.042683117 -0.017899003 0.11613797 0.12190558 -0.06655845 0.09102367
0.13993402 0.1173195 0.15258333 0.07824099 -0.27942422 0.0010993779 -0.025287434 0.08739319
-0.044475608 0.12669139 0.04843195 -0.29774603 0.114865705 -0.01714992 0.12656842 -0.019642124
0.25900006 0.109779485 0.20775521 0.18441857 -0.062787205 -0.11795995 0.031412367 0.13973568
-0.0866448 -0.036279645 0.1254643 0.014299127 0.018814117 0.12481699 -0.022831708 -0.030368822
0.019183235 -0.0475019 -0.041162875 0.13860156 0.038260877 0.12800014 0.07051042 0.14207216
0.3971106 0.056141075 -0.05190935 0.112568215 -0.20358996 -0.1314772 0.11644854 0.046936546
-0.054690875 -0.10136075 -0.008902182 0.12453338 0.140097 0.07387934 0.1427299 0.12530515

enc.2.bias f4 [20]
00000000: 81f2 c2bd dd5b 81bd c2e8 9f3d fe7e 96be
00000010: e127 413d c750 4cbd 124a 9abe 7f34 28be
00000020: fcf3 563d c068 15be c4a3 0dbe ac2b 963b
00000030: e139 aebd 95b8 913c 2071 8abd 535b 06be
00000040: f7bb d8bd dfdd 75bd 11ef babd 6051 86bd
-0.0951891 -0.0631635 0.07808067 -0.29393762 0.047157172 -0.049881723 -0.30134636 -0.16426276
0.052478775 -0.1459074 -0.13832003 0.004582843 -0.08507133 0.01778821 -0.06759858 -0.13120775
-0.105827264 -0.060026046 -0.091276295 -0.0655849

enc.4.weight f4 [10, 20]
00000000: a629 21be a42c 5ebe a899 d8bc e258 a4bc
00000010: 9bd2 353e fe50 1cbc 286e 64bd f0d7 6fbd
00000020: 8320 fa3d f866 3abd ec86 e8bd dde8 fa3d
00000030: 58ed 0d3e 2839 64bd 55bb 8bbd 5d7b fb3d
00000040: 153e 513e a238 d0bb ae1f 353d f1bf 1cbe
00000050: 38dd 2d3d 8e35 c33d 88c0 e1bb f7a9 b63e
00000060: e8e3 b9bd 8218 c9bc cc8b a3be b252 44be
00000070: 24ad 073e caa4 45be 0e6d 1d3e 7c85 833e
00000080: d4c9 47be 78bc 73bd 34e1 513d a711 e0bd
00000090: 366a e9bd 043d e6ba f7b0 a83e 47bc edbd
000000a0: be8a 373e e3f1 cb3d c278 643d 6f25 4fbe
000000b0: 9607 083e afd1 62be e802 5cbe 074d 44be
000000c0: df5a 41be 6d62 31be ce6f 28be c995 1abe
000000d0: f452 c23d 857b 8cbc b88f 453e 84fc 68bd
000000e0: 7c74 7fbd 4c56 023e 9726 163e 6a16 01be
000000f0: 4cd5 1d3e 5cff 513e a6a6 603e ab4c 583d
00000100: 37e4 86bd 4281 4e3e 22b6 0a3e 4010 063d
00000110: a8f5 bbbd 7c81 57be 00ea ba3c 73da 36be
00000120: 8ca3 9f3d dd23 4fbe 4055 ac3e e6b3 e0bc
00000130: 9ec1 0dbe fca1 5ebd 9ea4 b43e 8389 62be
00000140: 5867 02bd 454e 13be ad2b e03a 2705 373f
00000150: fcb7 313e ddb3 babd 2f77 c83e 01fc 35bd
00000160: 6e3a 433e ea7e 583e 1fde f53d 3045 df38
00000170: 2a19 233e d94c 2bbd 1c9f 8ebe a72a 6d3d
00000180: 9f23 473e e091 193e 5696 abbd 5e97 a0bb
00000190: 0431 20be dce3 eb3b d628 3ebe c0d4 5cbe
000001a0: 3d5f cabc 5928 21bd 9fef 6e3d dcaa a6bc
000001b0: 4ea2 113e 088b e83d 2213 1dbe 0e54 37be
000001c0: fc2c 58be 2cd9 59bd 5ea8 593e ddf6 8d3d
000001d0: 6bfa 5cbe b207 b0bd 6040 2dbd 1e76 a03d
000001e0: 722c 533e c850 32be 58a5 c7bd 727c 6fbe
000001f0: 2462 233e 0ab7 64bd b793 043e 74b9 983d
00000200: 332f c3b9 1871 b2bc 0cca 503e 14cb 473e
00000210: 9822 24be 2771 06be 1d4d fbbd 1157 efbc
00000220: a945 9a3d 918a 043e fe10 1cbb bd91 2dbe
00000230: 3adb 8ebd 4663 74be 737a 34be 6015 a33d
00000240: 1c8f 083e fdb4 48bd 1420 783d 7e88 0ebe
00000250: 0e58 10be b013 c5bd 0824 0b3e 0aab d0bc
00000260: 6c9b fd3d 35d8 383d 31e8 e73d f408 4fbd
00000270: 585a 8fbc 7a7e dd3d 1a5f 95b9 f2d1 32be
00000280: bc6a a13d 8d31 babd 0aea 5c3e ee14 8abe
00000290: 9b72 f03c f0df 2a3e cd48 1c3d aa59 633a
000002a0: 0157 ecbd 862e 0f3e ca8a fabd 6025 35bd
000002b0: b395 cbbd b1ad 503d d3f2 15bf a235 193e
000002c0: 6734 23be 7a27 063e 0fd6 803e c4c7 1bbe
000002d0: f83d d73d fee1 4a3e ea9b 943d c837 723e
000002e0: c392 4dbd a64f 21bd 4dc2 703e 0b43 383d
000002f0: e32f 5e3e f265 1f3e 6849 83bd 437e 9e3d
00000300: 50af b83d 0123 513e 9a31 a23e a47c 3cbe
00000310: 4471 3fbd 8260 ae3d 1313 79bd a60e 18be
-0.15738544 -0.21696717 -0.026440457 -0.020061914 0.17756121 -0.009540794 -0.055769116 -0.058555543
0.12213232 -0.045508355 -0.11353859 0.122514464 0.1386007 -0.05571857 -0.0682284 0.12279389
0.20433839 -0.0063544074 0.044219665 -0.15307595 0.0424473 0.09531699 -0.0068894066 0.35676548
-0.09076673 -0.024547819 -0.31942594 -0.19172171 0.13249642 -0.19301143 0.15373632 0.25687778
-0.19510585 -0.05950591 0.05124016 -0.10940867 -0.11397211 -0.0017565791 0.32947513 -0.11608177
0.1792402 0.099582456 0.055779226 -0.20229124 0.13284144 -0.221503 -0.21485484 -0.19170009
-0.18882321 -0.17322703 -0.164489 -0.15096201 0.09488478 -0.017148742 0.19293106 -0.056881443
-0.062366948 0.12728232 0.14663158 -0.12606207 0.15413398 0.20507568 0.21938571 0.05280749
-0.06586497 0.20166495 0.1354604 0.03273034 -0.091777146 -0.21045488 0.022816658 -0.1785677
0.07794866 -0.20228525 0.3365879 -0.027429532 -0.1384339 -0.0543537 0.35281843 -0.22122769
-0.031836838 -0.14385326 0.001710286 0.71492237 0.1735534 -0.091163374 0.3915343 -0.044429783
0.19065258 0.21142164 0.12005257 0.00010646356 0.15927568 -0.041821335 -0.27855766 0.057902005
0.19447182 0.14997053 -0.08378284 -0.004900857 -0.15643698 0.007198794 -0.18570265 -0.21565533
-0.024703616 -0.03934512 0.05833399 -0.020345144 0.1422207 0.11354643 -0.1533933 -0.17903158
-0.2111091 -0.053185627 0.21255633 0.06931851 -0.21579902 -0.08595218 -0.04229772 0.07835029
0.20622423 -0.17413628 -0.09748334 -0.23387316 0.15955406 -0.055838622 0.12946974 0.074572474
-0.00037228464 -0.021782443 0.20389575 0.19511062 -0.16028821 -0.13129102 -0.122705676 -0.029216321
0.07532818 0.12943484 -0.002381384 -0.16950126 -0.06975408 -0.23865995 -0.17624836 0.07963061
0.13335842 -0.04900073 0.060577467 -0.13919255 -0.1409609 -0.09622896 0.13587964 -0.025472183
0.1238316 0.045128066 0.11323584 -0.050545648 -0.017499134 0.10815139 -0.0002849035 -0.174629
0.07881686 -0.09091482 0.21573654 -0.26969093 0.029351523 0.16686988 0.038155366 0.0008672724
-0.11540032 0.13982591 -0.12233503 -0.044225097 -0.09940662 0.050946895 -0.58573645 0.14961866
-0.15937959 0.13100997 0.25163314 -0.15212923 0.105098665 0.19812772 0.07256301 0.23654091
-0.05018879 -0.0393826 0.2351162 0.044985812 0.21697955 0.15566233 -0.064104855 0.07738926
0.09017813 0.20423509 0.31678468 -0.18406922 -0.046738878 0.08514501 -0.060809206 -0.14849338

enc.4.bias f4 [10]
00000000: 4c4e a0bd 7e54 353e 5275 70be 787f 75bd
00000010: 001f f73d 1406 263e e7ea 1abd 3f8f f6bd
00000020: 201b 8f3d 3e05 6d3d
-0.07827434 0.17708012 -0.23482254 -0.059936017 0.1206646 0.16213256 -0.037821677 -0.12039041
0.069875956 0.057866327

dec.0.weight f4 [20, 10]
00000000: b552 013c 5df4 8a3d 7f54 6abe 19da 193e
00000010: 272b 753e f6af 523e fc7b 933e 1e37 d83d
00000020: 4de1 b03e 52b8 743e 2081 adbd e2aa a93e
00000030: 2cf5 383e 6d4d ab3e 20a0 6f3d 6e90 0c3e
00000040: b649 fe3d c49d 123e c115 8a3e 0596 9abe
00000050: ab97 b9bd e348 883e 5104 71be 310c a53e
00000060: 91df c33d 1256 d23d 4d48 7abe 5516 2a3e
00000070: ed97 9a3e 6828 a63e e1f7 a3bd 03ac ba3d
00000080: a034 90be 0643 01bf 79c2 30bd 15c3 613e
00000090: f08d 7cbd 4b63 6b3e 3c07 553e e65a a1bc
000000a0: 312e 113d 505d 3abe d672 8f3e c001 f6be
000000b0: 8eb7 083e b7dc 81be cc85 49be 9e0a 85be
000000c0: 7f0c ab3c c1fa 883e 6815 0cbe e14d 053e
000000d0: dc97 36be a62f 813c 84e6 33be babd 873d
000000e0: 8c40 8b3e c09c 803e d358 98bb 5430 1abe
000000f0: 5dce 32be ba17 533d bcca 333e 2211 abbd
00000100: ac25 23be d712 42bd 6ead 8e3e 46c1 48be
00000110: 7249 a33e cce4 843d 8cb4 ad3d 7d2f a0be
00000120: c7f2 18be b029 883d 5442 8bbe caf7 4f3e
00000130: c436 f23d 0037 09bb 7862 f5bd ccfb a4bd
00000140: 013d b73d 4f67 2d3e 9627 93be 32a0 04be
00000150: 9d69 a73e c568 e03d 7ca2 7ebe 60b6 3cbe
00000160: 48db 96be 7644 853e 40cf 403e 4248 cabe
00000170: 8c4f b53d 0fb5 f83e ada6 cd3b f392 ad3d
00000180: 81d6 6a3b 91fc 4bbe 5153 5d3e 2bca 833e
00000190: 6f87 fc3c e90a 973d 49de 08be 4fcf 92bd
000001a0: 01f9 ac3e c46b 913e d4b4 1b3e cc9e 00be
000001b0: 8f5e d83d 87c5 58be d09b ef3d 5a53 bcbd
000001c0: 2e0d 86be 919a 993e f635 5e3e b9e3 913e
000001d0: 20ca 723d bd2e 08be dd71 82be da9a 8abe
000001e0: aa7d b33c b687 97be 79b1 8dbe 80da 23bd
000001f0: 10cd 233e 1d8b 4e3d 0156 31be c6b2 8fbe
00000200: e7dd e23e d5a9 3d3d 71be 803e e63f 8dbe
00000210: 72ff e7bd 4f05 7fbd 51c1 5abe 3cc7 8ebe
00000220: dbbd 6a3d 9114 5fbe 192d aa3c 6976 903e
00000230: 0fc5 09be 38ce 013f 0387 9bbe f3f8 c5be
00000240: fd23 bebe 23de 42be 3ace 763e b916 4abe
00000250: c2fc 513e ed10 c03e c870 69be cd60 753e
00000260: 61c1 95be 46b8 9bbe 2025 af3d fae3 64be
00000270: 56fb 403e 1299 583e 102f cbbe 7565 a63d
00000280: 3f16 c43b 1c6e e93d 7282 633e fa5b b9bc
00000290: 619c 57bd 0f40 64be e1cf 9b3d 0ff9 933e
000002a0: 25e1 7f3e 4a5d 733e 6d4d 14be 78f7 a43d
000002b0: b6c7 4dbe 8070 b43d fa64 0cbe 6566 94be
000002c0: 79ae 5abe 76c2 99be d00b 72bd 2373 34be
000002d0: a042 883c 45f0 bfbd 827f 333e 3afc a2be
000002e0: d424 b3bd ef3b 2cbe 1431 0b3e e35d 9f3e
000002f0: 0792 96be 5a15 6e3e 4502 42be 3e24 373e
00000300: 508d 143e 8eb5 f3be 0a9f 663e 5828 60be
00000310: 01a8 173e bd6d 81be b1c1 8e3e 0916 88bc
0.007893254 0.0678489 -0.22883795 0.15024604 0.23942243 0.20574936 0.2880553 0.10557388
0.3454689 0.23898438 -0.08471894 0.33138186 0.18062276 0.3345751 0.058502316 0.1372697
0.12416403 0.14317995 0.26969722 -0.3019258 -0.090621315 0.26618108 -0.23536803 0.32235864
0.09564126 0.10270323 -0.24441643 0.16610081 0.30194035 0.32452703 -0.080062635 0.0911484
-0.2816515 -0.50492895 -0.043154214 0.22047074 -0.0616588 0.22987096 0.20803541 -0.019696664
0.035444442 -0.18199658 0.280173 -0.4804821 0.1335127 -0.25363705 -0.19679946 -0.25984663
0.020879982 0.2675381 -0.13680041 0.1301799 -0.17831367 0.01576979 -0.17568403 0.06627984
0.27197683 0.2511959 -0.0046492605 -0.15057498 -0.17461534 0.0515363 0.17557806 -0.08352877
-0.1593234 -0.04738125 0.2786669 -0.19604978 0.31891972 0.06488952 0.08481702 -0.3128623
-0.14936362 0.06648576 -0.27199042 0.20309368 0.11826852 -0.0020937324 -0.11981672 -0.08055839
0.089471824 0.1693394 -0.2874114 -0.12951735 0.32697764 0.10957483 -0.2486667 -0.18428946
-0.29464173 0.26028794 0.1882906 -0.39508253 0.08853063 0.48575637 0.006275973 0.08475294
0.003583342 -0.19920565 0.21613814 0.2574018 0.030826299 0.07375128 -0.13366045 -0.07168447
0.33783725 0.2840253 0.15205699 -0.12560576 0.105649106 -0.211691 0.11699641 -0.091955855
-0.2618193 0.30000737 0.21700272 0.2849405 0.059274793 -0.13299079 -0.25477496 -0.27071267
0.021910507 -0.29595727 -0.27674463 -0.0400033 0.15996194 0.050425638 -0.17317964 -0.2806608
0.44309923 0.046304543 0.25145295 -0.27587813 -0.11328019 -0.062260922 -0.21362807 -0.2788638
0.057309967 -0.21785189 0.020773457 0.2821534 -0.13454078 0.5070529 -0.30376443 -0.38666496
-0.37136832 -0.19030051 0.24102107 -0.1973523 0.20506576 0.37512913 -0.22796929 0.23962708
-0.292491 -0.30414027 0.08552003 -0.22352591 0.18845877 0.21152142 -0.39684343 0.0812482
0.0059840973 0.11397955 0.2221773 -0.022626866 -0.05263937 -0.22290061 0.07608009 0.28900954
0.2498823 0.23766056 -0.1448266 0.080550134 -0.20095715 0.0881052 -0.13710395 -0.2898437
-0.21355619 -0.30031174 -0.059093297 -0.17622046 0.016633332 -0.09372 0.17529109 -0.3183306
-0.08747259 -0.16819738 0.1359294 0.31126317 -0.29408285 0.23250332 -0.18946178 0.17884919
0.14507031 -0.47599453 0.22521606 -0.2189039 0.14810182 -0.25279036 0.2788215 -0.01661207

dec.0.bias f4 [20]
00000000: 2041 94be 7bda 3b3e 5802 1d3e ad61 9c3e
00000010: 6686 6e3e 10a3 953e 21e5 133c 231e 88be
00000020: ddfe 5b3e 2d11 ee3d 9acf 203e 8e29 a6bd
00000030: 04b6 fd3d ffd8 073e 047c aabd d57f 7abe
00000040: 5e63 06bd a45c b8bd c97c 62be 6160 963d
-0.28955936 0.18345062 0.15332925 0.3054327 0.23293456 0.2922597 0.009026797 -0.26585492
0.21483941 0.1162437 0.15704194 -0.08113395 0.12388232 0.13266371 -0.08324435 -0.24462827
-0.032809608 -0.09002045 -0.22117914 0.073426016

dec.2.weight f4 [40, 20]
00000000: 0cc7 4e3e d92b 9fbd 772d c53d 70b0 4a3e
00000010: 0da8 8d3c 4321 b1bd 0939 bd3d be1b 5f3e
00000020: 52f9 333e 3e0d 693d 44c6 623e 7ca1 973d
00000030: d2fc 643d b765 a13d 019f 99be af82 1dbe
00000040: 03ae 5a3e 90fa 0f3c ee00 43bd 0f36 fd3d
00000050: 08ed e13d fb75 91bc c899 353e 3594 e1bd
00000060: 44fe e43d ef42 ecb8 eaf2 3a3e c6d8 453e
00000070: c4d7 2e3e c350 f93d 6a01 5dbe d256 2a3e
00000080: 1cff 183e 1f99 ad3c af23 883e 21ba d23c
00000090: 7a1c 4b3d 5b5a 32be dd93 a83d c634 d43d
000000a0: 0b17 ecbd 43aa cdbd 2c2d 99bd d242 283c
000000b0: 611a 3cbe ae81 4e3e 52d4 37be dc82 1a3e
000000c0: 58b5 65be c59f 42be 56b3 bf3d fcdd f43d
000000d0: 6963 413e 53bd 603e 1845 d5bd 8a3b 2b3e
000000e0: 0b10 53be b4a6 4dbe 7aa2 aebd ce5a c43d
000000f0: f0f8 ae3d dc32 63be dab2 37be 9fae d53d
00000100: c976 16be 1dc6 1a3e d2cd a33d 4096 a9bc
00000110: bf47 18be bcf5 8fbd 22aa 27be a0d7 86bc
00000120: c28d 02be 9736 a9bc 68ef 4d3d eb69 f3bd
00000130: 9db7 293e 5871 9b3d 248a 47be aafc f5bd
00000140: cc9b a9bd ea6f c83d 3a09 4ebe 6f49 1a3e
00000150: f8c2 69be ad95 e0bd 0679 dfbd 947d bc3d
00000160: 5382 e33c 47a6 153e 23ea 90bd 499d 14be
00000170: cfde abbd c82d 843b d055 583d ec43 d43d
00000180: 0571 83bd a2e9 94bd 1966 3bbe 06c5 2bbe
00000190: 6032 f53d 59ea abbe 2138 623e e001 c43d
000001a0: 9e3e 8d3d b8ae ce3c e756 8fbc 5647 ffbd
000001b0: 7841 a1bd e32f 54be 3a0a 253e 50b5 1d3d
000001c0: 7652 d23d f918 e83d 3c7c c0bd f3bb a63d
000001d0: 9bc3 f03c 9049 65bd fcd1 133d a997 823c
000001e0: 4850 993e 7c52 84bc 6280 6c3e a144 88be
000001f0: 8d59 543c 75ad 193d a20c 23be a680 0a3e
00000200: 1dbc ca3d b5ef 3e3d a39c 1b3e 0051 793c
00000210: 0e65 b7bd bd07 a23d 6af6 4abe a345 b9bc
00000220: b038 773d 002e 15be 3e94 81bd 5859 c13d
00000230: b7a8 febd 90ca 703c 339f febd 60a7 68bc
00000240: 6ec8 9fbd e022 2c3c 7042 493d e0f5 7fbd
00000250: a814 453e 351b 51be 5f34 2bbe 30a2 d73d
00000260: 8cb5 b23d b4ee 34be 0462 a2bd b4cd 8e3d
00000270: 30f4 74bc 2011 3d3d cc9a 313e dabb 4a3e
00000280: fb0a 91bd d9f8 8fbe 7aea 8a3e 8117 a43d
00000290: 652d 6e3d a288 94bd caf1 5dbe 36f5 623e
000002a0: d098 ac3e c108 a63d f00f 783e 6813 cf3d
000002b0: 4903 2ebe 9bc7 22bd 50f4 333c cee2 eb3d
000002c0: 05e5 ee3d 8e4a 3f3e 385b 073e 3710 013e
000002d0: 9410 e73d ee49 babd 8948 ec3d 2171 1cbd
000002e0: 9d49 463e df72 0e3e 33ea 13be e6f1 17be
000002f0: cd90 243d 0db7 583d 483b 4d3e 8ca6 4cbd
00000300: c272 8d3e 35a3 0f3e fbd0 11be a972 3ebe
00000310: 2562 85bd 20de 953d 4317 e2bd 0490 2b3e
00000320: 46f3 0f3e 3ad1 0bbe 00fe ffbc 5e1f 16be
00000330: 6447 d9bd 00b5 4c3e 401d e13d 8664 533e
00000340: 8067 9e3d 1449 92bd ddab f0bd 8092 d2bb
00000350: 566a 153e 00d0 9bbc 9ced 68bd f0ce 5e3d
00000360: ec3c e0bd 808b b43b 725c 293e 9c25 873d
00000370: 90d3 e43c d9f9 35bd 84d7 43be c6df 1c3e
00000380: f9df 2bbe 3acc 42be 0f0b 8dbc 68a5 d03d
00000390: efc6 153e 892b 82bd e487 1bbe f9aa 51be
000003a0: 02bf 67be 9053 bd3c 903c b9bc d9c4 3dbe
000003b0: 53a1 e2bd 1807 02be 685c d8bc 7327 ffbd
000003c0: e0f6 0e3e 5719 a73d 79bb 8f3e 5ec6 833e
000003d0: 5028 18be d438 be3d 0712 b13e 2e81 01be
000003e0: d344 ef3d 4b8e 1ebe c872 9bbe 4c64 613e
000003f0: f8a7 0ebe 5faa 82be bede 023f 1e00 3db8
0.20193118 -0.07772035 0.09627812 0.19793868 0.017292047 -0.08648922 0.09239394 0.21787927
0.17575577 0.056897394 0.22145945 0.074038476 0.05590517 0.07880729 -0.30004123 -0.15381883
0.21355443 0.008787766 -0.04760831 0.123638265 0.11031538 -0.017756453 0.17734444 -0.110145964
0.1118131 -0.00011265824 0.18256727 0.19320974 0.17074496 0.12173607 -0.2158257 0.16634682
0.14941067 0.021191178 0.26589724 0.025723519 0.049587704 -0.1741728 0.08231328 0.10361628
-0.115278326 -0.100422405 -0.07479319 0.010269837 -0.18369438 0.20166656 -0.17952088 0.15088981
-0.22432458 -0.1900626 0.093603775 0.11956403 0.18885578 0.21947221 -0.10413569 0.16721931
-0.20611589 -0.20083123 -0.08527084 0.09587632 0.08543575 -0.2218737 -0.1793932 0.10433697
-0.1469375 0.15114637 0.079982415 -0.020701528 -0.14871119 -0.07029292 -0.16373494 -0.01646024
-0.12749389 -0.020655913 0.050277144 -0.118854366 0.16573949 0.07589978 -0.1948629 -0.120110825
-0.08281669 0.09786971 -0.20120707 0.15067075 -0.22828281 -0.109660484 -0.10911755 0.092036396
0.027772104 0.14614211 -0.07075908 -0.14513125 -0.08392107 0.004033778 0.052816212 0.103645176
-0.06418041 -0.072711244 -0.18300666 -0.16774377 0.11972499 -0.3357723 0.22091724 0.0957067
0.06896709 0.025229797 -0.017497493 -0.12464778 -0.07873815 -0.20721392 0.16117182 0.03850299
0.102696344 0.11332888 -0.09398696 0.08141317 0.029390147 -0.055978358 0.03608893 0.015941458
0.29944062 -0.016152613 0.23095849 -0.2661486 0.012960804 0.037518937 -0.15922788 0.13525638
0.09899161 0.04661532 0.15196471 0.015217066 -0.089548215 0.07911632 -0.19820562 -0.022616213
0.060356796 -0.14568329 -0.06327103 0.09440869 -0.124345236 0.014696732 -0.124327086 -0.014200062
-0.07801901 0.010506362 0.049135625 -0.062490344 0.19246161 -0.20420535 -0.16719197 0.10528982
0.087260336 -0.17669183 -0.07928851 0.069728285 -0.014950797 0.04615891 0.17344207 0.19798222
-0.070821725 -0.28119543 0.27132016 0.080122955 0.05814876 -0.07252623 -0.21674266 0.22163853
0.33710337 0.081071384 0.2422483 0.10111123 -0.1699344 -0.03974114 0.010983542 0.11517869
0.11664776 0.18680784 0.13218391 0.12603842 0.11282459 -0.09096132 0.115372725 -0.038193826
0.19364019 0.13911007 -0.14444809 -0.1483837 0.040177155 0.052908946 0.20042145 -0.04996352
0.27626616 0.14027102 -0.14239876 -0.18598427 -0.0651286 0.073177576 -0.11039593 0.16754156
0.14057645 -0.13654032 -0.031249046 -0.14660403 -0.1060932 0.19990921 0.10991907 0.20643815
0.07734585 -0.07142845 -0.1175153 -0.0064261556 0.14591345 -0.01902008 -0.056867227 0.05439657
-0.1094912 0.0055097938 0.16539171 0.0659897 0.027932912 -0.044427726 -0.19125181 0.15319738
-0.16784658 -0.19023219 -0.017217187 0.10187799 0.14626668 -0.0635596 -0.15188557 -0.20475377
-0.22631457 0.023111135 -0.022611886 -0.18532123 -0.110659264 -0.12698019 -0.02641125 -0.12458696
0.13961363 0.0815913 0.28072718 0.2573728 -0.14859128 0.09288183 0.34584066 -0.12646934
0.11683049 -0.15483968 -0.3036101 0.22010916 -0.13931262 -0.25520608 0.5112113 -4.506122e-05

dec.2.bias f4 [40]
00000000: 4cdc 043e 497a 073e a882 583e 9b73 013e
00000010: 9bc4 103e 3520 693e 8887 1fbe 0be4 64be
00000020: 43c3 73be bf09 56bd a8c7 0ebe f8ab 3f3e
00000030: 23da 53be 447a 8fbd 8914 a63d d5ec 963c
00000040: 26ff 42be f9cf 603d 3362 4abd cefe 2e3e
00000050: 5fae 9c3d 096a 813d 60b0 b1bd 0874 343c
00000060: 9213 d0bd 6ee7 86bd 3893 183e 840e b13d
00000070: 4eea 51be 675e 913e 0414 233e 2eab 863b
00000080: 5cd3 a0be e1a5 2c3e f137 cabc 3145 903d
00000090: 7150 94bc 92b1 52be 7efa e03d e435 b93d
0.12974662 0.13230242 0.21143591 0.12641756 0.14137499 0.22766192 -0.15579045 -0.22352616
-0.23804955 -0.05225539 -0.1394335 0.18717945 -0.20688681 -0.07005742 0.081093855 0.018423477
-0.19042644 0.05488584 -0.049410056 0.17089388 0.07650446 0.06319053 -0.08676219 0.011013992
-0.10159983 -0.065871105 0.1489991 0.08645347 -0.20499536 0.28392336 0.15925604 0.0041097617
-0.31411254 0.16860153 -0.024684878 0.07044447 -0.018104764 -0.2057555 0.109852776 0.09043482

dec.4.weight f4 [60, 40]
00000000: 0b40 523e e036 f63c d11d b53d 81d6 853c
00000010: a190 f4bd a4a1 cbbc 7c7a be3d d161 043e
00000020: f648 e03d 351c 853e 70d7 cb3c 2f4e f6bd
00000030: 5491 e0bd 40ad b43b 404d cc3b 60ac 093e
00000040: 1aa8 1dbe f9a2 b23a 2492 e93d 5914 623d
00000050: ac94 053e 01d1 193e af50 bfbd 4d77 06be
00000060: 3207 cd3d 402b afbd bca5 e13d 09ec 993d
00000070: e71e 82bd 6e3c 443e ae1b 003c d812 c73d
00000080: 6eca dd3b ec49 743e 96db 363d 0672 673d
00000090: f87f 4f3d 70bd 48bc bedb 3f3e 7779 4e3e
000000a0: 1531 223e 92cf 363e b3f9 09be d478 eebd
000000b0: 01dc 763c 4170 523d ca28 143e 28c3 9bbd
000000c0: efd8 4fbd 218d 723d b05f c83c 2edc 1cbd
000000d0: 4898 803d 73b3 a9bd 5d85 40bd 9bf5 a73d
000000e0: 706c 2cbd c538 ed3c 9880 c3bc 53ba b53d
000000f0: c51f f1bd 4ea5 413e 86a1 c83d fabf be3d
00000100: d400 713d 6861 913c 1553 153e f405 403d
00000110: 1f50 d5bd c399 2d3d 6a97 f63d 604c 823e
00000120: bfb4 adbd 3091 833e 7898 563e d1f0 753d
00000130: d15e 7fbd 803b beba e765 033e d10f 333e
00000140: 3f53 f43c 59d5 243d c076 a73d a811 ae3d
00000150: 7d8f 04be 7ca2 90bd 1ac6 ac3d 889b aa3d
00000160: d6eb 7dbd 6b57 a13c 125a 45bd 23ef 9dbd
00000170: b628 ce3d 1090 7cbc 4376 89bd 6e72 2c3e
00000180: 8423 553d 88fe e53d 51e7 6e3d 19b3 1c3e
00000190: dc32 dc3c 04db 293c 7ce6 433d a95d 213e
000001a0: fb1e 01be 8087 313d a37e 22bd 2c80 0a3e
000001b0: 8894 aa3d a1c6 94bd 84d1 703b dd56 bd3e
000001c0: 49b9 00be e6d7 c63d 8ed9 4f3d b133 113e
000001d0: 4fae bfbd ae4e 953d e3e2 c7bc 7df2 a5bb
000001e0: 7a32 253e 9797 173e 0fc9 fa3b 6fd3 a1bd
000001f0: 6da5 cebd 80b2 523e 7044 9bbd 20f3 903d
00000200: e212 063d 19e9 813b 7c3a 553d e563 e1bd
00000210: d0cd 903e 255b d3bd b212 693c 7f74 df3c
00000220: b21c a83d 0f05 1b3e a664 95bc f916 3f3e
00000230: 74fd d33c e903 133e 04c6 24bd 0859 103d
00000240: f023 39bd e7bc 1c3e 5ada f03d 6153 1b3d
00000250: a2bf 8c3d 00a5 9c3d c156 0b3e 7d5a 533d
00000260: 92b3 7abd dc14 023e d1f1 70bc 6e2c 6a3d
00000270: 26d1 2d3d 5bd6 1fbe 2e18 7abd 9d7d cdbc
00000280: 8bed aebd 6020 4e3e 6f9b dd3c 4874 93bd
00000290: 9945 463c 9163 1d3e f2f4 373e 1183 11be
000002a0: f552 993e 3576 94bd ac9f ecbd 0493 033d
000002b0: ae33 443e c9e0 203e e946 203d 796b c63b
000002c0: 5239 d43d 4f84 933d 8b14 48bd 8986 d33d
000002d0: aaeb c7bd c35f 93bd f656 ed3d 8013 19bc
000002e0: 289f 403d c489 02be 3eb7 3cbb a0b6 abbd
000002f0: fb9d 263e 90c0 333e 5ee6 273e f88e 6dbe
00000300: ce73 933e c261 b2bd 851e b6bc b289 c23d
00000310: d617 593e d457 c4bd b121 e03d 4a84 a93d
00000320: a28d abba 8666 433e b406 f03d dca3 51bc
00000330: 2258 313b b89b 6a3e 8119 7c3e 5bfa 0c3e
00000340: 25c4 023e 4354 c93c c118 0fbe 8530 1b3e
00000350: 68db f3bd 088c 0bbe 8468 633d 1744 81bd
00000360: 48b6 2c3d fa97 62bd 39ff 0b3d 7d54 393e
00000370: 5f51 cbbb 1b14 863d cf15 1e3e a6b5 cd3d
00000380: 363f b23d 287a a33d a7c9 ec3d be9c 7fbb
00000390: 0d1c 103e ea7d c33d 8581 9e3d 98d1 48be
000003a0: fc27 003e 39ce 35bd c700 4b3e d092 223d
000003b0: bb9d 5b3d ac5f 29bd 9dfa 1cbd 5bc5 dd3d
000003c0: b74c 833e 677d 153e 38b4 403c fe71 f03c
000003d0: 6224 2f3d 19e8 06bd 23c2 c63d 8b7f efbd
000003e0: ddf7 983c 7a19 4e3e a651 e53d 4f88 013e
000003f0: 047e cbbd 3a94 8d3d bd65 1e3e a25b da3d
0.20532243 0.030055463 0.08843578 0.016337635 -0.11941648 -0.02485735 0.09300706 0.12927939
0.10951416 0.25998083 0.024883002 -0.12026631 -0.10965219 0.005513817 0.006234795 0.13444662
-0.15396157 0.0013628892 0.11404827 0.055195186 0.13044995 0.15021135 -0.09341561 -0.13131447
0.10011138 -0.08553171 0.110179394 0.07515723 -0.063535504 0.19163677 0.007819099 0.09720391
0.0067685163 0.23856324 0.044643007 0.056505226 0.05065915 -0.012252197 0.18736169 0.20163523
0.15839036 0.1785262 -0.13474159 -0.1164414 0.015067101 0.051376585 0.14468685 -0.076055825
-0.050743993 0.059216622 0.02445969 -0.038295917 0.06279045 -0.0828618 -0.047002185 0.082011424
-0.0420956 0.028957734 -0.02386503 0.08873429 -0.11773638 0.18910715 0.09796433 0.093139604
0.05883868 0.017746642 0.14582475 0.046880677 -0.104156725 0.042382967 0.12040599 0.25448895
-0.0848174 0.25696707 0.209566 0.060044114 -0.062346283 -0.0014513582 0.12831841 0.17486502
0.029824851 0.040242527 0.08176947 0.084994614 -0.12945361 -0.070622414 0.084362224 0.083304465
-0.06199249 0.019695004 -0.0481816 -0.07711627 0.10066359 -0.015415207 -0.0671201 0.16840526
0.052035823 0.112301886 0.05832607 0.15302695 0.02687972 0.010367159 0.04782723 0.15758385
-0.12609474 0.043342113 -0.03967155 0.13525456 0.08329111 -0.07264448 0.0036745975 0.36980334
-0.1257068 0.09709148 0.050744586 0.14179875 -0.093594186 0.072903976 -0.02440018 -0.0050643072
0.16132537 0.1480392 0.0076533626 -0.07901656 -0.10090146 0.20575905 -0.07581413 0.070776224
0.03273285 0.003964555 0.05205773 -0.110053815 0.28282022 -0.10320119 0.014225649 0.02727723
0.08208598 0.15138648 -0.01823647 0.18661107 0.025877692 0.1435696 -0.040227905 0.035241157
-0.04520029 0.15306436 0.11760397 0.037921313 0.068724886 0.07648659 0.13607313 0.05159997
-0.061206408 0.1270327 -0.014706091 0.057171278 0.042435788 -0.15609114 -0.061058216 -0.025084311
-0.085414015 0.20129538 0.027051656 -0.07199913 0.012101554 0.15370013 0.17964533 -0.14210154
0.29946104 -0.07249109 -0.115538925 0.032122627 0.19160339 0.15710749 0.039130125 0.006055292
0.103624955 0.0720297 -0.048847716 0.10328395 -0.09761746 -0.071959995 0.11588852 -0.009343028
0.047026783 -0.12747866 -0.0028795744 -0.08384442 0.16271202 0.17553926 0.16396472 -0.2319907
0.2879929 -0.08710052 -0.02223135 0.094989195 0.21200499 -0.095870644 0.10943926 0.08277185
-0.0013088475 0.19082078 0.117200285 -0.012795415 0.0027060588 0.22910964 0.24619104 0.13767378
0.12770136 0.024576312 -0.13974287 0.15155227 -0.11907083 -0.13627636 0.055519596 -0.06311815
0.042166024 -0.055320717 0.034178946 0.18098636 -0.0062047685 0.065468036 0.15438007 0.10044412
0.08703463 0.07982284 0.115619 -0.0039003338 0.140732 0.095455006 0.07739548 -0.19611204
0.12515253 -0.044386122 0.19824515 0.039690793 0.05361722 -0.041351005 -0.03832494 0.10828658
0.25644466 0.14598618 0.0117617175 0.02935123 0.042759307 -0.03293619 0.097049974 -0.11694249
0.018672878 0.20126906 0.11197214 0.12649654 -0.09936145 0.069130376 0.15468498 0.10662009

dec.4.bias f4 [60]
00000000: 2dc7 aa3d 2de9 80bd 8514 443e 6bf4 d5bc
00000010: a809 923d a056 2f3e f167 2c3e ba56 4e3c
00000020: bdd5 0e3e 96d4 ca3c 9eb3 b93d f29b 773e
00000030: 370d 6b3e 9b0a 9b3a 0c1c bdbb 78bd 243d
00000040: 9e16 9b3d 54ab 683e f6d4 213e 0363 ed3d
00000050: d0c0 123c bbe2 dc3d 329f 293e 550a e13d
00000060: b7a9 293b 538f 253e 0daf 483e f8a1 f0ba
00000070: 8576 6b3e bc68 be3d dd35 8fbd aed9 313d
00000080: 5c3f 803e bbdb 173e 90c0 353e 7737 0abd
00000090: c2d5 30bd e81c 513e e522 ad3d da70 b4bd
000000a0: fdc3 efbd 71bf 0e3e c500 b33b b7ab 59bd
000000b0: 8fd4 b93d 29d4 323c 95ba 5c3e 906e 21bd
000000c0: c983 5e3e 84fb 1a3c 0586 9f3d e9af b6bd
000000d0: b331 933d 9d01 bfbb 7839 be3d cb6f c83c
000000e0: 2a60 aebb 92e5 ba3d 7d82 b33d 2383 463d
0.08338771 -0.06294475 0.19148453 -0.026117524 0.07130748 0.17122889 0.16836525 0.012593919
0.13948722 0.024759572 0.090674624 0.24180582 0.2295426 0.0011828722 -0.0057711657 0.040219754
0.07572673 0.22721606 0.15803894 0.115911506 0.008957103 0.10785433 0.16564634 0.10988299
0.0025888511 0.16167955 0.19598027 -0.0018358817 0.2299443 0.0929732 -0.069926955 0.043420486
0.2504834 0.14829914 0.17749238 -0.0337443 -0.043172605 0.20421183 0.08453921 -0.08810587
-0.11707304 0.13940217 0.005462738 -0.053142276 0.090737455 0.010914841 0.2155555 -0.03941208
0.2172996 0.00945938 0.07789234 -0.08920271 0.07187214 -0.0058290497 0.09288305 0.02446737
-0.0053215222 0.09125818 0.08765123 0.048464905
