Models/artifact_5/lstm_ae.pt (torch, 340352 bytes, 14 tensors)

encoder.weight_ih_l0 f4 [288, 60]
-0.052598905 0.044267837 -0.003170626 -0.034059584 -0.07102088 -0.07159601 0.040534414 0.04137612
-0.018309968 0.037867498 -0.08750701 -0.04232866 0.037328668 0.016579363 0.052219257 -0.005929714
-0.007861198 0.025734728 0.041856624 0.0030233513 -0.012853466 -0.08979985 -0.09356605 -0.08392114
-0.02952732 0.06164607 -0.04920242 0.059671894 0.009101446 -0.10608903 -0.10040649 0.029057644
-0.10079783 -0.056790043 0.033176802 -0.0941086 -0.07765376 0.033937618 -0.084104665 -0.0814674
-0.032841023 0.029200822 -0.016410626 0.048082445 -0.07658693 -0.003472982 -0.07660723 0.058603473
0.023558894 -0.094852015 -0.0037791126 0.013758433 0.01636668 0.029082257 -0.06584698 -0.074890554
-0.022876315 -0.0628501 -0.029538257 -0.08072276 0.080993354 0.00222225 -0.0218684 0.08091657
0.08774754 0.01835158 -0.013019821 0.0072055217 -0.033307537 0.07758754 0.077567086 0.055388022
0.050140843 -0.048016272 0.006624799 0.0067113503 0.034951676 0.019540269 0.060631808 -0.0031849344
0.017844902 0.02732191 -0.0018903317 -0.08640484 0.1135761 0.06215248 0.059314173 0.03716841
0.014047504 0.05784749 0.104391254 -0.037613988 0.01874656 0.037968133 0.07713309 -0.02165761
0.055088237 -0.014371717 0.040995885 0.030588089 -0.029527813 0.016290931 0.0031726987 -0.008451649
0.044667404 0.008121952 0.054942727 -0.043430522 -0.049456354 -0.07438491 -0.01724729 0.107812315
0.015273322 -0.061562035 -0.025864858 0.02780675 0.026514191 -0.018501312 0.053209014 -0.028383948
0.023815952 -0.061135028 -0.000838098 -0.021076465 0.079825036 0.013863292 -0.03820863 0.052714277
-0.04764987 -0.04969678 -0.016133152 -0.019240435 -0.06328952 0.008423709 -0.029388454 -0.026839714
-0.03156037 -0.03753473 0.08378723 0.05480279 0.09490882 -0.022296352 0.083885655 0.05900763
0.07532677 0.08656436 -0.0050098426 0.089345776 0.06676207 -0.013876163 0.03681914 0.030504497
0.089473374 0.07110407 0.053715084 0.053701874 -0.019255916 -0.05439316 0.016943388 -0.040220115
-0.0701047 0.095020354 -0.056179374 -0.0438764 0.0206755 -0.019478105 0.047325484 -0.030880235
0.07584011 0.01604655 -0.04352649 0.07656086 0.034882657 -0.03702646 -0.04250578 0.06520398
-0.0728744 0.06625112 0.07108863 -0.06625235 0.03433542 -0.025571076 0.06076106 0.03123455
0.024743013 0.032359455 -0.05734458 0.06580376 0.074710794 0.0011633392 -0.0830175 -0.018068839
-0.039752327 0.02026308 0.008831796 0.076931894 0.08725405 0.06896507 -0.05496864 0.0861981
0.009838894 0.024852347 -0.028901521 0.0072346292 -0.08394388 -0.049422532 -0.018737294 -0.017104428
-0.034670144 0.036457203 -0.045792457 0.055361245 0.07904219 -0.053856116 0.06658266 0.027241947
0.012083432 0.011893932 -0.005334303 -0.08392041 -0.052574776 0.011536585 0.034421645 -0.04115316
0.0015352005 -0.040544786 0.031415395 0.022446495 0.054617982 -0.027910652 -0.051419783 -0.08350376
0.04685212 0.07609425 0.010968888 -0.06996764 -0.035431966 0.03680504 0.08208028 0.08543117
0.1050686 0.0067092795 -0.005860944 0.06756262 0.028952168 0.095504805 0.081901774 -0.044215184
0.03685458 0.040758003 0.0006704975 -0.04557629 -0.04027722 -0.008992454 -0.0046718153 0.0023736442
00000000: f371 57bd 3152 353d 47ca 4fbb 1082 0bbd
00000010: 6573 91bd eea0 92bd 6a07 263d 027a 293d
00000020: c9fe 95bc f31a 1b3d e036 b3bd d160 2dbd
00000030: f2e5 183d 72d1 873c dce3 553d 0c4e c2bb
00000040: 41cc 00bc a3d1 d23c da71 2b3d 6b23 463b
00000050: 5897 52bc fce8 b7bd 8f9f bfbd d9de abbd
00000060: 47e3 f1bc 9780 7c3d 7a88 49bd 846a 743d
00000070: 3b1e 153c 3545 d9bd eba1 cdbd 4c0a ee3c
00000080: 186f cebd ad9c 68bd 66e4 073d 02bc c0bd
00000090: ef08 9fbd 2c02 0b3d 113f acbd 61d8 a6bd
000000a0: 4f84 06bd 9036 ef3c 946f 86bc 19f2 443d
000000b0: 9cd9 9cbd f89a 63bb 40e4 9cbd 320a 703d
000000c0: 95fe c03c c641 c2bd fdaa 77bb 0d6b 613c
000000d0: 6a13 863c ea3d ee3c c8da 86bd 3860 99bd
000000e0: 1c67 bbbc 8eb7 80bd 37fa f1bc f951 a5bd
000000f0: d8df a53d 2ba3 113b 5c25 b3bc 96b7 a53d
00000100: fbb4 b33d 0d56 963c 1651 55bc 4c1c ec3b
00000110: 7c6d 08bd 37e6 9e3d 7edb 9e3d 8dde 623d
00000120: 7c60 4d3d b6ac 44bd d814 d93b e3ea db3b
00000130: 7d29 0f3d ea12 a03c 0f59 783d 55ba 50bb
00000140: 792f 923c 33d2 df3c 02c5 f7ba 05f5 b0bd
00000150: 969a e83d 9993 7e3d 6bf3 723d e73d 183d
00000160: 8127 663c 7df1 6c3d 15cb d53d 2011 1abd
00000170: 6392 993c 7984 1b3d f4f7 9d3d 4d6b b1bc
00000180: 34a4 613d 5a77 6bbc 4deb 273d df93 fa3c
00000190: 50e4 f1bc 8f74 853c 0ded 4f3b c978 0abc
000001a0: 2bf5 363d f011 053c a00b 613d 34e4 31bd
000001b0: bf92 4abd 1e57 98bd 304a 8dbc b4cc dc3d
000001c0: f53c 7a3c 7928 7cbd 8ae2 d3bc fbca e33c
000001d0: 4a34 d93c 1090 97bc b2f1 593d 7485 e8bc
000001e0: ac19 c33c b968 7abd ceb3 5bba 8da8 acbc
000001f0: 4f7b a33d dc22 633c a780 1cbd edea 573d
00000200: 832c 43bd da8e 4bbd ac29 84bc 1e9e 9dbc
00000210: f09d 81bd 9903 0a3c 0ec0 f0bc f6de dbbc
00000220: 7245 01bd 04be 19bd a498 ab3d e478 603d
00000230: 8e5f c23d d7a6 b6bc 3ecc ab3d fcb1 713d
00000240: ec44 9a3d a848 b13d 9b29 a4bb ebfa b63d
00000250: 8dba 883d d958 63bc abcf 163d 91e4 f93c
00000260: d13d b73d 039f 913d 5904 5c3d 7ff6 5b3d
00000270: 95be 9dbc 5dcb 5ebd dccc 8a3c d9bd 24bd
00000280: 0e93 8fbd 089a c23d 581c 66bd bdb7 33bd
00000290: ab5f a93c 8c90 9fbc 5ed8 413d 8cf8 fcbc
000002a0: 0f52 9b3d 0e74 833c d548 32bd f1cb 9c3d
000002b0: 1ee1 0e3d 0fa9 17bd 8a1a 2ebd aa89 853d
000002c0: 2c3f 95bd abae 873d ea96 913d 50af 87bd
000002d0: 4ca3 0c3d 6f7a d1bc 97e0 783d 99df ff3c
000002e0: dcb1 ca3c 598b 043d 26e2 6abd 1fc4 863d
000002f0: f901 993d 307b 983a 1405 aabd 1a05 94bc
00000300: 56d3 22bd c2fe a53c 3db3 103c 788e 9d3d
00000310: 40b2 b23d 8f3d 8d3d cc26 61bd a188 b03d
00000320: 5033 213c 2697 cb3c e2c2 ecbc 7810 ed3b
00000330: c5ea abbd 486f 4abd f47e 99bc 961e 8cbc
00000340: 4802 0ebd 2654 153d df90 3bbd 79c2 623d
00000350: dfe0 a13d 3b98 5cbd 7d5c 883d 812a df3c
00000360: 96f9 453c c4de 423c 60cb aebb 77de abbd
00000370: a658 57bd f203 3d3c b6fd 0c3d 3790 28bd
00000380: c838 c93a 4a12 26bd 6ead 003d b6e1 b73c
00000390: 1bb7 5f3d e1a4 e4bc 8d9d 52bd 0504 abbd
000003a0: 02e8 3f3d 4dd7 9b3d dab6 333c 324b 8fbd
000003b0: 1c21 11bd e2c0 163d b519 a83d 8af6 ae3d
000003c0: 352e d73d 84d9 db3b 290d c0bb 455e 8a3d
000003d0: 192d ed3c 0698 c33d 1ebc a73d fb1a 35bd
000003e0: d4f4 163d ddf1 263d 53c4 2f3a 34ae 3abd
000003f0: baf9 24bd 1655 13bc 0716 99bb 248f 1b3b

encoder.weight_hh_l0 f4 [288, 72]
0.012540353 0.015835613 0.019396806 -0.01756827 -0.06617037 0.027465764 0.023559438 -0.06814629
-0.07852021 -0.063684195 0.03772292 0.08841083 -0.103302866 -0.030873353 0.003870992 -0.08205958
0.03517531 0.024407925 0.0024263612 -0.07413736 -0.008265253 -0.025619442 -0.041628655 0.029130066
-0.05959686 -0.09055417 -0.0037723277 -0.03824792 0.06862151 0.06787253 -0.097151846 -0.02126731
-0.052789707 0.026912177 0.016575549 0.09704195 0.057069276 -0.09573898 -0.07016477 -0.019982744
-0.053633183 -0.030407177 -0.04920613 -0.027263274 0.026800197 0.067480385 0.014274006 0.067279465
-0.004220257 0.0026807913 -0.018584313 -0.040947538 0.019355915 0.08202933 0.04043818 -0.05932358
-0.018998574 0.075355686 0.08793169 -0.050801147 -0.02164436 -0.0029370487 0.014060895 0.079751454
0.01566419 0.06603161 -0.08463572 -0.044215895 -6.104314e-05 -0.040559802 -0.031001214 0.02272526
-0.032731503 -0.108673766 0.00085231254 -0.060917515 0.07201747 -0.08356283 -0.007909373 0.083029285
0.054634366 0.0020563428 0.07444935 -0.05610886 -0.013831311 0.060485203 0.044803914 -0.00019697637
-0.063163504 0.055886306 -0.04950813 -0.04902438 0.026817499 0.08057283 0.07788302 0.002321972
-0.03093978 0.042735405 -0.07554212 -0.037748303 0.08225902 -0.091383696 0.05458319 -0.008402132
-0.008771448 0.09392664 0.06919193 0.052155193 0.053411838 -0.02570531 0.00515509 0.052736785
0.053032454 0.01925449 0.04956876 0.094434276 -0.04250632 -0.026435386 0.046703037 -0.004916589
-0.013936467 -0.066400364 0.04888547 0.053798486 0.00016498119 0.038091376 -0.058674864 0.085182
-0.08268642 0.068567 -0.09106883 0.014889587 0.0369273 0.051345143 -0.016356451 0.0129748
-0.016588978 0.018122228 0.035878558 0.010980788 -0.054238252 -0.07405328 -0.0007164919 -0.060439162
0.0020566827 0.07101399 -0.0135309175 -0.055307556 0.026353758 -0.046823192 -0.008448502 0.04872058
0.032690432 -0.059704438 -0.0040747896 0.032226767 -0.0047747237 -0.06301627 0.07408672 0.045712166
-0.024708236 -0.0012657668 0.06509771 0.013028681 -0.068808496 0.06734556 -0.04949741 -0.02652098
0.03753396 0.024330473 0.06455463 0.062373877 0.024754928 0.06965513 -0.056487218 0.074245565
0.032650698 -0.052816566 -0.085123345 0.011970418 0.066809915 -0.054785825 -0.057439845 0.02073597
-0.07057967 0.06860284 0.083474964 0.036528476 0.07491045 -0.011765887 -0.04074693 0.055539608
-0.05717264 0.010121909 0.0721931 -0.042061925 -0.044140853 -0.0682651 -0.032022975 0.06574768
0.0045480626 -0.060758505 0.035961244 0.013907459 -0.044136327 -0.037072193 0.08866047 0.051586226
0.031433374 0.016704591 -0.049659576 0.03956366 0.05158295 0.070617475 0.04097543 -0.03580188
-0.0069369334 -0.08297924 -0.046044286 0.0021321625 0.07210551 -0.06565228 -0.072850995 -0.0756572
0.05182472 -0.08350039 0.05476802 0.0317454 -0.04415445 0.07898927 -0.06343494 0.06721923
-0.023256483 0.061360616 0.06047713 0.00017936844 -0.022278838 -0.05826436 -0.041835316 0.046463512
-0.053749762 -0.062923476 0.04226872 -0.019781873 0.062098153 0.0749795 -0.049084928 0.06505101
0.00029082975 0.0789061 -0.02325887 0.05666137 0.079132915 0.015776325 -0.07377375 -0.03988541
00000000: 0e76 4d3c b0b9 813c 0de6 9e3c 55eb 8fbc
00000010: 5584 87bd e2ff e03c b9ff c03c 4890 8bbd
00000020: 34cf a0bd dc6c 82bd 5983 1a3d bd10 b53d
00000030: 7490 d3bd 1dea fcbc 78b0 7d3b da0e a8bd
00000040: fc13 103d 21f3 c73c 9603 1f3b 54d5 97bd
00000050: fc6a 07bc dddf d1bc cf82 2abd 2da2 ee3c
00000060: d61b 74bd 7774 b9bd 2839 77bb daa9 1cbd
00000070: 6f89 8c3d c100 8b3d 8cf7 c6bd c838 aebc
00000080: 053a 58bd ed76 dc3c 72c9 873c eebd c63d
00000090: 79c1 693d cc12 c4bd 8cb2 8fbd dab2 a3bc
000000a0: 78ae 5bbd 7918 f9bc 5e8c 49bd 3b57 dfbc
000000b0: 168c db3c 2833 8a3d 85dd 693c d1c9 893d
000000c0: 154a 8abb 37b0 2f3b 213e 98bc 9bb8 27bd
000000d0: 4c90 9e3c fefe a73d 81a2 253d 48fd 72bd
000000e0: e6a2 9bbc 1554 9a3d 8815 b43d dd14 50bd
000000f0: 834f b1bc 807b 40bb ab5f 663c bb54 a33d
00000100: 3052 803c 953b 873d 7e55 adbd ba1b 35bd
00000110: 4904 80b8 0922 26bd 42f6 fdbc 532a ba3c
00000120: 7811 06bd 5a90 debd ba6d 5f3a a584 79bd
00000130: e57d 933d fd22 abbd 5196 01bc 420b aa3d
00000140: 49c8 5f3d b5c3 063b e778 983d 67d2 65bd
00000150: b99c 62bc 55bf 773d 4f84 373d 718b 4eb9
00000160: de5b 81bd 0ae9 643d 09c9 4abd cacd 48bd
00000170: 5fb0 db3c 5e03 a53d 2281 9f3d 3a2c 183b
00000180: 6c75 fdbc 520b 2f3d d4b5 9abd f79d 1abd
00000190: 6b77 a83d 6027 bbbd 9f92 5f3d 19a9 09bc
000001a0: 1fb6 0fbc 9c5c c03d 80b4 8d3d afa0 553d
000001b0: 5fc6 5a3d f193 d2bc 07ec a83b 8702 583d
000001c0: 8f38 593d 98bb 9d3c 9d08 4b3d c266 c13d
000001d0: 1b1b 2ebd 068f d8bc af4b 3f3d 561b a1bb
000001e0: c755 64bc eafc 87bd 213c 483d cd5b 5c3d
000001f0: cdfe 2c39 b405 1c3d 0e55 70bd e773 ae3d
00000200: 7f57 a9bd db6c 8c3d 4b82 babd 74f3 733c
00000210: 1541 173d 494f 523d f7fd 85bc 4194 543c
00000220: 9ce5 87bc 1175 943c 65f5 123d c3e8 333c
00000230: ee28 5ebd 3fa9 97bd f5d2 3bba 0e8f 77bd
00000240: 69c9 063b c86f 913d c8b0 5dbc 2d8a 62bd
00000250: d6e3 d73c adc9 3fbd 966b 0abc 3b8f 473d
00000260: 67e6 053d a48c 74bd d085 85bb 3700 043d
00000270: 4975 9cbb ad0e 81bd c7ba 973d ae3c 3b3d
00000280: ed68 cabc 16e8 a5ba f351 853d 4076 553c
00000290: 78eb 8cbd 78ec 893d ccbd 4abd 8742 d9bc
000002a0: 36bd 193d b350 c73c 3835 843d c07b 7f3d
000002b0: d9ca ca3c 59a7 8e3d 245f 67bd 0f0e 983d
000002c0: bdbc 053d 2f56 58bd 2655 aebd 921f 443c
000002d0: a3d3 883d 1a67 60bd 0b46 6bbd 7bde a93c
000002e0: 138c 90bd a57f 8c3d ecf4 aa3d e29e 153d
000002f0: a66a 993d b5c5 40bc 41e6 26bd 807d 633d
00000300: dc2d 6abd 5dd6 253c fad9 933d 2049 2cbd
00000310: 0acd 34bd 93ce 8bbd 862a 03bd b8a6 863d
00000320: ea07 953b e9dd 78bd 194c 133d 1cdc 633c
00000330: 4bc8 34bd 03d9 17bd 9f93 b53d 144c 533d
00000340: 48c0 003d 11d8 883c d767 4bbd 810d 223d
00000350: a548 533d e59f 903d dad5 273d fea4 12bd
00000360: 374f e3bb 05f1 a9bd ef98 3cbd c0bb 0b3b
00000370: 0eac 933d b474 86bd e732 95bd 29f2 9abd
00000380: 2846 543d 4102 abbd 6e54 603d 7707 023d
00000390: 4cdb 34bd 20c5 a13d 2eea 81bd 3caa 893d
000003a0: 6184 bebc 4555 7b3d deb6 773d d914 3c39
000003b0: 1c82 b6bc 9ca6 6ebd 825b 2bbd 8650 3e3d
000003c0: b628 5cbd 06de 80bd f721 2d3d 980d a2bc
000003d0: a25a 7e3d da8e 993d 470d 49bd 7739 853d
000003e0: 827a 9839 8599 a13d 6389 bebc c115 683d
000003f0: 7010 a23d 5a3d 813c b116 97bd e25e 23bd

encoder.bias_ih_l0 f4 [288]
-0.02337356 0.014120645 0.028439308 -0.041298613 0.0003540513 -0.016420819 0.09617341 -0.062333062
-0.007281983 -0.041781384 -0.0175536 -0.0231585 0.07542971 -0.00010627016 0.014583091 -0.051263593
0.02916062 0.010922336 0.040621478 0.026341463 0.05408885 -0.021201238 -0.09318549 -0.0044825333
0.096908405 0.09150696 0.048566807 -0.043697778 -0.103480935 -0.12175777 0.06265939 -0.011840196
-0.07362044 0.034227405 -0.008066183 -0.08604955 0.01268355 0.08684754 -0.085183896 0.092350915
-0.0071312757 -0.08438356 0.03481076 -0.10111095 0.023018165 0.02941084 0.08193898 -0.03499714
0.11098998 0.088590816 -0.0342657 -0.019722708 0.08427533 -0.006668314 0.05651128 -0.010961025
-0.01934118 -0.042456713 0.035447937 0.00329583 -0.004134779 -0.051839918 -0.039834328 0.029969662
0.06562605 0.02410226 0.08696014 -0.06709762 -0.03868225 0.008433748 -0.042315595 -0.0031578424
-0.066025816 0.12307183 0.120638676 0.030751258 -0.028363658 0.063263305 0.031523224 -0.018595207
-0.10067542 -0.05195165 -0.0074459463 0.0069342097 0.0060709068 -0.062213093 -0.00330029 0.02475343
0.04211947 0.040603302 -0.009895176 -0.060495906 0.0069275727 0.080522455 0.0033825603 -0.028562857
0.043044444 0.030659517 0.062650785 -0.052926768 0.01862296 -0.0048290673 0.046091106 0.0835226
0.057016924 0.013565466 -0.004422019 -0.12586728 0.081208356 -0.05082605 0.033239573 0.022833748
0.0024470312 -0.08454863 -0.007013957 -0.017007263 0.0986805 0.018340524 -0.054025743 0.031785727
0.044047866 -0.06935621 -0.045202967 -0.013751509 -0.020339591 0.004848292 -0.07133891 0.015364949
-0.044208344 0.012152146 -0.014911471 -0.035035864 -0.02491913 -0.027298324 0.07408622 -0.01419174
0.0052631013 0.061322406 -0.0033532383 -0.033168193 0.038717225 -0.10329093 0.028792508 0.07259375
0.045431104 0.016345942 0.031628374 -0.031850073 -0.009521708 0.026279725 0.041280396 -0.025501173
0.0049938643 0.10397282 -0.0054699867 -0.028214341 0.07231626 0.08167271 0.06963408 0.07614939
0.040757928 0.05801609 0.093571916 0.0679844 0.04183409 -0.0143145155 -0.017945636 -0.0413115
0.0025604025 0.09138157 -0.007455931 0.016328407 0.018314851 0.03605827 0.039307807 0.08626615
-0.05854328 -0.06176319 0.035164617 -0.001039848 -0.067971975 -0.016914424 0.0031608797 0.05007065
0.05278989 -0.03615519 0.06782978 -0.015725482 0.0008979773 -0.08325949 -0.018845279 -0.06791358
0.0225657 0.004818654 0.011544428 -0.001962282 -0.058000635 0.052566167 0.060735174 0.0022593776
-0.05051468 -0.0149171725 0.05315142 0.10819759 -0.061483316 -0.038882397 0.04707399 -0.01771057
-0.00088700984 0.056572326 0.07071788 0.00547222 0.018641148 0.00055038615 -0.00031147065 -0.03382829
-0.039117727 0.16256517 0.0868275 -0.013788577 0.05249743 -0.041684758 -0.006218107 -0.1317373
0.09631987 0.087333925 -0.0797699 0.05641799 -0.11798447 0.032917693 0.030885044 -0.12832373
-0.09326417 0.0366985 -0.12627846 -0.036719434 -0.10226605 -0.09997692 0.071966305 0.06984451
-0.13639048 -0.13331912 -0.045566026 -0.052152343 0.054092478 0.043009408 -0.09402821 -0.06812459
0.09057867 -0.11990417 -0.09647822 -0.077601805 -0.10704549 -0.10610669 -0.042212766 -0.044523135
00000000: e879 bfbc 475a 673c 8df9 e83c bc28 29bd
00000010: f69f b939 f484 86bc 91f6 c43d f450 7fbd
00000020: b39d eebb f522 2bbd 91cc 8fbc e5b6 bdbc
00000030: e47a 9a3d 5cdd deb8 ebed 6e3c c6f9 51bd
00000040: 41e2 ee3c 99f3 323c b562 263d 0dca d73c
00000050: 458c 5d3d 38ae adbc 09d8 bebd 37e2 92bb
00000060: ea77 c63d 0068 bb3d fded 463d 71fc 32bd
00000070: d0ed d3bd 235c f9bd 9153 803d 62fd 41bc
00000080: 50c6 96bd 0932 0c3d 0628 04bc bf3a b0bd
00000090: aace 4f3c 20dd b13d e574 aebd 7a22 bd3d
000000a0: 7aad e9bb 4ad1 acbd ba95 0e3d 4213 cfbd
000000b0: 9790 bc3c 00ef f03c a0cf a73d 2959 0fbd
000000c0: b74e e33d 1a6f b53d 315a 0cbd 8491 a1bc
000000d0: 8b98 ac3d df81 dabb 5f78 673d df95 33bc
000000e0: 6571 9ebc 17e7 2dbd db31 113d dafe 573b
000000f0: 0a7d 87bb 1856 54bd 5229 23bd f082 f53c
00000100: f366 863d 1a72 c53c 2818 b23d 7a6a 89bd
00000110: 4771 1ebd b42d 0a3c 1e53 2dbd cef3 4ebb
00000120: 8b38 87bd 150d fc3d 6911 f73d 10ea fb3c
00000130: e75a e8bc 3190 813d 7f1e 013d fa54 98bc
00000140: ea2e cebd 41cb 54bd 20fd f3bb 5e38 e33b
00000150: 75ee c63b 28d3 7ebd ae49 58bb b5c7 ca3c
00000160: 7785 2c3d a64f 263d 601f 22bc 8eca 77bd
00000170: b100 e33b f5e8 a43d f2ad 5d3b a7fc e9bc
00000180: 5f4f 303d ab29 fb3c 0e4f 803d bdc9 58bd
00000190: 2e8f 983c 273d 9ebb 07ca 3c3d e60d ab3d
000001a0: 948a 693d b041 5e3c 95e6 90bb 5ae3 00be
000001b0: 9150 a63d fa2e 50bd 3826 083d d70d bb3c
000001c0: 5f5e 203b d527 adbd 56d5 e5bb d152 8bbc
000001d0: 0119 ca3d de3e 963c 194a 5dbd c031 023d
000001e0: 896b 343d a10a 8ebd bf26 39bd 024e 61bc
000001f0: 379f a6bc 6cde 9e3b 221a 92bd 44bd 7b3c
00000200: cf13 35bd cb19 473c 3e4f 74bc c481 0fbd
00000210: 3423 ccbc bca0 dfbc 84ba 973d 7984 68bc
00000220: 1876 ac3b 342d 7b3d 01c2 5bbb 5fdb 07bd
00000230: f495 1e3d 328a d3bd 44de eb3c 08ac 943d
00000240: f715 3a3d ede7 853c c18c 013d 3975 02bd
00000250: f000 1cbc 9448 d73c a215 293d d6e7 d0bc
00000260: 92a3 a33b b4ef d43d 933d b3bb c321 e7bc
00000270: 8c1a 943d 0644 a73d 509c 8e3d 36f4 9b3d
00000280: c9f1 263d 48a2 6d3d a2a2 bf3d 683b 8b3d
00000290: 395a 2b3d 6e87 6abc ba02 93bc 3f36 29bd
000002a0: 6dcc 273b 4326 bb3d e250 f4bb 27c3 853c
000002b0: 0709 963c d6b1 133d 3901 213d 4fac b03d
000002c0: 14cb 6fbd 66fb 7cbd c608 103d 824b 88ba
000002d0: e434 8bbd 1e90 8abc c326 4f3b e216 4d3d
000002e0: 363a 583d 7717 14bd 57ea 8a3d bad2 80bc
000002f0: 3d66 6b3a f483 aabd 6a61 9abc 4616 8bbd
00000300: b4db b83c cde5 9d3b d724 3d3c a199 00bb
00000310: 1392 6dbd 9f4f 573d 72c5 783d 1112 143b
00000320: 7be8 4ebd 2867 74bc 4eb5 593d b396 dd3d
00000330: eed5 7bbd 2643 1fbd a8d0 403d c215 91bc
00000340: 3986 68ba 62b8 673d 89d4 903d 4f50 b33b
00000350: 52b5 983c ca47 103a e24c a3b9 888f 0abd
00000360: e939 20bd 7c77 263e 9ed2 b13d 7ce9 61bc
00000370: 8c07 573d a3bd 2abd 43c1 cbbb 25e6 06be
00000380: 5a43 c53d 21dc b23d 675e a3bd 8d16 673d
00000390: d8a1 f1bd b4d4 063d a202 fd3c 4c67 03be
000003a0: 4901 bfbd 2b51 163d 244f 01be 1e67 16bd
000003b0: dd70 d1bd b3c0 ccbd 1263 933d a30a 8f3d
000003c0: f2a9 0bbe cf84 08be 71a3 3abd b29d 55bd
000003d0: 1390 5d3d a22a 303d dd91 c0bd e884 8bbd
000003e0: 4f81 b93d 5190 f5bd 5f96 c5bd b2ed 9ebd
000003f0: aa3a dbbd 774e d9bd 4be7 2cbd e45d 36bd

encoder.bias_hh_l0 f4 [288]
-0.017291777 -0.025687166 -0.07151796 0.08691904 0.06901446 0.09210548 0.10385503 -0.025974218
0.027475016 -0.054159697 -0.02761261 0.084577195 0.08557372 0.027212273 0.05256128 0.042722266
0.057413362 0.081130184 0.017764304 0.07787284 0.06120493 -0.047997538 0.05191493 0.072574005
-0.02892508 -0.047900174 0.05562956 0.06440627 -0.09831951 -0.025575304 0.04735303 0.032117337
-0.098055124 0.05452713 -0.05289131 0.023683857 -0.029990915 0.084091745 0.006874514 0.082724765
0.053540703 -0.00734736 -0.07755287 -0.10221568 -0.042162098 0.019551402 0.055005156 -0.024439132
-0.049479805 0.044928867 0.004356836 -0.028147286 -0.043586735 0.025160806 0.006050877 -0.0023518975
-0.053324167 -0.06184473 -0.011736699 0.044947095 0.04864071 0.042806167 -0.004028712 -0.05344153
-0.036737606 -0.0630746 0.06318886 0.062300526 0.058489334 -0.03887428 -0.012492491 -0.033935003
-0.02581742 0.04309232 0.07321071 0.098010555 0.080402635 0.04139714 0.029518459 0.007432178
-0.1631516 0.06312825 0.04533305 -0.041802257 -0.0148809105 -0.044511873 0.084691 0.04804188
-0.041636065 -0.05771148 -0.0076134386 0.017456839 -0.026159279 -0.029783003 -0.10598776 0.048139587
-0.06637409 -0.027998976 -0.008661225 -0.024947694 0.045482226 -0.053360958 0.019776512 0.044842664
-0.062850274 -0.077884175 0.08447487 -0.040801726 0.014806967 0.10989208 -0.015479721 0.051192176
0.03742406 -0.043311067 -0.039880767 -0.08838715 -0.029808123 0.046680573 -0.070315614 -0.04387165
0.020604607 -0.032371983 -0.09163297 -0.036890127 -0.0064624483 -0.025450625 -0.0049001514 0.072101004
0.047433525 0.039847203 -0.017788948 0.06049816 -0.070099905 -0.0031654674 0.04742687 -0.045201767
0.07556191 0.05305432 -0.05315149 -0.012566226 0.0721839 -0.013629678 -0.052146588 0.07004567
-0.090021566 -0.0385402 -0.006502448 -0.08443162 0.0037848246 -0.08743782 0.05012299 0.012573246
0.07186672 -0.00894691 0.026611086 0.014873432 -0.0016674254 -0.056580264 0.0029812804 0.10132595
0.0053811627 -0.08656149 0.10261517 -0.02559405 0.05144624 0.058428023 -0.014904009 0.034464996
0.07973056 0.069381915 -0.08274693 0.07530765 0.049066916 -0.06555711 0.09564127 -0.04432628
-0.044212956 -0.046437524 -0.09375204 -0.046632644 -0.10532022 -0.025750063 0.041238938 -0.053661503
-0.06432192 0.06777668 0.05958368 -0.06847666 0.057524197 -0.09893343 0.0058613555 -0.012670204
-0.06988613 0.10919802 0.004407248 0.03409425 -0.08955865 -0.030230546 0.037196573 0.040996328
0.042846974 0.04347881 -0.018163515 0.07058741 0.017296879 0.07708706 0.124325916 0.0044154273
0.043528553 -0.07622433 0.07087156 -0.00800161 0.027423525 0.11796515 0.019287672 0.022548838
-0.032985423 0.16479489 0.033678796 -0.037238065 0.024902428 0.035081156 0.014121703 -0.1419793
0.06498365 0.10922736 -0.11881987 0.106823504 0.026731523 -0.004960217 -0.10259022 -0.08739987
-0.049659632 -0.12258797 -0.024259016 -0.12722246 -0.09751093 -0.06526562 -0.012258543 0.16324978
-0.006100617 -0.014623934 -0.037278928 -0.11381271 0.047009904 0.003579043 -0.09549002 -0.1476695
0.037870266 -0.002767773 -0.04714239 0.056475922 -0.01368751 0.03211122 0.0047374703 0.0036175572
00000000: 7ca7 8dbc e46d d2bc 0278 92bd 9c02 b23d
00000010: 7457 8d3d cca1 bc3d f2b1 d43d e2c7 d4bc
00000020: 4913 e13c 8fd6 5dbd d733 e2bc cf36 ad3d
00000030: 4641 af3d 46ec de3c 7f4a 573d 8bfd 2e3d
00000040: 462a 6b3d 9527 a63d 7286 913c cc7b 9f3d
00000050: 05b2 7a3d 1199 44bd c0a4 543d aea1 943d
00000060: 4af4 ecbc f932 44bd d2db 633d 6fe7 833d
00000070: bd5b c9bd 4d83 d1bc 40f5 413d 788d 033d
00000080: 20d1 c8bd d757 5f3d 8fa4 58bd a604 c23c
00000090: 82af f5bc 4b38 ac3d 9a43 e13b 9a6b a93d
000000a0: 7f4d 5b3d 1fc2 f0bb 0ad4 9ebd 7456 d1bd
000000b0: 2ab2 2cbd 432a a03c 164d 613d 9334 c8bc
000000c0: 56ab 4abd 5507 383d cac3 8e3b 2395 e6bc
000000d0: 0188 32bd 091e ce3c 6f46 c63b 4b22 1abb
000000e0: 716a 5abd e650 7dbd 494b 40bc 721a 383d
000000f0: 7b3b 473d 8555 2f3d 4903 84bb 81e5 5abd
00000100: 2c7a 16bd 422d 81bd 2969 813d d62e 7f3d
00000110: 8392 6f3d a33a 1fbd 4ead 4cbc 6eff 0abd
00000120: 0e7f d3bc 9381 303d 7fef 953d c2b9 c83d
00000130: 23aa a43d 0c90 293d b2d0 f13c a189 f33b
00000140: 3711 27be 6249 813d 26af 393d d838 2bbd
00000150: 10cf 73bc 1552 36bd 7a72 ad3d 90c7 443d
00000160: 948a 2abd df62 6cbd 277a f9bb a501 8f3c
00000170: fc4b d6bc 7cfb f3bc 1c10 d9bd 042e 453d
00000180: 24ef 87bd 1c5e e5bc d0e7 0dbc 1b5f ccbc
00000190: 924b 3a3d 0591 5abd 5a02 a23c f1ac 373d
000001a0: a5b7 80bd bd81 9fbd 2901 ad3d b61f 27bd
000001b0: ec98 723c 190f e13d a89e 7dbc e3ae 513d
000001c0: f949 193d f266 31bd 045a 23bd 5204 b5bd
000001d0: 2a30 f4bc 2134 3f3d a201 90bd c2b2 33bd
000001e0: feca a83c 7c98 04bd 11aa bbbd 1a1a 17bd
000001f0: f2c2 d3bb d47d d0bc 7391 a0bb b1a9 933d
00000200: a849 423d d236 233d 21ba 91bc ebcc 773d
00000210: 8a90 8fbd bb73 4fbb ad42 423d 7d25 39bd
00000220: 34c0 9a3d 7d4f 593d 60b5 59bd 92e2 4dbc
00000230: 27d5 933d 034f 5fbc a997 55bd 1b74 8f3d
00000240: 3a5d b8bd 54dc 1dbd 7d12 d5bb 7cea acbd
00000250: d20a 783b 9a12 b3bd c44d 4d3d 0400 4e3c
00000260: dc2e 933d 0f96 12bc 7eff d93c b2af 733c
00000270: 838d daba b5c0 67bd 9661 433b fb83 cf3d
00000280: 7754 b03b 2747 b1bd e727 d23d 9daa d1bc
00000290: 4bb9 523d 3952 6f3d f22f 74bc 2b2b 0d3d
000002a0: c749 a33d 1b18 8e3d 3977 a9bd e63a 9a3d
000002b0: 64fa 483d ce42 86bd 92df c33d 798f 35bd
000002c0: a518 35bd 4635 3ebd 1201 c0bd df01 3fbd
000002d0: 21b2 d7bd ccf1 d2bc 29ea 283d 2acc 5bbd
000002e0: 36bb 83bd 80ce 8a3d 040e 743d 7e3d 8cbd
000002f0: 7e9e 6b3d 9c9d cabd 9d10 c03b b096 4fbc
00000300: 7620 8fbd 36a3 df3d ad6a 903b 6aa6 0b3d
00000310: 876a b7bd 0da6 f7bc 6f5b 183d c4eb 273d
00000320: 4f80 2f3d d616 323d a7cb 94bc 2290 903d
00000330: 2fb2 8d3c d2df 9d3d 969e fe3d 4aaf 903b
00000340: ff4a 323d 801b 9cbd 1c25 913d 2f19 03bc
00000350: 4da7 e03c b697 f13d 2e01 9e3c 57b8 b83c
00000360: b91b 07bd febf 283e c7f2 093d f186 18bd
00000370: 2d00 cc3c 42b1 0f3d b75e 673c 0663 11be
00000380: 2616 853d 98b2 df3d d557 f3bd 48c6 da3d
00000390: 11fc da3c 5189 a2bb d21a d2bd b4fe b2bd
000003a0: e667 4bbd 670f fbbd d8ba c6bc 9b46 02be
000003b0: cfb3 c7bd fba9 85bd 0ed8 48bc f32a 273e
000003c0: afe7 c7bb 3a99 6fbc cab1 18bd a316 e9bd
000003d0: 758d 403d 618e 6a3b 4690 c3bd ac36 17be
000003e0: da1d 1b3d 8763 35bb 6118 41bd 4c53 673d
000003f0: 9441 60bc 0e87 033d c83c 9b3b 8a14 6d3b

to_latent.weight f4 [18, 72]
0.025004752 -0.16671008 -0.022781044 -0.0106296055 0.05445708 0.04998425 0.06666162 0.0001572153
0.14401811 -0.041236658 0.06480966 -0.05408382 0.038100373 0.06967155 0.081102274 -0.052159533
-0.0018396445 0.021931786 0.042826977 0.009573009 -0.044176992 0.03944055 -0.018058581 -0.0146788815
0.035918348 -0.0005872805 -0.010315477 -0.03817134 -0.05346306 -0.036136385 -0.0118585685 -0.0039882697
0.060554083 -0.035153262 -0.051446825 0.03566732 -0.048548203 0.013662653 -0.036408268 0.02536579
0.024028745 0.051065475 -0.06260294 -0.017599832 0.049997907 0.0046416805 0.10721984 0.095916584
-0.02382611 -0.08534427 -0.03536293 -0.00941243 0.030877767 0.027593566 0.025304839 -0.0034956774
-0.06922499 0.0009902075 -0.020122496 0.107639655 0.0009863575 -0.066472396 -0.0494353 0.0073674615
0.064446166 0.023374744 0.04873131 0.06669592 0.023369052 -0.011456575 -0.1189833 0.01939882
0.0131328385 -0.16676582 0.032196194 -0.01050547 0.010008769 0.023325982 0.01455808 -0.115441665
0.63147515 -0.04830948 -0.08628216 -0.06675271 -0.06516318 -0.0572775 -0.07439956 -0.10223245
0.03614948 -0.06951189 -0.014285623 0.06860117 -0.118428804 -0.052705225 0.034358017 -0.038998954
-0.040235907 0.004190044 -0.060335424 -0.050291725 0.027376711 0.08375733 -0.1697476 -0.04774182
-0.02080431 0.07032684 0.035287045 0.059458327 0.0554477 -0.0076642684 -0.11068046 -0.0041519282
-0.0657853 0.02978146 -0.06826375 -0.23848493 0.08283549 0.068176776 -0.04017233 0.07517398
0.002093744 -0.09439578 0.0056012343 0.080856584 0.16440837 -0.046892107 -0.07835059 0.09273173
0.003548119 0.0043865643 -0.008607545 0.12897968 -0.05736087 0.097899854 0.03930222 -0.019402374
0.019971924 0.101292446 -0.060072564 -0.045496583 0.011941541 -0.020751072 -0.034040153 0.0625917
0.06071022 -0.20354226 0.14452001 -0.13390726 0.18411024 0.010530346 -0.057601515 0.011500653
0.5956292 -0.0020853477 -0.0696861 -0.04159933 -0.10311691 0.03921013 0.0031939668 -0.16115217
0.08646438 0.054511502 -0.025765324 0.0068635154 -0.0057365657 -0.111675546 -0.068216614 -0.036379106
0.03669137 -0.034131255 0.03170815 -0.03856554 0.13923346 0.08025148 -0.05663231 -0.21035245
-0.14348027 -0.04641476 0.057097662 -0.0243187 -0.011079651 -0.035126507 0.025648043 0.06777204
-0.016320202 0.08152961 -0.017988112 -0.0045446926 0.04449924 0.040133692 -0.008031847 0.02033297
0.029422339 -0.08570746 -0.067984045 0.11400222 0.09376031 -0.053046368 -0.021734932 0.082955316
0.058668993 0.034255523 0.036791395 -0.043183282 -0.072834685 -0.07361356 -0.017359382 -0.042655393
-0.02448817 0.028117543 -0.09386341 -0.037061974 0.0564183 -0.043122213 -0.03172879 -0.07661029
0.05909331 -0.045456626 0.11897443 0.06284156 0.07574066 0.13322468 -0.04741445 -0.13767035
0.17990518 -0.10947357 -0.05381896 0.014937169 -0.088342816 -0.09156982 -0.107664846 -0.14790432
0.12438718 0.08922745 -0.014756375 -0.032503113 -0.08208472 -0.0025077306 -0.14850655 -0.024463542
-0.065935895 -0.03878855 0.019651761 -0.11400786 -0.03793579 0.17801611 -0.0421245 -0.03794259
-0.02516424 0.0060051647 0.10912319 0.15525527 0.09017695 0.007140471 -0.075357184 -0.042644132
00000000: c4d6 cc3c 0cb6 2abe 509f babc cc27 2ebc
00000010: 630e 5f3d 49bc 4c3d e385 883d 29da 2439
00000020: 7c79 133e c5e7 28bd edba 843d ff86 5dbd
00000030: 230f 1c3d f5af 8e3d f318 a63d 3ca5 55bd
00000040: 3a20 f1ba 4aaa b33c 576b 2f3d 1cd8 1c3c
00000050: eff2 34bd 6a8c 213d 97ef 93bc b17f 70bc
00000060: 1e1f 133d baf3 19ba 3f02 29bc 8d59 1cbd
00000070: 15fc 5abd bf03 14bd 714a 42bc 08b0 82bb
00000080: 8f07 783d defc 0fbd e8b9 52bd e517 123d
00000090: 7bda 46bd 52d9 5f3c d620 15bd ebcb cf3c
000000a0: eed7 c43c 082a 513d f835 80bd 862d 90bc
000000b0: 9bca 4c3d 3d19 983b 1396 db3d ea6f c43d
000000c0: f92e c3bc fac8 aebd b8d8 10bd 9836 1abc
000000d0: 5ff3 fc3c e70b e23c 184c cf3c bc17 65bb
000000e0: d5c5 8dbd dac9 813a efd7 a4bc 2e72 dc3d
000000f0: aa48 813a ae22 88bd ab7c 4abd bf6a f13b
00000100: 5afc 833d 647c bf3c 7b9a 473d df97 883d
00000110: 7470 bf3c 5cb4 3bbc 84ad f3bd 46ea 9e3c
00000120: 1e2b 573c a9c4 2abe 28e0 033d 231f 2cbc
00000130: d2fb 233c 2116 bf3c 0385 6e3c ae6c ecbd
00000140: 5ba8 213f 29e0 45bd b3b4 b0bd a5b5 88bd
00000150: 4674 85bd d09b 6abd cc5e 98bd 3f5f d1bd
00000160: 7a11 143d 405c 8ebd 3f0e 6abc c57e 8c3d
00000170: cd8a f2bd 6fe1 57bd feba 0c3d 5ebd 1fbd
00000180: 68ce 24bd a34c 893b 4722 77bd b2fe 4dbd
00000190: 2045 e03c f788 ab3d 51d2 2dbe ed8c 43bd
000001a0: cd6d aabc 8507 903d 2689 103d 938a 733d
000001b0: 211d 633d 8b24 fbbb 70ac e2bd e60c 88bb
000001c0: 72ba 86bd 40f8 f33c ddcd 8bbd 6535 74be
000001d0: a7a5 a93d 44a0 8b3d be8b 24bd d1f4 993d
000001e0: 3237 093b 9352 c1bd 8f8a b73b 2398 a53d
000001f0: ab5a 283e f011 40bd 4676 a0bd 22ea bd3d
00000200: 8f87 683b 2bbd 8f3b a906 0dbc 4013 043e
00000210: 3bf3 6abd b87f c83d 5dfb 203d baf1 9ebc
00000220: 299c a33c 6a72 cf3d a60e 76bd a05a 3abd
00000230: 74a6 433c 27fe a9bc b06d 0bbd 1430 803d
00000240: 48ab 783d 626d 50be 0efd 133e fc1e 09be
00000250: 6587 3c3e 7987 2c3c 91ef 6bbd 3c6d 3c3c
00000260: 287b 183f 54aa 08bb 96b7 8ebd 0f64 2abd
00000270: f52e d3bd cd9a 203d df51 513b 1305 25be
00000280: 3d14 b13d 7447 5f3d cd11 d3bc 57e7 e03b
00000290: cdf9 bbbb 26b6 e4bd 27b5 8bbd 4202 15bd
000002a0: b149 163d 37cd 0bbd 68e0 013d e6f6 1dbd
000002b0: 3793 0e3e e35a a43d 48f7 67bd a266 57be
000002c0: 7eec 12be 671d 3ebd 3ddf 693d 0338 c7bc
000002d0: 6d87 35bc d0e0 0fbd d81b d23c 11cc 8a3d
000002e0: f2b1 85bc fff8 a63d ce5b 93bc a5eb 94bb
000002f0: d644 363d 3a63 243d 0298 03bc 5491 a63c
00000300: 1e07 f13c 6587 afbd 383b 8bbd ff79 e93d
00000310: 6805 c03d 2647 59bd 750d b2bc 7ae4 a93d
00000320: e64e 703d 854f 0c3d 93b2 163d f4e0 30bd
00000330: 5a2a 95bd b5c2 96bd 4335 8ebc 6cb7 2ebd
00000340: 6a9b c8bc c356 e63c 763b c0bd 4cce 17bd
00000350: e016 673d eba0 30bd 0cf6 01bd dbe5 9cbd
00000360: d40b 723d ba30 3abd dea8 f33d 13b3 803d
00000370: eb1d 9b3d 0d6c 083e a835 42bd 75f9 0cbe
00000380: 1039 383e ae33 e0bd 4571 5cbd 07bb 743c
00000390: 14ed b4bd f588 bbbd 637f dcbd 3b74 17be
000003a0: b5be fe3d e2bc b63d b9c4 71bc fc21 05bd
000003b0: 091c a8bd bd58 24bb 1a12 18be c467 c8bc
000003c0: 6609 87bd bee0 1ebd bbfc a03c f47c e9bd
000003d0: 8f62 1bbd db49 363e bd8a 2cbd b069 1bbd
000003e0: 3c25 cebc f9c6 c43b fb7b df3d 3dfb 1e3e
000003f0: b1ae b83d 9dfa e93b de54 9abd 9dab 2ebd

to_latent.bias f4 [18]
0.045213696 -0.09767568 -0.023769317 -0.107029565 -0.13508654 0.12216536 0.11543633 0.12416226
0.006530943 0.09468667 0.033299416 0.010929958 -0.043531276 -0.0002513729 0.040628437 -0.036273547
-0.010451134 -0.140692
00000000: ff31 393d 300a c8bd dfb7 c2bc 5132 dbbd
00000010: 2054 0abe d531 fa3d e269 ec3d c848 fe3d
00000020: 8501 d63b 16eb c13d f864 083d 9113 333c
00000030: da4d 32bd b3ca 83b9 016a 263d 9293 14bd
00000040: 3c3b 2bbc 9011 10be

from_latent.weight f4 [72, 18]
0.07820826 -0.035249732 -0.12799269 0.101756476 -0.030693153 -0.13406914 -0.06293129 0.07562592
-0.22425199 0.118528254 -0.022986729 0.038329568 0.10939268 -0.10380425 -0.053772565 -0.19214395
-0.15668795 -0.061176047 -0.15974008 -0.023373334 -0.101121046 0.11649544 -0.028575186 0.03833229
-0.07349523 -0.14176899 0.0010577615 0.06397343 0.14902064 -0.06514821 0.041554317 0.08543372
0.06318788 -0.2738897 -0.13048746 -0.06882779 0.1503468 -0.08806685 0.13031945 -0.10603631
0.03931314 0.21574725 0.15630072 0.1637608 -0.2466526 0.0073770797 -0.107067786 -0.05052086
-0.15847887 0.027062885 0.1877431 0.012714825 0.08153287 -0.16565439 0.07283693 -0.05701828
-0.104617774 0.14709799 -0.046169564 -0.101759054 -0.15703428 -0.20566386 0.3654389 -0.055793144
-0.22203124 0.040654447 0.17099021 0.07793052 -0.11946308 0.29613033 0.04094713 0.23155817
-0.09918786 0.14797719 0.22987111 0.07105365 0.24722177 -0.047904834 0.03212201 -0.20819154
0.21013507 -0.18328647 0.29679623 0.16788374 0.20892985 -0.20688161 -0.19472478 -0.26374277
0.2074975 -0.049015917 -0.14168331 0.032814976 -0.15906346 0.063236386 0.10965068 0.08111431
0.077905156 0.09122208 0.3554577 0.009055033 -0.16241853 0.0123131005 0.13011609 -0.15884134
0.083504 0.042106483 0.072817214 -0.027511189 -0.010240187 0.052993536 0.0039375587 0.056547355
-0.0781006 0.08533398 -0.124859095 -0.09186157 -0.123225644 -0.09853456 0.06162698 -0.030446095
-0.1535937 0.02364172 0.04941017 0.001000672 0.14008315 0.11577756 -0.002998091 0.032808322
0.14959845 -0.08278947 0.14013214 0.120808855 0.033275682 0.03902998 0.28826305 0.033438787
0.022132149 -0.11229278 0.002082583 -0.09916067 -0.18708985 0.072791 -0.05325125 0.040573303
0.13497806 -0.09733809 -0.018413087 -0.044419475 -0.06625291 0.044118647 0.14869285 -0.03124525
0.15296033 -0.06297665 0.10198643 0.10401737 0.044420898 0.17892821 0.10349224 -0.05779645
0.12634008 -0.14153154 -0.147229 0.06305493 0.06822437 0.19500409 0.028007286 -0.009708669
-0.10549852 0.006460633 0.0686686 -0.18672185 -0.0033913383 0.17700925 -0.017237503 -0.24253967
0.06796548 -0.026671257 0.049665883 0.22669995 0.024521075 0.05204285 0.115128115 0.019142125
-0.048541468 -0.08938626 0.03924335 0.11528306 -0.115277015 -0.0148220835 0.03089558 0.04661623
-0.017561434 -0.042099364 0.060864624 0.0787176 -0.03617251 0.1871328 -0.011642189 -0.08019845
0.19614187 -0.022152646 -0.08151967 -0.1310926 0.036467694 -0.12689918 -0.27162102 0.07614602
0.19147788 0.0905118 -0.07614408 0.10684428 -0.1987492 0.036244836 0.10721434 0.08865471
-0.052325696 -0.03676511 -0.12067785 0.0019765967 -0.121666804 0.014565253 0.16199622 0.13318364
0.2518313 -0.055556964 -0.07268392 0.008467474 0.054367736 0.06659193 0.086334206 0.2829313
-0.19620192 0.07478736 0.006194146 -0.06439676 0.05880974 0.152068 -0.010727066 -0.1786164
0.043601055 -0.0005558119 -0.12821887 0.10094659 0.19523925 -0.13393104 -0.10488125 0.12889105
0.11993761 0.14329617 -0.12857737 -0.036789257 0.16712959 0.02321892 0.1361914 -0.03192051
00000000: a72b a03d 0662 10bd 8410 03be b365 d03d
00000010: 3570 fbbc 6c49 09be 1fe2 80bd c3e1 9a3d
00000020: 50a2 65be f1be f23d aa4e bcbc 77ff 1c3d
00000030: 4509 e03d 5397 d4bd 9f40 5cbd 62c1 44be
00000040: ce72 20be bc93 7abd e792 23be 6f79 bfbc
00000050: 8d18 cfbd 2995 ee3d 8216 eabc 5202 1d3d
00000060: ab84 96bd e42b 11be 96a4 8a3a 8004 833d
00000070: de98 183e 6d6c 85bd dc34 2a3d e0f7 ae3d
00000080: a668 813d 453b 8cbe 819e 05be 96f5 8cbd
00000090: 83f4 193e 655c b4bd 7672 053e 9129 d9bd
000000a0: d106 213d d9ec 5c3e 4c0d 203e e9b0 273e
000000b0: 8092 7cbe 6ebb f13b 5b46 dbbd f6ee 4ebd
000000c0: 4948 22be fcb2 dd3c ba3f 403e d751 503c
000000d0: b5fa a63d 4ea1 29be 872b 953d 008c 69bd
000000e0: d841 d6bd dba0 163e 4c1c 3dbd 0d67 d0bd
000000f0: 98cd 20be 8c99 52be cf1a bb3e 5a87 64bd
00000100: 285c 63be 4785 263d 0f18 2f3e 099a 9f3d
00000110: 0fa9 f4bd 659e 973e 2eb8 273d 961d 6d3e
00000120: 0123 cbbd 5587 173e 5563 6b3e 9384 913d
00000130: b427 7d3e dc37 44bd 5e92 033d 2a30 55be
00000140: a62d 573e 73af 3bbe adf5 973e b7e9 2b3e
00000150: b5f1 553e c6d8 53be ef65 47be 4b09 87be
00000160: 3a7a 543e eac4 48bd 6e15 11be ff68 063d
00000170: 88e1 22be 1482 813d 8990 e03d 421f a63d
00000180: bd8c 9f3d a4d2 ba3d 8dfe b53e 905b 143c
00000190: 0b51 26be e3bc 493c 273d 053e 4ea7 22be
000001a0: 2504 ab3d d977 2c3d 3121 953d 255f e1bc
000001b0: 75c6 27bc c00f 593d a306 813b 339e 673d
000001c0: 35f3 9fbd 95c3 ae3d 20b6 ffbd eb21 bcbd
000001d0: ba5d fcbd 7dcc c9bd 926c 7c3d 176a f9bc
000001e0: ab47 1dbe 48ac c13c 5262 4a3d fb28 833a
000001f0: f571 0f3e c91c ed3d 9f7b 44bb 0562 063d
00000200: 5630 193e 878d a9bd cd7e 0f3e a26a f73d
00000210: 154c 083d e6dd 1f3d 3797 933e 1cf7 083d
00000220: 7b4e b53c c2f9 e5bd f27b 083b c014 cbbd
00000230: 7b94 3fbe 7313 953d fc1d 5abd 3130 263d
00000240: b037 0a3e 3159 c7bd 0bd7 96bc 32f1 35bd
00000250: 9baf 87bd c1b5 343d f042 183e 0af6 ffbc
00000260: a2a1 1c3e e7f9 80bd 43de d03d 0f07 d53d
00000270: b0f2 353d f538 373e bdf3 d33d f8bb 6cbd
00000280: 4b5f 013e a5ed 10be 33c3 16be f122 813d
00000290: 38b9 8b3d 27af 473e 896f e53c 1c11 1fbc
000002a0: 9c0f d8bd b8b3 d33b 1fa2 8c3d 0334 3fbe
000002b0: 3741 5ebb ea41 353e aa35 8dbc 525c 78be
000002c0: 7c31 8b3d ae7d dabc 746e 4b3d 0824 683e
000002d0: 6ce0 c83c e22a 553d 4ac8 eb3d f2cf 9c3c
000002e0: 6bd3 46bd 2510 b7bd a3bd 203d 8619 ec3d
000002f0: 5b16 ecbd 53d8 72bc ba18 fd3c a9f0 3e3d
00000300: ffdc 8fbc 6270 2cbd 2f4d 793d b136 a13d
00000310: a029 14bd be9f 3f3e e1be 3ebc 163f a4bd
00000320: 6ad9 483e 7779 b5bc c9f3 a6bd 233d 06be
00000330: 265f 153d dcf1 01be e911 8bbe 72f2 9b3d
00000340: c712 443e 405e b93d 6df1 9bbd 2dd1 da3d
00000350: e984 4bbe 7775 143d 3193 db3d 9a90 b53d
00000360: 7853 56bd 0397 16bd f325 f7bd ca89 013b
00000370: 722c f9bd 19a3 6e3c 56e2 253e 4b61 083e
00000380: 08f0 803e b38f 63bd 4fdb 94bd 29bb 0a3c
00000390: b4b0 5e3d 5a61 883d fdcf b03d 5fdc 903e
000003a0: 28e9 48be 1e2a 993d 43f8 ca3b 73e2 83bd
000003b0: 7be2 703d b7b7 1b3e 93c0 2fbc 38e7 36be
000003c0: 0597 323d e8b3 11ba cf4b 03be 16bd ce3d
000003d0: ccec 473e 3825 09be fbcb d6bd 04fc 033e
000003e0: daa1 f53d 3bbc 123e c9a9 03be 55b0 16bd
000003f0: 0524 2b3e 9b35 be3c c275 0b3e 15bf 02bd

from_latent.bias f4 [72]
0.032591894 0.167917 0.14855444 0.056353092 -0.08627249 -0.09903534 0.045001205 0.042417135
0.09313326 0.09623244 0.059290547 0.07989867 0.17607227 0.11058729 0.021524813 0.12902653
0.2449554 0.17560871 -0.12867023 0.0877603 0.038783792 -0.07786081 -0.036329217 -0.03791796
0.07983218 0.13568233 0.06336426 -0.07352012 0.030103715 0.092369184 0.018846188 -0.07570762
0.09218517 0.14693032 0.20710064 -0.2054137 -0.13675499 -0.13769291 -0.11986495 -0.08538555
-0.071752846 -0.09238493 0.060497694 0.08068087 0.07463117 0.07271924 0.068257175 0.030713655
-0.036121655 -0.07055404 -0.2065167 0.09925549 -0.094588496 -0.008071952 0.20576203 0.097314365
0.18194342 0.14985888 -0.00076368253 0.11431058 0.045516714 -0.080487676 0.053100202 0.039627764
0.025626052 -0.18435568 -0.13943452 -0.052202925 0.13942462 0.06971135 0.027675377 -0.03678454
00000000: 147f 053d 6ff2 2b3e a81e 183e 80d2 663d
00000010: a2af b0bd 0ad3 cabd 2f53 383d 97bd 2d3d
00000020: a7bc be3d 8315 c53d a5da 723d eaa1 a33d
00000030: 4a4c 343e 977b e23d ce54 b03c 881f 043e
00000040: 97d5 7a3e c5d2 333e 21c2 03be acbb b33d
00000050: c1db 1e3d 7d75 9fbd f2cd 14bd dd4f 1bbd
00000060: 0e7f a33d 4ff0 0a3e 1fc5 813d b791 96bd
00000070: 119c f63c 0e2c bd3d 5263 9a3c 990c 9bbd
00000080: 94cb bc3d e774 163e 3112 543e f857 52be
00000090: 8009 0cbe 5fff 0cbe c17b f5bd 9fde aebd
000000a0: 28f3 92bd 4f34 bdbd 6ecc 773d 033c a53d
000000b0: 3ad8 983d d3ed 943d 6bca 8b3d 349b fb3c
000000c0: 4df4 13bd a37e 90bd 1d79 53be 7646 cb3d
000000d0: 9db7 c1bd 3840 04bc 48b3 523e c14c c73d
000000e0: 604f 3a3e 9b74 193e de31 48ba aa1b ea3d
000000f0: bc6f 3a3d b9d6 a4bd 997f 593d b950 223d
00000100: baed d13c bcc7 3cbe ecc7 0ebe bcd2 55bd
00000110: 54c5 0e3e d3c4 8e3d 79b7 e23c 63ab 16bd

decoder.weight_ih_l0 f4 [288, 60]
0.05956878 -0.02641571 -0.0380035 0.06026321 0.12141241 0.06732668 0.12593758 0.10710071
0.011305282 0.10614194 -0.029218473 -0.01774 0.096415 0.03603481 0.061012 0.1103285
0.07805241 0.01586299 -0.008689364 0.11352011 -0.023429982 0.104537986 0.010951578 -0.019238621
-0.016733952 0.12581389 0.027901618 0.084019184 0.010703606 -0.022890788 -0.0055917557 -0.015019765
0.040234912 0.11238888 0.042367365 -0.043345902 0.08391859 0.12775962 0.11466494 0.10941619
0.0997208 0.111075334 0.11289001 0.07389277 0.0492023 -0.04533075 0.09642864 0.032197375
0.058032915 -0.031316545 0.012716384 -0.0063478593 0.06250177 0.099966295 0.06597017 -0.0026242184
0.06415346 -0.027874127 0.09311034 0.103578344 -0.049562927 0.0078033223 0.008888847 0.03092179
0.031302053 -0.27651244 0.19438119 -0.23223601 -0.059573516 -0.18715517 -0.04591259 0.02557185
-0.0038873109 0.07659854 0.06575915 0.20244607 -0.016285013 -0.047567546 -0.14182024 0.2786004
-0.14285249 -0.05645601 -0.13249719 0.16804801 -0.02301048 0.24591422 0.093107805 0.25831673
-0.059327483 0.111673325 0.061034743 -0.24158964 0.23581547 -0.107534364 0.13495429 0.084814526
0.010734918 -0.090845056 0.111740455 0.14200264 -0.08079507 -0.0005265758 0.13719027 -0.21453533
-0.050529197 0.049787756 -0.1340503 -0.1147412 0.3118536 -0.014770566 -0.08580411 0.15305799
-0.24793454 0.1834929 -0.1406056 -0.107470036 -0.15885124 -0.17351669 -0.22400978 -0.27371526
-0.21899699 0.07315611 0.0013970261 0.17354003 0.058458757 0.0065277857 -0.14546795 -0.06899341
0.045886796 0.09395423 -0.14903378 0.010962397 -0.0031407783 0.09353256 -0.16348037 -0.10952161
-0.1428257 -0.115062 0.082058325 0.1650794 0.15106359 0.03607713 0.02975221 -0.09203479
-0.14465028 0.13875204 -0.045957927 -0.017782837 -0.19175123 -0.047269076 -0.058883827 -0.01710967
0.214566 0.092878096 0.028416244 0.10484566 -0.14189628 -0.033381723 -0.044976275 -0.17415777
0.04035542 0.08374011 0.12298311 0.15920183 0.11878153 -0.013794822 0.059733767 -0.11413483
0.12791467 0.09234686 -0.086681716 -0.08554691 0.13286331 -0.045988988 -0.07512473 0.08507058
0.01345618 -0.2929846 -0.10125645 -0.0030417244 -0.045436278 0.04422798 0.1459576 -0.026732482
-0.023505563 -0.02194293 -0.16293214 -0.45320556 -0.32632828 0.115968764 -0.047749564 0.16608118
0.25428185 0.17142701 0.11552241 0.27779004 -0.2543189 0.036686137 0.08627066 -0.0219067
-0.12767543 -0.18970634 -0.22941226 0.2037012 0.23744579 0.057462655 0.22104232 -0.10909719
-0.23784605 0.09937182 -0.44773528 -0.114686675 -0.19528691 -0.07068017 0.04793564 0.14646196
0.12903506 -0.08739686 -0.31957537 0.11156181 -0.23163053 -0.08204871 0.1408955 -0.033337634
0.14659962 0.19756395 0.13115132 0.23982278 -0.18022566 -0.39822614 -0.1857846 0.07709992
-0.1906966 -0.17760721 -0.28533816 -0.19500048 0.16902043 -0.1938497 0.055314373 0.23986703
0.0007760959 -0.026387785 -0.024278425 -0.05232517 0.024473509 8.823759e-05 -0.018596614 0.04312448
0.032307763 -0.016744854 -0.050471153 -0.048177775 -0.024544692 0.051352166 0.03442155 -0.03428024
00000000: 65fe 733d c265 d8bc 8fa9 1bbd 8ed6 763d
00000010: 12a7 f83d 92e2 893d c8f5 003e 9e57 db3d
00000020: ca39 393c f260 d93d 945b efbc 7a53 91bc
00000030: 3a75 c53d 3d99 133d b8e7 793d e9f3 e13d
00000040: f1d9 9f3d 1af3 813c d65d 0ebc 3b7d e83d
00000050: 3cf0 bfbc 0318 d63d 3f6e 333c 509a 9dbc
00000060: a415 89bc 5bd5 003e ef91 e43c 4012 ac3d
00000070: 2d5e 2f3c 7685 bbbc 0c3b b7bb 7615 76bc
00000080: 5dcd 243d 242c e63d 6789 2d3d 798b 31bd
00000090: 82dd ab3d 6bd3 023e 74d5 ea3d 9815 e03d
000000a0: 6b3a cc3d 777b e33d e132 e73d 1855 973d
000000b0: 5a88 493d bdac 39bd 617c c53d 65e1 033d
000000c0: ecb3 6d3d c745 00bd 6158 503c b401 d0bb
000000d0: ee00 803d 21bb cc3d 5e1b 873d 14fb 2bbb
000000e0: e462 833d 4858 e4bc a2b0 be3d e220 d43d
000000f0: 7f02 4bbd 03b3 ff3b 87a2 113c b24f fd3c
00000100: 9536 003d 0a93 8dbe dd0b 473e 47cf 6dbe
00000110: 5c03 74bd 9ba5 3fbe d70e 3cbd 0e7c d13c
00000120: 41c2 7ebb b2df 9c3d bcac 863d 064e 4f3e
00000130: 2668 85bc 30d6 42bd 5339 11be b6a4 8e3e
00000140: ec47 12be 6b3e 67bd 58ad 07be c714 2c3e
00000150: 7980 bcbc f0d0 7b3e 4eaf be3d 1742 843e
00000160: 6001 73bd fcb4 e43d 91ff 793d 4663 77be
00000170: 9c79 713e fa3a dcbd 7531 0a3e 3db3 ad3d
00000180: 82e1 2f3c f90c babd 2ed8 e43d 2469 113e
00000190: e377 a5bd e709 0aba 9b7b 0c3e 26af 5bbe
000001a0: b4f7 4ebd 3fee 4b3d 7b44 09be 6ffd eabd
000001b0: 46ab 9f3e 3e00 72bc 11ba afbd 3cbb 1c3e
000001c0: 8de2 7dbe 90e5 3b3e eafa 0fbe 4019 dcbd
000001d0: e6a9 22be 5cae 31be d262 65be 6824 8cbe
000001e0: bf40 60be dfd2 953d 6b1c b73a 7ab4 313e
000001f0: 7372 6f3d 09e7 d53b 8df5 14be 6b4c 8dbd
00000200: cbf3 3b3d 136b c03d 509c 18be a09b 333c
00000210: 84d5 4dbb 008e bf3d 6667 27be de4c e0bd
00000220: e640 12be a0a5 ebbd 320e a83d 930a 293e
00000230: 6ab0 1a3e 9dc5 133d e8ba f33c bc7c bcbd
00000240: 341f 14be 0415 0e3e 613e 3cbd 50ad 91bc
00000250: 6f5a 44be 389d 41bd 2b30 71bd 9429 8cbc
00000260: 31b7 5b3e df36 be3d 2fc9 e83c 52b9 d63d
00000270: 424d 11be 46bb 08bd 0b39 38bd 6a56 32be
00000280: ba4b 253d ef7f ab3d 92de fb3d ce05 233e
00000290: bb43 f33d ad03 62bc 65ab 743d 86bf e9bd
000002a0: 10fc 023e 5a20 bd3d 2f86 b1bd 3833 afbd
000002b0: 520d 083e f35e 3cbd ffda 99bd 7c39 ae3d
000002c0: 4f77 5c3c 1402 96be 8b5f cfbd ab57 47bb
000002d0: 641b 3abd 6628 353d e975 153e 14fe dabc
000002e0: bd8e c0bc a9c1 b3bc afd7 26be 8f0a e8be
000002f0: 8014 a7be 0881 ed3d 0c95 43bd 2f11 2a3e
00000300: 3b31 823e 908a 2f3e 0397 ec3d 7f3a 8e3e
00000310: 1636 82be 3444 163d acae b03d ae75 b3bc
00000320: 59bd 02be 6142 42be 0ceb 6abe 0c97 503e
00000330: fd24 733e f65d 6b3d eb58 623e 596e dfbd
00000340: ea8d 73be 7483 cb3d 8f3d e5be d9e0 eabd
00000350: 4bf9 47be c4c0 90bd 2958 443d 20fa 153e
00000360: c421 043e 20fd b2bd 629f a3be 857a e43d
00000370: 8e30 6dbe 2709 a8bd e946 103e 0b8d 08bd
00000380: 361e 163e 344e 4a3e 884c 063e 1a94 753e
00000390: 138d 38be 4ce4 cbbe 513e 3ebe 90e6 9d3d
000003a0: f845 43be aade 35be d817 92be 35ae 47be
000003b0: b113 2d3e 8980 46be 5391 623d b49f 753e
000003c0: ea72 4b3a 322b d8bc 8ce3 c6bc eb52 56bd
000003d0: ab7c c83c 320c b938 ed57 98bc 4ba3 303d
000003e0: 2555 043d 812c 89bc d7ba 4ebd 0f56 45bd
000003f0: f311 c9bc a656 523d 9cfd 0c3d 7069 0cbd
