Models/artifact_4/dense_ae.pt (torch, 32194 bytes, 12 tensors)

enc.0.weight f4 [40, 60]
0.043269545 -0.06769681 -0.098390214 0.009175398 0.047400497 0.051541824 0.076472335 -0.036975678
-0.09435632 0.0488818 -0.02273648 0.07144964 -0.0034548454 -0.14937739 -0.09501386 0.06199444
-0.14663246 -0.08017081 -0.04289221 -0.17169954 0.07733882 -0.0150874425 0.036649317 0.06311278
0.0009212857 -0.11697264 0.007854865 0.01982129 0.053733822 -0.075631216 -0.11656666 -0.027229208
-0.058867812 -0.092719726 0.051601905 0.06780143 0.023656191 0.032071706 -0.08923674 -0.16568227
-0.02628911 0.071041085 -0.034722827 -0.09547766 0.0006433934 0.017124005 -0.12758224 0.026941499
0.06475605 -0.029080112 0.059942093 -0.15264633 0.012739399 0.0044675204 0.031738576 0.0168975
-0.011440411 0.044675183 -0.044647276 -0.11109086 0.09026422 0.06054929 -0.01994865 0.11425986
0.07823561 0.17269951 0.014019109 -0.09587548 0.06673145 0.020157121 0.16307773 0.000946527
0.09985218 0.07316183 0.01856063 -0.0034497597 0.059015512 -0.017198715 0.06866895 -0.034128293
-0.07549646 0.1605867 0.11984726 0.108186536 -0.056265514 0.16271302 -0.06763858 0.15776563
0.04105909 0.06499187 0.1963674 0.06840585 -0.045346454 0.13619319 0.037752073 0.1458769
0.1764191 0.055894446 -0.02492806 0.010745762 0.053776275 0.09288203 -0.054242022 0.03388107
0.005809601 -0.03660711 -0.0032125423 -0.111596845 0.017408047 -0.018374786 0.10750922 0.07097278
0.113158435 -0.08743737 0.08846211 0.008220555 -0.053731676 -0.0010294095 -0.04034058 -0.015590158
0.07057919 0.12203041 0.069241054 -0.064258456 0.08014508 0.16543743 0.12297284 0.13754271
0.050936785 0.0075154314 0.111634284 0.03302355 0.017581036 -0.003017839 0.103518166 0.0574771
0.14621711 -0.008732809 -0.043912143 -0.033008408 -0.09272246 -0.032707892 0.051449906 -0.009942776
0.04701116 0.011615616 -0.041198127 0.17039147 0.09161299 0.05007663 0.2163128 -0.009782065
0.116449274 -0.10852777 -0.04883472 0.14781214 0.09560648 0.1468038 0.12519187 -0.027067801
0.08729279 0.16190086 0.20637193 0.20318252 0.1766234 0.065496854 -0.10805024 0.062529415
0.1103268 0.12648098 0.06982765 0.0981534 -0.01631328 0.1598073 0.11595831 0.13285714
0.083171256 -0.0716901 0.09822701 -0.06536426 -0.09411171 0.035975218 0.037005305 -0.09290759
-0.012759097 0.017549291 -0.028264374 0.04509081 -0.011470363 -0.11106412 -0.05560457 0.041320294
0.115060255 -0.032295726 -0.12497845 -0.12326498 -0.07112747 0.12007518 0.043308675 -0.01382637
0.0065516084 -0.10594255 0.10360867 -0.03814894 -0.108425066 -0.120840326 -0.0946451 -0.008623578
0.001336053 -0.044883937 0.039483353 -0.06549012 -0.044981413 0.09529735 0.04510498 -0.011534728
0.09418601 0.025806323 -0.08120145 -0.006328523 0.02494371 0.12017082 -0.11685486 0.060686037
-0.069192395 -0.03337139 -0.027283713 -0.057179123 0.07618295 -0.0537209 0.06448126 0.012356743
-0.12495309 -0.03768093 0.09267703 0.015674919 -0.0660792 0.05502236 -0.0017165393 -0.06542556
-0.061107732 -0.05159636 0.03336984 0.08053313 0.07072823 0.0005684048 -0.12169902 -0.035280667
0.025026336 -0.007208176 -0.083566114 -0.09993358 0.03362651 0.068471715 -0.026494697 0.010990277
00000000: 683b 313d a0a4 8abd cf80 c9bd 6954 163c
00000010: 0627 423d 851d 533d 879d 9c3d cf73 17bd
00000020: e33d c1bd 4838 483d db41 babc 3054 923d
00000030: b06a 62bb 63f6 18be a096 c2bd e2ed 7d3d
00000040: d226 16be 9830 a4bd beaf 2fbd 01d2 2fbe
00000050: d163 9e3d 5231 77bc 981d 163d 4641 813d
00000060: 7082 713a 5a8f efbd b1b1 003c 4260 a23c
00000070: ff17 5c3d 8ae4 9abd 80ba eebd ca0f dfbc
00000080: 601f 71bd d7e3 bdbd 855c 533d 7adb 8a3d
00000090: a1ca c13c 9f5d 033d c0c1 b6bd 9da8 29be
000000a0: 425c d7bc fd7d 913d 8639 0ebd cb89 c3bd
000000b0: 66a9 283a a447 8c3c eba4 02be 6bb4 dc3c
000000c0: d29e 843d 6a39 eebc d785 753d 524f 1cbe
000000d0: eab8 503c 4764 923b 4f00 023d a06c 8a3c
000000e0: 9070 3bbc 53fd 363d 10e0 36bd 9b83 e3bd
000000f0: 73dc b83d 8802 783d 5a6b a3bc 1301 ea3d
00000100: fe39 a03d 24d8 303e 68b0 653c 5d5a c4bd
00000110: 80aa 883d 8c20 a53c d9fd 263e 5a20 783a
00000120: 4d7f cc3d dfd5 953d 760c 983c 5d15 62bb
00000130: 40ba 713d 52e4 8cbc 4ea2 8c3d 1cca 0bbd
00000140: e39d 9abd d770 243e 7b72 f53d e790 dd3d
00000150: ab76 66bd 3e9e 263e 1986 8abd 508d 213e
00000160: 942d 283d 751a 853d 8914 493e 5e18 8c3d
00000170: 34bd 39bd 3a76 0b3e eba1 1a3d c160 153e
00000180: 35a7 343e 93f1 643d ee35 ccbc fe0e 303c
00000190: 8344 5c3d ef38 be3d e22c 5ebd e0c6 0a3d
000001a0: 775e be3b 56f1 15bd 8489 52bb e38c e4bd
000001b0: 529b 8e3c b886 96bc cb2d dc3d 2d5a 913d
000001c0: 9cbf e73d 5d12 b3bd 9f2b b53d 82af 063c
000001d0: bf15 5cbd 40ed 86ba 2a3c 25bd dd6d 7fbc
000001e0: d38b 903d 14eb f93d 41ce 8d3d f099 83bd
000001f0: 1b23 a43d 6e68 293e 2fd9 fb3d ffd7 0c3e
00000200: 17a3 503d 0244 f63b 84a0 e43d b443 073d
00000210: 1b06 903c f0c6 45bb 5501 d43d 1c6d 6b3d
00000220: f0b9 153e 0e14 0fbc 38dd 33bd d333 07bd
00000230: 46e5 bdbd b6f8 05bd 23bd 523d 06e7 22bc
00000240: c68e 403d 6d4f 3e3c 5ebf 28bd 1a7b 2e3e
00000250: 979f bb3d 271d 4d3d 1a81 5d3e f444 20bc
00000260: f57c ee3d cf43 debd ea06 48bd 115c 173e
00000270: 55cd c33d bc53 163e 4c32 003e 4bbd ddbc
00000280: 90c6 b23d 57c9 253e 2a53 533e 140f 503e
00000290: c4dc 343e 3723 863d 7249 ddbd 6c0f 803d
000002a0: 04f3 e13d 3b84 013e cd01 8f3d a604 c93d
000002b0: 6ea3 85bc 86a4 233e 8d7b ed3d b40b 083e
000002c0: b155 aa3d 42d2 92bd 3e2b c93d b2dd 85bd
000002d0: a4bd c0bd c05a 133d e092 173d 5646 bebd
000002e0: 880b 51bc 88c3 8f3c b08a e7bc 24b1 383d
000002f0: 30ee 3bbc 9675 e3bd 9ec1 63bd 783f 293d
00000300: b6a4 eb3d 8648 04bd b4f4 ffbd 5a72 fcbd
00000310: 47ab 91bd fae9 f53d 7064 313d 0088 62bc
00000320: e0ae d63b 68f8 d8bd c830 d43d 1042 1cbd
00000330: f60d debd 227b f7bd 4ad5 c1bd e849 0dbc
00000340: 801e af3a 38d8 37bd 4cb9 213d af1f 86bd
00000350: 6e3e 38bd 422b c33d 00c0 383d 28fc 3cbc
00000360: 98e4 c03d c867 d33c f24c a6bd 805f cfbb
00000370: c056 cc3c 1e1c f63d 9a51 efbd ec91 783d
00000380: beb4 8dbd 70b0 08bd 1882 dfbc a834 6abd
00000390: ce05 9c3d 720a 5cbd c00e 843d f073 4a3c
000003a0: 68e7 ffbd 5257 1abd 74cd bd3d b068 803c
000003b0: 8854 87bd 205f 613d 80fd e0ba d6fd 85bd
000003c0: 1a4c 7abd b456 53bd d0ae 083d 8eee a43d
000003d0: f6d9 903d 0001 153a 563d f9bd 7682 10bd
000003e0: 0804 cd3c 9032 ecbb b624 abbd faa9 ccbd
000003f0: f4bb 093d e63a 8c3d 680b d9bc 9010 343c

enc.0.bias f4 [40]
-0.14202572 -0.019771313 -0.007166071 -0.04757054 -0.061858818 -0.06121081 0.064293236 -0.019388024
-0.10818743 -0.060776193 0.08577067 0.010005632 -0.084374025 -0.015215245 0.07018906 0.05943779
-0.03658729 0.10202624 -0.10508158 0.024444003 -0.16084918 -0.11799473 -0.06719674 -0.024323799
-0.1310196 -0.0043386077 0.040695786 -0.0540734 0.10851627 -0.09359014 -0.20354885 -0.14687109
-0.002519682 0.016795188 -0.022036117 -0.112534896 -0.027506389 0.03423006 0.068077475 -0.13526303
00000000: 316f 11be 73f7 a1bc 5cd1 eabb 54d9 42bd
00000010: ac5f 7dbd 30b8 7abd 2cac 833d a2d3 9ebc
00000020: 5f91 ddbd 75f0 78bd 88a8 af3d aaee 233c
00000030: 4acc acbd 5d49 79bc 48bf 8f3d 0a75 733d
00000040: 8edc 15bd 22f3 d03d 0335 d7bd ca3e c83c
00000050: a6b5 24be 39a7 f1bd 729e 89bd b442 c7bc
00000060: 012a 06be e12a 8ebb a0b0 263d 127c 5dbd
00000070: c73d de3d 30ac bfbd 1c6f 50be 6065 16be
00000080: 4021 25bb 1096 893c 1685 b4bc b278 e6bd
00000090: 1455 e1bc d234 0c3d 346c 8b3d 6482 0abe

enc.2.weight f4 [20, 40]
-0.12154327 -0.039429773 -0.14293708 0.07479541 -0.05799277 0.06195317 -0.12754862 -0.135006
0.06390892 0.11641456 0.09432696 0.06306355 -0.051990084 0.03282339 0.065084085 -0.08085216
0.060976177 -0.028343912 0.12379214 -0.036768667 -0.024015391 0.106311806 -0.14424595 -0.06908503
0.03019006 -0.07966719 -0.055904005 0.13537677 0.38077238 -0.11950683 0.12898462 -0.06173353
-0.014626056 0.1175953 0.037916034 0.12967382 -0.04507695 0.15346716 -0.036898673 0.16783233
0.08082315 -0.13848068 -0.12585607 -0.10832199 -0.13570827 -0.16045903 0.107384 -0.014347926
0.1026032 -0.0067598363 0.062608376 -0.077050485 -0.08590709 -0.004927758 0.09436024 0.0064346897
0.13124959 -0.07402988 0.05175679 0.1414481 -0.039341673 -0.07411064 0.0075422972 0.11223908
-0.09877377 0.08974929 0.04068441 0.02742599 -0.09513653 0.06954909 -0.06563325 -0.023357816
-0.12710276 -0.1533435 -0.028290981 -0.12122527 -0.09988302 -0.005779661 0.03769911 -0.17540973
-0.06852538 0.022017604 -0.04570961 -0.13276108 -0.13619061 0.06468883 -0.09843525 0.070443526
-0.09317042 -0.055967294 0.11107354 0.06974502 0.12803672 0.01862554 0.05362893 -0.0008283622
-0.0988522 0.07951644 -0.042794548 -0.051741105 0.128734 0.04251723 0.04790075 -0.0665553
-0.004963342 -0.0011636487 0.1373132 -0.15662654 0.46773928 -0.042091675 0.12408546 -0.025803294
-0.10661298 -0.005207658 0.06579094 0.027950527 0.10690667 0.03932793 0.030067364 -0.0777968
0.080919996 0.12742686 0.008004021 0.15370505 -0.10403293 -0.02571424 -0.101810105 -0.061535586
-0.017191276 -0.15105976 -0.15613018 -0.034546472 0.113251016 0.095260605 0.06504529 -0.00032738494
0.08527313 -0.05698821 -0.07228332 0.09283115 -0.0812952 -0.14047927 -0.043497182 0.03741418
-0.17215258 0.03795554 -0.17041267 0.06853627 -0.02131316 -0.116464 -0.08042179 0.09658978
0.046144232 -0.035380825 -0.06567873 -0.14731573 0.030603673 0.12026948 -0.16334486 0.027183093
-0.06002111 -0.05768507 -0.13994573 0.14237563 0.07421601 -0.12687717 -0.12567952 -0.15301669
0.0037027597 -0.14848128 -0.10029917 0.024862587 -0.12393594 -0.062027737 -0.13104692 0.08215901
-0.15564917 0.06657091 0.09928019 0.13763459 -0.069520675 -0.14625289 -0.08694817 -0.12311733
0.05329846 -0.09698798 -0.13675831 -0.083944395 0.09067176 -0.1579696 -0.09958343 -0.15299258
-0.1235054 0.05578488 0.057479084 0.04897158 0.10699989 -0.11735054 0.017247096 0.0012242943
-0.021445332 -0.02352758 -0.06292807 -0.08870311 -0.046970084 -0.107820354 -0.11316215 0.09965997
-0.09779728 0.08198196 0.03716962 0.02015242 -0.15799221 -0.05379811 0.122691475 0.10352584
-0.012356114 0.0920245 0.08939233 -0.06483621 0.050615743 -0.119578265 -0.057119265 -0.07122936
-0.15456793 -0.116707765 0.011716533 0.07821858 -0.13427514 -0.085340425 -0.042871404 0.04022373
0.04402408 -0.058631912 -0.10139203 0.028083934 -0.08186643 0.035619006 0.12393576 0.021012051
0.15466683 -0.025215264 -0.084699586 0.13458626 -0.11906079 0.13507113 0.0058711176 0.005562365
-0.031038066 0.1657554 0.09427519 -0.09123999 -0.00659509 -0.09452037 -0.124125086 0.077547714
00000000: aeeb f8bd 1d81 21bd 195e 12be 562e 993d
00000010: d489 6dbd 9bc2 7d3d 1b9c 02be 033f 0abe
00000020: aee2 823d c26a ee3d 7e2e c13d 7627 813d
00000030: 8ef3 54bd d271 063d ce4a 853d d195 a5bd
00000040: 28c2 793d 7e31 e8bc bc86 fd3d be9a 16bd
00000050: edbb c4bc 01ba d93d 36b5 13be 747c 8dbd
00000060: 2551 f73c 8d28 a3bd 99fb 64bd 35a0 0a3e
00000070: 99f4 c23e ffbf f4bd 8b14 043e 4cdc 7cbd
00000080: 20a2 6fbc ced5 f03d d84d 1b3d 37c9 043e
00000090: 9ca2 38bd 7f26 1d3e 1023 17bd 3ddc 2b3e
000000a0: 9c86 a53d e1cd 0dbe 6ae0 00be ebd7 ddbd
000000b0: 1cf7 0abe 5f4f 24be 25ec db3d 9013 6bbc
000000c0: a021 d23d 9e81 ddbb d238 803d a5cc 9dbd
000000d0: 0ef0 afbd 0879 a1bb f13f c13d 17da d23b
000000e0: 4b66 063e fa9c 97bd eefe 533d c5d7 103e
000000f0: bc24 21bd 52c7 97bd 6025 f73b 9add e53d
00000100: e749 cabd 7ace b73d b2a4 263d 78ac e03c
00000110: f1d6 c2bd c16f 8e3d ba6a 86bd e458 bfbc
00000120: 3a27 02be 1406 1dbe 7dc2 e7bc f444 f8bd
00000130: 788f ccbd 4f63 bdbb 626a 1a3d 9c9e 33be
00000140: 0957 8cbd 435e b43c 003a 3bbd 85f2 07be
00000150: 8d75 0bbe 947b 843d 6c98 c9bd b244 903d
00000160: 22d0 bebd f63d 65bd 867a e33d 7ad6 8e3d
00000170: 0f1c 033e 9794 983c 02aa 5b3d 7226 59ba
00000180: 0673 cabd 84d9 a23d 5649 2fbd 7bee 53bd
00000190: d8d2 033e 8c26 2e3d 9433 443d 254e 88bd
000001a0: 88a3 a2bb 9285 98ba d59b 0c3e b562 20be
000001b0: 867b ef3e 5268 2cbd 8520 fe3d 6e61 d3bc
000001c0: e857 dabd 00a5 aabb 66bd 863d 81f8 e43c
000001d0: e2f1 da3d 5316 213d d54f f63c ee53 9fbd
000001e0: 62b9 a53d 307c 023e 4c23 033c db64 1d3e
000001f0: 380f d5bd aba6 d2bc d181 d0bd bd0c 7cbd
00000200: b8d4 8cbc 69af 1abe 97e0 1fbe 9a80 0dbd
00000210: 26f0 e73d fe17 c33d 7736 853d dda4 abb9
00000220: aea3 ae3d 786c 69bd 4709 94bd 421e be3d
00000230: 197e a6bd ccd9 0fbe 1a2a 32bd 9c3f 193d
00000240: c448 30be 4577 1b3d a980 2ebe be5c 8c3d
00000250: f098 aebc ad84 eebd 2eb4 a4bd ddd0 c53d
00000260: bc01 3d3d 7ceb 10bd 9282 86bd efd9 16be
00000270: 8eb4 fa3c d84f f63d e043 27be 14af de3c
00000280: b2d8 75bd 2e47 6cbd ef4d 0fbe ebca 113e
00000290: 90fe 973d 17ec 01be 22b2 00be 68b0 1cbe
000002a0: 00aa 723b 7a0b 18be a769 cdbd a0ac cb3c
000002b0: 20d2 fdbd cc10 7ebd 2a31 06be fc42 a83d
000002c0: 7f62 1fbe 5456 883d 6a53 cb3d 15f0 0c3e
000002d0: db60 8ebd 51c3 15be e211 b2bd f024 fcbd
000002e0: 7c4f 5a3d a2a1 c6bd 5f0a 0cbe 0aeb abbd
000002f0: 1eb2 b93d c8c2 21be 66f2 cbbd 16aa 1cbe
00000300: 66f0 fcbd b07e 643d 306f 6b3d 6c96 483d
00000310: c222 db3d 7b55 f0bd c849 8d3c 8078 a03a
00000320: 1fae afbc e9bc c0bc 6fe0 80bd faa9 b5bd
00000330: b463 40bd ebd0 dcbd 8fc1 e7bd 871a cc3d
00000340: f149 c8bd 28e6 a73d 2c3f 183d b016 a53c
00000350: b6c8 21be 685b 5cbd ab45 fb3d 5b05 d43d
00000360: 4c71 4abc 5777 bc3d 5313 b73d d9c8 84bd
00000370: 7452 4f3d 73e5 f4bd e4f5 69bd b3e0 91bd
00000380: 0e47 1ebe 7b04 efbd b4f6 3f3c 1031 a03d
00000390: 6c7f 09be f6c6 aebd ed99 2fbd a3c1 243d
000003a0: 9852 343d 0428 70bd a0a6 cfbd 4710 e63c
000003b0: 96a9 a7bd 3ce5 113d 08d2 fd3d 7721 ac3c
000003c0: fb60 1e3e 3e90 cebc fa76 adbd fbd0 093e
000003d0: 25d6 f3bd 1650 0a3e 8162 c03b 8044 b63b
000003e0: 8b43 febc c9bb 293e 5a13 c13d 08dc babd
000003f0: a01b d8bb e593 c1bd 4b35 febd 56d1 9e3d

enc.2.bias f4 [20]
-0.17292187 0.13106948 -0.1584725 -0.058732115 0.06898919 0.013508729 0.13533029 -0.16260514
-0.15748958 -0.0359544 0.05289506 0.014133021 0.060258325 0.024038047 -0.080533385 -0.12010629
-0.14350961 0.10797779 -0.13034402 -0.1172532
00000000: 6e12 31be 1437 063e 9d46 22be 1691 70bd
00000010: 344a 8d3d b753 5d3c 0694 0a3e f681 26be
00000020: f344 21be ec44 13bd 7ea8 583d 308e 673c
00000030: 6fd1 763d 70eb c43c b0ee a4bd 49fa f5bd
00000040: 2ff4 12be 7623 dd3d e778 05be 7222 f0bd

enc.4.weight f4 [10, 20]
-0.17779648 0.18610868 -0.19009705 -0.14772001 -0.0063456297 -0.02437095 -0.06304925 0.124873
-0.027873423 -0.23531076 0.08790018 -0.021697566 -0.15797178 0.14164062 -0.2076702 0.13062723
0.15238814 -0.04400216 -0.20566243 -0.052332968 0.15098387 -0.1250569 -0.06476778 0.19459298
-0.15558344 -0.07464898 0.12963489 -0.21850248 -0.11460311 0.12218633 -0.13129526 0.02942875
-0.10576896 -0.15725727 -0.111385085 -0.13121049 -0.16651878 -0.10276144 -0.10292977 0.17575729
0.09398022 -0.11962156 -0.0013498606 -0.13500845 0.070727885 -0.11461085 0.049994104 0.1639867
0.2527067 -0.019863863 -0.029704748 0.13556343 0.18798271 -0.16792654 0.24643126 -0.20175727
0.14197671 0.14402488 0.1961763 0.1452392 0.15338194 0.19089323 -0.0065345317 -0.039266348
0.0039533526 0.1811282 0.16533631 -0.16218261 -0.05277577 -0.022529677 0.05365202 -0.18555304
-0.1885671 -0.061898574 -0.13561033 -0.1620098 -0.18267314 0.06353101 -0.034945413 0.047529966
-0.13719353 -0.15387954 0.121664986 -0.066833526 0.21719295 0.12726569 -0.20694599 0.119752266
-0.14028382 0.17481618 0.091019206 -0.13529083 -0.03343407 0.07214734 -0.0860376 -0.23129621
0.15640515 -0.020908222 -0.07681365 0.0851694 0.022331947 0.1493503 -0.29142472 -0.13475958
0.14334026 -0.17559882 -0.0070700804 0.07412609 -0.028031966 0.012460365 0.13318136 -0.13372403
0.08887885 0.025662377 0.046505246 -0.12673753 -0.076209575 -0.13357878 -0.004042998 0.04921008
-0.04827833 0.033643812 0.13816962 -0.19475116 -0.12558378 -0.13817126 -0.16460435 0.14556926
-0.14687558 0.17421424 -0.01027216 0.04752457 -0.10952485 -0.14464843 -0.0754857 0.12066072
0.049815655 0.18043795 -0.051864143 0.09107723 -0.0272505 0.22551467 -0.0560541 0.017681757
-0.18959278 0.12129049 0.012434201 0.15462238 -0.12322164 0.044968475 0.0576914 0.11934069
0.07114148 -0.17207566 0.039483335 -0.05790202 -0.031282913 -0.046128675 0.09563339 0.68215156
0.16396512 -0.124028474 0.084241994 -0.16363657 -0.2066715 0.04461218 -0.040376604 0.058130663
0.1848214 0.23116677 -0.23821753 -0.16479853 0.027136307 0.14276159 -0.13100082 -0.21534853
-0.18583858 -0.1267326 -0.11094228 0.26806423 -0.18172471 0.15679297 -0.2437609 -0.120978154
-0.15794677 -0.09846547 0.21909398 -0.14010978 -0.020498658 0.028153688 0.13787717 -0.2056737
-0.14080612 -0.04666917 -0.22407553 0.0862802 -0.04392951 -0.030082315 -0.015887804 0.1359039
00000000: 4810 36be 4693 3e3e cda8 42be ea43 17be
00000010: 00ef cfbb 96a5 c7bc f71f 81bd 6abd ff3d
00000020: ce56 e4bc 4ef5 70be 0205 b43d 18bf b1bc
00000030: 5bc3 21be 3d0a 113e 7fa7 54be 25c3 053e
00000040: a30b 1c3e 9c3b 34bd 2c99 52be 185b 56bd
00000050: 849b 1a3e ea0e 00be f8a4 84bd 6243 473e
00000060: 4451 1fbe 90e1 98bd 02bf 043e 1dbf 5fbe
00000070: 09b5 eabd d43c fa3d 4472 06be 9014 f13c
00000080: 669d d8bd 0d08 21be dd1d e4bd 0b5c 06be
00000090: e683 2abe 9774 d2bd d8cc d2bd b8f9 333e
000000a0: b478 c03d 26fc f4bd ceed b0ba a83f 0abe
000000b0: c8d9 903d 18b9 eabd 9ec6 4c3d 21ec 273e
000000c0: c662 813e 8ab9 a2bc 5f57 f3bc 24d1 0a3e
000000d0: 8a7e 403e eff4 2bbe 7a58 7c3e 7599 4ebe
000000e0: 5862 113e 427b 133e 71e2 483e 96b9 143e
000000f0: 2810 1d3e 8479 433e a01f d6bb c0d5 20bd
00000100: 208b 813b ac79 393e ec4d 293e 3313 26be
00000110: 682b 58bd 2890 b8bc 38c2 5b3d 9e01 3ebe
00000120: bc17 41be 5c89 7dbd 6fdd 0abe e6e5 25be
00000130: ab0e 3bbe 8c1c 823d ec22 0fbd c8ae 423d
00000140: 767c 0cbe 9992 1dbe 7e2b f93d 04e0 88bd
00000150: d467 5e3e f051 023e a6e9 53be ad40 f53d
00000160: 90a6 0fbe 0303 333e 4768 ba3d ae89 0abe
00000170: 2af2 08bd fcc1 933d 7b34 b0bd ead8 6cbe
00000180: ac28 203e b847 abbc 7a50 9dbd 4b6d ae3d
00000190: 7df1 b63c 49ef 183e 9f35 95be 6afe 09be
000001a0: cac7 123e 2dd0 33be 22ac e7bb 6bcf 973d
000001b0: 4ba3 e5bc 8f26 4c3c b260 083e f4ee 08be
000001c0: 1d06 b63d e839 d23c 497c 3e3d 7cc7 01be
000001d0: c413 9cbd e0c8 08be 207b 84bb 8290 493d
000001e0: 80bf 45bd 18ce 093d 567c 0d3e d96c 47be
000001f0: 0999 00be c47c 0dbe 0b8e 28be 1c10 153e
00000200: 8d66 16be 3865 323e 904c 28bc 20a9 423d
00000210: 914e e0bd b81e 14be 3f98 9abd f81c f73d
00000220: 800b 4c3d bac4 383e 7f6f 54bd b386 ba3d
00000230: 713c dfbc 51ed 663e fc98 65bd 55d9 903c
00000240: 9c24 42be 2667 f83d d2b8 4b3c 5455 1e3e
00000250: a15b fcbd dd30 383d d14d 6c3d e468 f43d
00000260: a0b2 913d 9a34 30be 47b9 213d ab2a 6dbd
00000270: 8322 00bd 6cf1 3cbd 70db c33d 7ca1 2e3f
00000280: 79e6 273e a402 febd 1187 ac3d 5890 27be
00000290: b2a1 53be 43bb 363d f061 25bd 6b1a 6e3d
000002a0: d241 3d3e fbb6 6c3e 4cef 73be f2c0 28be
000002b0: f64c de3c 1830 123e 1425 06be 5384 5cbe
000002c0: 784c 3ebe 31c6 01be b535 e3bd b73f 893e
000002d0: 0b16 3abe 568e 203e 759c 79be 65c3 f7bd
000002e0: ccbc 21be 44a8 c9bd 2c5a 603e f078 0fbe
000002f0: cdec a7bc 90a2 e63c ac2f 0d3e 209c 52be
00000300: 7b2f 10be 2c28 3fbd 0e74 65be acb3 b03d
00000310: 6eef 33bd 306f f6bc 2427 82bc 642a 0b3e

enc.4.bias f4 [10]
0.0946658 -0.041641578 0.08212337 -0.079717666 -0.066814475 -0.19899343 -0.13970749 0.17483419
-0.032003798 -0.2575876
00000000: 25e0 c13d 5c90 2abd 4c30 a83d 0443 a3bd
00000010: 07d6 88bd efc4 4bbe 7b0f 0fbe bc07 333e
00000020: 6a16 03bd 86e2 83be

dec.0.weight f4 [20, 10]
-0.10683675 -0.18336624 0.2003275 0.2773328 0.33085132 -0.18097624 -0.06626229 -0.1372194
0.14112169 0.13595754 -0.2592572 0.08733886 0.26879653 0.009962082 -0.20957905 -0.18928723
0.25257877 0.028282715 -0.2650163 -0.03426799 0.03786453 -0.068988636 0.037916064 -0.09435865
-0.16744979 -0.14982869 -0.075328186 -0.13458131 0.037891947 -0.21703859 -0.16947618 0.18575439
-0.25805143 -0.033011705 -0.1553483 -0.25467244 -0.08832237 0.2496905 -0.07706103 0.122529656
0.07104112 0.15338585 0.003218743 -0.24870622 0.21521087 0.09759274 -0.036210477 -0.051432084
0.4202261 0.107269734 -0.2305823 0.153278 0.03425334 -0.30545053 -0.21111022 0.13933325
-0.042402893 -0.45644477 0.346934 -0.24117438 -0.08950527 -0.12799756 -0.21236904 0.187875
0.25452867 0.23776035 0.14977735 -0.3137828 -0.2528653 0.31128427 0.21006697 -0.16151829
0.15155844 0.19318739 0.15862735 -0.11681445 -0.06005588 0.11050876 -0.13154034 -0.056951463
-0.033509076 -0.14515193 0.31971034 0.12619388 0.17908782 -0.041938797 0.143509 -0.28472057
0.05270261 0.14431486 -0.018090427 0.24866572 -0.009725582 0.07159975 0.018825285 0.10142289
0.23815396 -0.014525514 0.0856869 0.11545816 0.05793007 -0.2940096 -0.13148999 -0.089771524
0.0716474 0.15570112 -0.117294006 0.18570857 0.26315343 0.051115096 0.027764684 0.21949324
-0.25788656 0.1763421 -0.07597089 0.21108612 0.23297426 -0.2893796 -0.13936073 -0.17780381
-0.1242247 0.03687817 0.018655311 0.03788352 0.116682895 -0.04193442 -0.063298434 0.12996598
-0.5234206 0.25879154 -0.22518072 0.046991885 -0.15139508 0.1547794 0.18329427 0.20157802
0.01199463 0.16532204 -0.17973341 -0.28019953 0.085500985 -0.20094426 -0.13004765 0.1562573
-0.24536826 -0.08555452 -0.22432795 0.09411216 -0.13256428 -0.3062682 -0.06351322 0.17158157
0.062478572 0.10473028 0.18974599 0.036197573 -0.02066201 -0.2952313 0.010296196 0.22816005
-0.24339178 -0.013095319 0.20989566 0.16978648 0.102879904 0.24620406 0.29831967 -0.22447838
0.24415019 0.25606844 0.03133176 0.3104721 0.13769141 0.14695033 -0.024218196 -0.16665387
0.2111493 -0.12043865 -0.09787545 -0.08273777 0.019420484 0.24687827 0.30834782 -0.027071893
-0.27322292 0.20952451 -0.08975026 -0.1544489 0.10199353 0.31223503 0.17696485 0.2023448
-0.18758763 -0.17418084 0.083417244 0.38170967 0.021092147 0.11439526 0.048551735 -0.23921096
00000000: 3acd dabd 5cc4 3bbe a722 4d3e 91fe 8d3e
00000010: 5865 a93e d651 39be 86b4 87bd 3e83 0cbe
00000020: 3482 103e 7438 0b3e 5cbd 84be b7de b23d
00000030: b39f 893e 0038 233c e49b 56be 83d4 41be
00000040: 0152 813e 27b1 e73c 37b0 87be 985c 0cbd
00000050: d617 1b3d ea49 8dbd e04d 1b3d 1c3f c1bd
00000060: f577 2bbe b16c 19be aa45 9abd afcf 09be
00000070: 9634 1b3d 5d3f 5ebe 2a8b 2dbe 6636 3e3e
00000080: 511f 84be 4837 07bd a013 1fbe 6d64 82be
00000090: 5ce2 b4bd deae 7f3e 2cd2 9dbd d4f0 fa3d
000000a0: 027e 913d 2e11 1d3e 8cf1 523b d8ac 7ebe
000000b0: 3d60 5c3e b4de c73d 7051 14bd 73aa 52bd
000000c0: e027 d73e 3cb0 db3d c41d 6cbe e8f4 1c3e
000000d0: 3b4d 0c3d 0364 9cbe 472d 58be 60ad 0e3e
000000e0: a8ae 2dbd 21b3 e9be 55a1 b13e 6bf6 76be
000000f0: 8a4e b7bd cb11 03be 4577 59be 4e62 403e
00000100: 9551 823e 7377 733e 3c5f 193e 24a8 a0be
00000110: 9077 81be a760 9f3e cc1b 573e 0d65 25be
00000120: 2332 1b3e ead2 453e 356f 223e 6a3c efbd
00000130: 28fd 75bd 6b52 e23d 83b2 06be f045 69bd
00000140: d040 09bd b5a2 14be 13b1 a33e f838 013e
00000150: cc62 373e 04c8 2bbd 06f4 123e e5c6 91be
00000160: b1de 573d 46c7 133e 6032 94bc 3aa2 7e3e
00000170: 0c58 1fbc e4a2 923d 7c37 9a3c ceb6 cf3d
00000180: a2de 733e 6cfc 6dbc 9d7c af3d 5475 ec3d
00000190: 1548 6d3d 6d88 96be 50a5 06be 22da b7bd
000001a0: dfbb 923d 1d70 1f3e d737 f0bd 632a 3e3e
000001b0: 0cbc 863e 105e 513d c372 e33c d6c2 603e
000001c0: b509 84be 0693 343e a096 9bbd f626 583e
000001d0: ce90 6e3e 9029 94be 94b4 0ebe 3412 36be
000001e0: 8569 febd 900d 173d 06d3 983c c02b 1b3d
000001f0: 71f7 ee3d 6dc3 2bbd 9ca2 81bd cd15 053e
00000200: e4fe 05bf 5380 843e c695 66be 907a 403d
00000210: 5007 1bbe 7e7e 1e3e 7eb1 3b3e 786a 4e3e
00000220: 2085 443c 2e4a 293e 090c 38be 5076 8fbe
00000230: 241b af3d 55c4 4dbe 362b 05be ea01 203e
00000240: d141 7bbe 3537 afbd 3ab6 65be e0bd c03d
00000250: eebe 07be 2fcf 9cbe 3813 82bd 14b3 2f3e
00000260: 88e9 7f3d d47c d63d c64c 423e e843 143d
00000270: 6043 a9bc 8f28 97be 60b1 283c caa2 693e
00000280: b23b 79be c08d 56bc e3ee 563e 82dc 2d3e
00000290: b3b2 d23d eb1c 7c3e 5bbd 983e a9dd 65be
000002a0: 8202 7a3e 671b 833e bb55 003d 33f6 9e3e
000002b0: fafe 0c3e 267a 163e 3d65 c6bc 50a7 2abe
000002c0: 8637 583e 8aa8 f6bd ed72 c8bd 6c72 a9bd
000002d0: b517 9f3c a8cd 7c3e c4df 9d3e e0c5 ddbc
000002e0: e0e3 8bbe 988d 563e fcce b7bd da27 1ebe
000002f0: fce1 d03d 45dd 9f3e 4636 353e 7a33 4f3e
00000300: f916 40be 765c 32be a9d6 aa3d 736f c33e
00000310: 70c9 ac3c 1048 ea3d 2fde 463d b8f3 74be

dec.0.bias f4 [20]
-0.27487725 0.26863247 0.108947724 -0.06908129 -0.0050851176 0.40746546 0.12384331 0.23557985
-0.18864538 -0.20567596 0.18730183 0.2260796 -0.10003726 -0.124446355 0.1268855 -0.30988196
0.027901273 0.06886895 0.019137602 0.34727922
00000000: b6bc 8cbe 328a 893e fc1f df3d 7e7a 8dbd
00000010: 0fa1 a6bb 509f d03e 90a1 fd3d d83b 713e
00000020: 412c 41be b89c 52be 0dcc 3f3e 6981 673e
00000030: 56e0 ccbd bbdd febd 46ee 013e d9a8 9ebe
00000040: 3691 e43c 2a0b 8d3d 76c6 9c3c 95ce b13e

dec.2.weight f4 [40, 20]
0.1459054 -0.17694513 0.20718312 0.041272283 -0.07691905 -0.2173782 0.12613672 0.103633046
0.12606099 0.14700621 -0.12346583 0.1109131 -0.08695984 -0.02798134 -0.039500445 -0.20068535
-0.11765988 -0.16878672 0.11858451 -0.17999867 0.30409762 -0.10511963 -0.2556865 -0.09718989
0.27718845 -0.2711533 -0.07551344 0.17543007 -0.14180961 0.14323923 -0.039903596 0.16967557
-0.22435069 -0.12232104 0.099030174 -0.21928628 -0.012109907 0.020024898 0.22600771 -0.13756806
-0.02617058 0.020254064 0.08452871 -0.0945237 0.061967846 -0.2031695 0.14267722 0.105304025
-0.14077885 -0.054423813 0.12804714 0.25112793 -0.11472345 0.030806985 -0.029402267 0.019714758
0.22887647 0.18520652 -0.048071474 -0.18384968 0.08088329 0.16093439 -0.13552444 0.19053513
0.15068194 -0.17998007 0.12658292 0.1687502 0.12759985 -0.19512689 0.22088139 0.123188026
-0.2198971 0.13642024 0.023820063 -0.04621078 -0.02984675 -0.11756802 0.17902729 -0.26003388
-0.16069752 0.18822694 0.039597385 -0.16999204 -0.18191606 0.17073062 -0.1399755 0.0062442524
0.18831927 0.06195673 -0.16664262 0.043302886 0.18123141 0.20199957 -0.009452889 -0.06618665
0.12870555 0.03312328 -0.04541653 0.08649372 -0.13344215 -0.042856365 0.115207225 0.18758804
0.028146794 0.04021269 -0.20879996 -0.056146983 -0.032830235 0.20276329 0.12577908 0.029571248
-0.17174053 0.12351042 -0.0738103 0.14328042 0.06964913 0.02897083 -0.19662438 0.019887477
0.34832603 -0.15574522 0.06919179 -0.11142864 0.4605147 0.23557596 -0.024496153 -0.14354645
0.26057068 -0.019559683 -0.024209665 0.041944534 -0.19971728 0.056093585 0.08278397 0.19805738
0.20185804 0.0721908 0.28859633 -0.24902382 0.16918755 -0.07657988 0.11777091 -0.12923321
0.16495034 -0.10521414 -0.012353644 0.05614698 -0.16345984 0.16733515 -0.07560195 0.124717474
-0.1118699 -0.063014075 -0.0122115165 -0.19285506 -0.21535751 -0.21927066 0.17772296 0.016509771
-0.41455108 -0.06902489 0.13288759 0.09200561 0.057048917 0.2650502 0.19330066 -0.0024306986
-0.26179612 0.19340988 0.03786588 0.03254965 0.15221554 -0.11626889 -0.08155224 0.10629937
0.019499034 0.04259317 0.08357223 0.11461496 0.004429867 -0.23716252 -0.024359817 0.011981502
-0.03643308 -0.16998135 -0.010956655 0.03053929 0.07946167 0.06632685 0.0056387023 -0.14800441
-0.060174055 -0.0422745 -0.15421215 0.16599953 0.09712951 0.025795972 0.09619799 -0.1916618
0.13553108 0.19515532 0.047124393 0.14109987 -0.026470454 -0.20449105 0.18915309 0.15828593
-0.0018374482 -0.11085039 -0.15959434 -0.08258382 0.04412829 0.019904025 -0.05620689 -0.176031
0.14975554 0.19699977 -0.03484676 -0.08078153 -0.18056646 -0.21816769 -0.051084027 -0.033637196
-0.20652397 0.22096154 0.13905433 0.21531838 0.21105367 -0.08826451 -0.14233196 0.027142823
0.14982286 -0.15929843 0.19105244 -0.20536011 -0.20351973 -0.21309473 0.17757365 0.13873339
0.018989166 0.13346489 -0.2148499 -0.039049163 0.14493874 -0.00032394368 0.10074398 -0.10394124
0.014679491 -0.026244234 -0.23862857 0.008937463 0.0098382905 -0.022699296 0.0515835 0.19234723
00000000: 3a68 153e 1b31 35be d027 543e 200d 293d
00000010: bc87 9dbd 6498 5ebe fc29 013e 903d d43d
00000020: 2216 013e cc88 163e a7db fcbd 6826 e33d
00000030: 0018 b2bd 2039 e5bc 38cb 21bd 7680 4dbe
00000040: aaf7 f0bd 6dd6 2cbe 70dc f23d 9251 38be
00000050: afb2 9b3e f648 d7bd 57e9 82be 7e0b c7bd
00000060: a5eb 8d3e 9bd4 8abe caa6 9abd f1a3 333e
00000070: 8a36 11be 4ead 123e f471 23bd 6fbf 2d3e
00000080: 30bc 65be 7483 fabd 55d0 ca3d 958c 60be
00000090: a268 46bc 410b a43c 916e 673e a4de 0cbe
000000a0: af63 d6bc daeb a53c 631d ad3d a495 c1bd
000000b0: ffd1 7d3d aa0b 50be fa19 123e a3a9 d73d
000000c0: 5528 10be 81eb 5ebd ca1e 033e d793 803e
000000d0: 21f4 eabd ee5e fc3c 06dd f0bc d880 a13c
000000e0: 985e 6a3e c7a6 3d3e 98e6 44bd 1743 3cbe
000000f0: 23a6 a53d fccb 243e ebc6 0abe a41b 433e
00000100: 5e4c 1a3e b24c 38be f49e 013e dacc 2c3e
00000110: 89a9 023e 58cf 47be bb2e 623e 014a fc3d
00000120: b52c 61be bfb1 0b3e 4b22 c33c 8447 3dbd
00000130: 2c81 f4bc 81c7 f0bd ee52 373e 2923 85be
00000140: e48d 24be 90be 403e de30 223d 6512 2ebe
00000150: 3448 3abe 02d4 2e3e bd55 0fbe 969c cc3b
00000160: c4d6 403e 57c6 7d3d 5da4 2abe 5e5e 313d
00000170: ba94 393e fad8 4e3e 4ae0 1abc de8c 87bd
00000180: 63cb 033e 47ac 073d af06 3abd 9f23 b13d
00000190: 0fa5 08be 288a 2fbd c4f1 eb3d 1417 403e
000001a0: 1b94 e63c 10b6 243d a8cf 55be 61fa 65bd
000001b0: ff78 06bd 2ea1 4f3e 3bcc 003e 673f f23c
000001c0: c0dc 2fbe 08f3 fc3d db29 97bd 1ab8 123e
000001d0: 34a4 8e3d 3c54 ed3c e757 49be 10eb a23c
000001e0: ca57 b23e ad7b 1fbe 6db4 8d3d b334 e4bd
000001f0: 95c8 eb3e d33a 713e 28ac c8bc d7fd 12be
00000200: 8569 853e a13b a0bc 5953 c6bc 08ce 2b3d
00000210: b082 4cbe 63c2 653d a48a a93d 8ecf 4a3e
00000220: e0b3 4e3e c5d8 933d e6c2 933e 1a00 7fbe
00000230: 803f 2d3e ead5 9cbd e031 f13d b655 04be
00000240: bee8 283e 837a d7bd f066 4abc 60fa 653d
00000250: 0462 27be e859 2b3e 32d5 9abd e06b ff3d
00000260: 0c1c e5bd 860d 81bd d012 48bc cc7b 45be
00000270: ae86 5cbe 7d88 60be 02fd 353e 803f 873c
00000280: 0a40 d4be ec5c 8dbd af13 083e 706d bc3d
00000290: 20ac 693d a9b4 873e 9cf0 453e 5b4c 1fbb
000002a0: 240a 86be 3d0d 463e 4119 1b3d c852 053d
000002b0: 64de 1b3e 621e eebd dc04 a7bd 7cb3 d93d
000002c0: 70bc 9f3c 2d76 2e3d eb27 ab3d 40bb ea3d
000002d0: 6b28 913b bbda 72be 3d8e c7bc 104e 443c
000002e0: da3a 15bd 970f 2ebe 8b83 33bc 882d fa3c
000002f0: cdbc a23d 5fd6 873d ddc4 b83b 788e 17be
00000300: 1279 76bd 0728 2dbd cae9 1dbe c8fb 293e
00000310: d6eb c63d 1352 d33c 7403 c53d fe42 44be
00000320: a9c8 0a3e ccd6 473e 8205 413d 7c7c 103e
00000330: 91d8 d8bc 1a66 51be 59b1 413e b515 223e
00000340: 88d6 f0ba 8705 e3bd b36c 23be b521 a9bd
00000350: debf 343d c40d a33c 3239 66bd 7841 34be
00000360: 8459 193e 4fba 493e 7abb 0ebd c970 a5bd
00000370: 6ae6 38be 5a67 5fbe 7c3d 51bd 28c7 09bd
00000380: 057b 53be be43 623e 4264 0e3e 6c7c 5c3e
00000390: 741e 583e 06c4 b4bd 78bf 11be a05a de3c
000003a0: 2a6b 193e 211f 23be 40a3 433e ec49 52be
000003b0: 7a67 50be 8135 5abe ded5 353e 2010 0e3e
000003c0: 2b8f 9b3c 05ab 083e 9d01 5cbe 04f2 1fbd
000003d0: d26a 143e fcd6 a9b9 dc52 ce3d 25df d4bd
000003e0: 3f82 703c 26fe d6bc 0c5b 74be 706e 123c
000003f0: c830 213c e0f3 b9bc 3849 533d acf6 443e

dec.2.bias f4 [40]
-0.21654138 0.049680468 -0.03631551 -0.1796196 0.13733102 0.113813974 -0.043741375 -0.14944327
-0.0121460175 0.09217599 0.086778544 -0.18658105 -0.20998706 0.1006784 -0.036059797 0.15587914
0.11249871 0.0577928 0.11973137 -0.10834003 0.09999787 -0.1366345 -0.1344046 -0.17373079
0.18509953 -0.21670155 -0.1875659 0.07465732 -0.109206535 0.032523666 0.028960695 -0.118619695
0.09506855 0.17997731 -0.2229919 0.04731791 -0.04526193 -0.17480302 0.16328824 -0.1910754
00000000: 06bd 5dbe bf7d 4b3d 92bf 14bd 33ee 37be
00000010: 81a0 0c3e 4d17 e93d 282a 33bd a807 19be
00000020: 1700 47bc c4c6 bc3d f3b8 b13d 1a0f 3fbe
00000030: d906 57be 7a30 ce3d 70b3 13bd c89e 1f3e
00000040: b965 e63d 25b8 6c3d b835 f53d 61e1 ddbd
00000050: afcb cc3d eae9 0bbe 5ca1 09be 7ce6 31be
00000060: bb8a 3d3e 03e7 5dbe 4611 40be f0e5 983d
00000070: ada7 dfbd 8937 053d fb3e ed3c e2ee f2bd
00000080: 4db3 c23d f94b 383e fd57 64be 6dd0 413d
00000090: 9364 39bd 90ff 32be 0835 273e 45a9 43be

dec.4.weight f4 [60, 40]
-0.010675475 0.3055497 0.22951527 0.14283745 0.16855103 0.19510771 0.09591492 0.13680781
0.1937448 0.028916985 0.12572469 -0.10669797 0.05133431 0.24547178 0.08378525 0.1291876
-0.118330546 -0.025288869 0.21038853 0.13593726 0.07202977 -0.020286804 0.3605886 0.1394641
-0.18189707 0.030577764 -0.12803814 0.26430556 -0.1245116 0.17335135 0.15367265 0.036884986
0.16533104 0.14137264 -0.020402372 0.24385291 0.0970482 -0.094038315 0.028030055 0.034046754
-0.075812615 0.09052811 0.1260386 0.22003634 0.14411145 0.100824244 0.27234295 -0.12766075
0.33460793 0.055220097 -0.10854524 0.09917398 -0.1118222 0.3612425 0.123201564 0.039491504
0.04415499 0.015270897 -0.027905388 0.1198007 0.17585051 0.020557227 0.15222797 0.010908827
-0.0009573337 -0.020456865 0.12267418 0.19102104 -0.02462169 0.1312139 0.08172637 -0.042256314
-0.0657131 0.04688295 -0.15593837 0.16118523 0.04371622 -0.082852945 -0.045539986 0.04985638
-0.06264384 -0.035250302 -0.011065064 0.06654062 -0.010115046 0.11249006 0.3249458 0.09716524
0.18381418 0.10190284 0.14199485 0.10314642 -0.00493115 0.14639452 -0.019690633 0.22790825
0.016345846 0.005771698 0.13093446 -0.009657308 0.107370876 0.18415989 0.0037378354 0.14686368
0.22721401 0.057112217 -0.08437256 -0.010300035 -0.07437312 0.07265174 -0.029708387 0.030374521
-0.0055113947 -0.014477094 0.15023096 -0.003804842 -0.06369209 0.10034702 0.123437546 0.11959101
0.0028603226 -0.03590401 -0.055185985 -0.0018131738 0.28829843 0.1689063 0.23500864 0.10602336
0.08326017 -0.043674026 0.20989884 0.01856248 0.026032208 -0.015409241 0.07276282 0.14743535
0.014247826 0.06017849 0.19461295 0.046996847 0.0020354611 0.12309981 -0.07923938 0.0048071146
0.33027327 0.15596922 -0.055349268 0.045233585 0.1551278 0.14680418 -0.02911864 0.07182622
0.028035527 0.13583446 0.017186046 0.13264851 0.10892506 0.05333525 -0.11547275 0.046353295
0.023623228 0.24146463 0.21411406 0.13505788 0.16765471 -0.14434664 0.27136034 -0.09383194
-0.24889484 0.04635611 0.36211997 0.12926687 -0.11442325 -0.017037656 -0.11923109 -0.035360627
-0.03320786 0.18992986 0.2252542 0.121509746 0.0146193225 0.41231883 -0.19784398 0.15288548
0.13727464 -0.06563431 0.009031177 0.19936106 -0.027467819 0.027860563 0.3997841 0.38521293
0.07758088 0.1874982 0.036229134 0.25191784 -0.025417417 -0.08661098 -0.13191931 0.13003816
-0.1448765 0.10082915 0.112155326 0.17002775 0.17395164 0.08388341 -0.15394336 -0.09594378
-0.056371357 -0.03527047 0.2891982 0.12576179 -0.01941535 0.1957188 0.1450244 0.034442544
0.15751848 0.075962126 0.2382873 0.09824146 0.13667929 0.07097059 -0.0544016 -0.14053814
0.056250326 -0.10774083 0.15104757 0.27625376 -0.0256131 0.06279975 0.21366283 0.058432262
0.07913467 0.28601867 -0.07853302 0.35756907 0.25970596 0.0034389477 -0.10456815 0.041794643
0.084376946 0.2538047 0.13983943 0.25720307 0.003923534 0.15987511 0.021755632 -0.10395847
0.08609218 0.09280062 0.22609226 -0.07653914 0.020259134 0.20227093 -0.072619565 -0.06525326
00000000: 30e8 2ebc 0371 9c3e 0d06 6b3e fb43 123e
00000010: a498 2c3e 51ca 473e 0b6f c43d 5917 0c3e
00000020: 0965 463e 50e3 ec3c f9bd 003e 7784 dabd
00000030: ed43 523d f45c 7b3e 9a97 ab3d c149 043e
00000040: 4957 f2bd 9a2a cfbc 1770 573e 2333 0b3e
00000050: 5884 933d 8330 a6bc 129f b83e adcf 0e3e
00000060: 3a43 3abe 387e fa3c 6e1c 03be 0f53 873e
00000070: f0ff febd 0483 313e 5d5c 1d3e b614 173d
00000080: 8a4c 293e fdc3 103e e022 a7bc 94b4 793e
00000090: 35c1 c63d 2997 c0bd 499f e53c 9c74 0b3d
000000a0: a543 9bbd cd66 b93d 4310 013e 3551 613e
000000b0: f491 133e f17c ce3d 8970 8b3e 80b9 02be
000000c0: bb51 ab3e 782e 623d f74c debd ba1b cb3d
000000d0: 0a03 e5bd c7f4 b83e 1a51 fc3d d8c1 213d
000000e0: dddb 343d c932 7a3c d799 e4bc 125a f53d
000000f0: 2812 343e a167 a83c a6e1 1b3e f0ba 323c
00000100: 94f5 7aba 2895 a7bc 9a3c fb3d 059b 433e
00000110: 6db3 c9bc f05c 063e 2860 a73d f514 2dbd
00000120: 9794 86bd 5608 403d 4fae 1fbe be0d 253e
00000130: c70f 333d ceae a9bd 2388 3abd 3436 4c3d
00000140: 6a4b 80bd 9f62 10bd 3e4a 35bc 7346 883d
00000150: 94b9 25bc 3061 e63d 4c5f a63e 92fe c63d
00000160: c939 3c3e 70b2 d03d 1967 113e 6e3e d33d
00000170: 7c95 a1bb 72e8 153e 404e a1bc c860 693e
00000180: b9e7 853c 8320 bd3b af13 063e b039 1ebc
00000190: 43e5 db3d 6994 3c3e 79f6 743b 6f63 163e
000001a0: caaa 683e 80ee 693d 85cb acbd 7ac1 28bc
000001b0: ef50 98bd 6fca 943d 015f f3bc fdd3 f83c
000001c0: ee98 b4bb 5531 6dbc 25d6 193e a85a 79bb
000001d0: 0071 82bd bd82 cd3d d3cc fc3d 22ec f43d
000001e0: 4074 3b3b 1510 13bd b30a 62bd 04a8 edba
000001f0: da9b 933e c6f5 2c3e 1ba6 703e c622 d93d
00000200: 4f84 aa3d 89e3 32bd b9ef 563e 5810 983c
00000210: 7f41 d53c 0b77 7cbc ac04 953d 4bf9 163e
00000220: b76f 693c b87d 763d 9e48 473e c47f 403d
00000230: 5f65 053b c11b fc3d 4248 a2bd 0085 9d3b
00000240: 9419 a93e 65b6 1f3e eab5 62bd da46 393d
00000250: d2d9 1e3e d653 163e 378a eebc a019 933d
00000260: c3aa e53c 3018 0b3e c0c9 8c3c 03d5 073e
00000270: 1a14 df3d 1076 5a3d fa7c ecbd f4dc 3d3d
00000280: 8085 c13c 8142 773e b740 5b3e 9d4c 0a3e
00000290: adad 2b3e 9bcf 13be beef 8a3e f62a c0bd
000002a0: 4ade 7ebe e8df 3d3d ca67 b93e 895e 043e
000002b0: bd56 eabd 8e92 8bbc 6e2f f4bd 4ed6 10bd
000002c0: f704 08bd f97c 423e 09a9 663e 1ada f83d
000002d0: e285 6f3c 741b d33e 9d97 4abe 038e 1c3e
000002e0: b991 0c3e 486b 86bd 80f7 133c 4e25 4c3e
000002f0: 3104 e1bc d63b e43c 80b0 cc3e a13a c53e
00000300: b9e2 9e3d 87ff 3f3e 0065 143d 60fb 803e
00000310: 3038 d0bc 1961 b1bd db15 07be b928 053e
00000320: 815a 14be 837f ce3d b1b1 e53d c11b 2e3e
00000330: 6120 323e 11cb ab3d 54a3 1dbe 2c7e c4bd
00000340: a7e5 66bd c577 10bd c911 943e b3c7 003e
00000350: f10c 9fbc 826a 483e 4781 143e a013 0d3d
00000360: 864c 213e 0892 9b3d 9601 743e d232 c93d
00000370: a8f5 0b3e 0759 913d 36d4 5ebd 3be9 0fbe
00000380: be66 663d 39a7 dcbd 37ac 1a3e 2271 8d3e
00000390: 90d2 d1bc 289d 803d 6eca 5a3e ab56 6f3d
000003a0: 5c11 a23d 0a71 923e ecd5 a0bd 4b13 b73e
000003b0: 2ef8 843e f85f 613b d427 d6bd dc30 2b3d
000003c0: d2cd ac3d b1f2 813e 1132 0f3e 1fb0 833e
000003d0: fd90 803b 4db6 233e de38 b23c 2ee8 d4bd
000003e0: 1951 b03d 400e be3d bb84 673e 8dc0 9cbd
000003f0: 7cf6 a53c 1c20 4f3e 91b9 94bd 80a3 85bd

dec.4.bias f4 [60]
0.018690059 0.0647506 0.15859824 0.1065494 -0.035177603 0.05180466 0.06656785 0.07104943
0.19368283 0.18369485 0.14424355 0.1965749 0.21532556 0.13756183 0.103410944 0.15610522
0.19305809 0.21182984 0.043379802 0.018154295 0.010414886 0.22615203 0.1561367 0.22653915
0.15955837 0.020070752 0.14783895 -0.10289121 0.21489991 0.26238492 -0.008483847 0.20773502
0.03979833 0.032576658 0.1102637 0.17618182 0.011179053 0.26033935 -0.035236105 0.07428524
0.022091342 0.18497367 0.026025927 0.16687097 0.1923499 -0.0038244422 0.18669643 0.19899243
0.25720307 0.11662623 0.23124956 0.18782927 0.018347519 0.051075965 0.14424369 0.1442978
0.18118715 0.22277181 0.17600651 0.15791816
00000000: e51b 993c f69b 843d 9467 223e 9236 da3d
00000010: 6416 10bd 2031 543d ba54 883d 5d82 913d
00000020: cb54 463e 811a 3c3e 95b4 133e ee4a 493e
00000030: 4e7e 5c3e 02dd 0c3e 1ec9 d33d 0cda 1f3e
00000040: 05b1 453e ece9 583e 05af 313d 51b8 943c
00000050: 33a3 2a3c 6694 673e 4de2 1f3e e1f9 673e
00000060: 4563 233e 6b6b a43c 1863 173e a0b8 d2bd
00000070: b90e 5c3e 5157 863e d5ff 0abc 7db8 543e
00000080: 9303 233d 1a6f 053d efd1 e13d 0269 343e
00000090: 5928 373c 334b 853e bc53 10bd dc22 983d
000000a0: e7f8 b43c bd69 3d3e 5334 d53c 39e0 2a3e
000000b0: 5ff7 443e 7ea3 7abb 592d 3f3e acc4 4b3e
000000c0: 1fb0 833e bcd9 ee3d afcc 6c3e 5156 403e
000000d0: 894d 963c 0835 513d 9eb4 133e cdc2 133e
000000e0: 2089 393e 4b1e 643e 0d3b 343e 4cb5 213e
