Models/artifact_4/lstm_ae.pt (torch, 552384 bytes, 22 tensors)

encoder.weight_ih_l0 f4 [256, 60]
-0.006878581 0.012215691 -0.0061827544 -0.011220258 0.008294902 -0.0100276 0.012069234 -0.009138395
-0.012827252 0.0005993208 0.013066334 0.012368679 0.009006112 -0.0070484127 0.0007648439 0.008007518
-0.003951078 0.0053167026 -0.0051889545 0.011787392 0.0049391175 -0.0021799472 -0.0076537877 0.006686601
-0.0077849356 -0.008042746 -0.006758003 0.010038111 0.012131011 0.010605588 0.0043337736 0.005749606
-0.002294759 -0.0011898342 0.012445014 0.0043953857 -0.004498206 -0.0009867012 -0.006543162 0.010560873
-0.0043638092 -0.00047678687 -0.007906472 -0.0074275318 -0.007563991 0.009753731 0.00085409795 -0.0016051481
0.009620532 -0.0033741868 -0.011854299 -0.0017389 -0.012678759 0.002512252 0.005424798 -0.0028377166
-0.012153901 -0.00084369443 0.011230239 0.0013110691 0.0025181524 0.011843671 -0.00421816 -0.0014179405
-0.0077755707 0.0067421948 0.011538555 0.0037314678 0.003051226 -0.011603796 -0.0071203713 0.008313492
-0.01278809 0.0101588825 -0.0013719074 0.0122609055 0.009886556 0.0058110226 -0.0065119546 0.0018790382
-0.006804004 -0.0019142779 -0.0063703014 0.0026225136 -0.0067470833 -0.0060430653 0.007194719 -0.0034757014
0.0067443154 0.00084549625 0.0035554909 -0.010836428 0.008716569 0.008049334 0.005605638 0.011326412
-0.0049332352 -0.0064012706 0.004580394 0.008593654 -0.0018116684 0.0026163224 0.011250667 -0.0034895807
0.006051497 -0.0059539955 -0.0050872895 -0.008310578 -0.008093992 0.01242564 -0.0012082189 0.012779706
0.0037603907 -0.0062000165 -0.006838912 -0.0066005546 -0.0067730295 0.00086428336 -0.0032792548 -0.0044908826
0.00821111 -0.006447937 0.01256349 -0.003204834 0.0048908787 -0.011510565 0.0062555866 -0.0123743415
0.007540252 -0.011425527 -0.0031960146 -0.007974222 0.013076474 0.009978834 0.00596096 0.0035633366
-0.009503087 -0.008030095 0.00028024864 -0.0026882847 -0.00058876496 -0.007763011 0.0034035495 0.005008429
0.012371242 -0.006010009 0.010963407 0.004651238 0.012142643 0.0034893567 0.00517996 0.0022225212
0.0025259561 -0.0070204693 0.011190665 -0.003599643 -0.00808783 -0.0080403155 0.0024936819 0.0065439837
-0.0095285075 0.0063137766 -0.004095233 -0.0033487827 0.0014405659 0.005891185 0.0068962295 -0.01042839
0.008464236 0.0108406115 -0.0023537995 0.010802873 0.012811584 0.009201333 -0.0078094974 0.01079684
0.006443896 0.003682069 -0.005958764 0.005737488 0.0050151115 0.0059130746 -0.0012364344 0.0008088605
0.0114545105 0.011487398 0.00067922886 -0.0055505005 0.00562931 0.0096462155 -5.5509146e-05 0.0031597451
-0.00791859 0.0077891056 0.0012166058 -0.0034112127 0.010084468 -0.010459685 0.006719011 -0.0013706378
-0.0009891659 -0.0063643744 -0.005961549 0.011147776 -0.010696573 0.0036169956 0.012436309 -0.01210783
-0.0075043603 -0.010522924 -0.0027435513 0.007534816 -0.00909619 0.009752666 -0.0060192617 -0.00315961
0.008223947 0.010793788 -0.009377 -0.01201599 -0.009450511 -0.0108872065 0.011362299 -0.003501347
-0.007903352 -0.0067298696 -0.0015831437 -0.0068138675 -0.012469596 -0.00842487 -0.011831782 0.008511867
-0.0019190621 -0.0036486802 0.01247785 0.008604316 -0.001213685 -0.007815487 0.00570366 0.002854302
-0.008698603 -0.00017143304 0.011348343 0.0026274042 -0.008812917 -0.0006143036 -0.01154453 -0.003272172
0.011192355 -0.012002904 0.0028554015 0.013111616 0.001243987 0.0017308212 0.011897766 -0.00385845
00000000: b865 e1bb 5224 483c b498 cabb 2cd5 37bc
00000010: 57e7 073c ce4a 24bc 09be 453c 35b9 15bc
00000020: 6529 52bc bd1b 1d3a 2d14 563c 00a6 4a3c
00000030: 5f8e 133c 5ff6 e6bb ce7f 483a f731 033c
00000040: 0b78 81bb bc37 ae3b 1b08 aabb e81f 413c
00000050: 52d8 a13b 72dd 0ebb a0cc fabb 461b db3b
00000060: c618 ffbb b9c5 03bc 3d72 ddbb e476 243c
00000070: 26c1 463c 0fc3 2d3c 5402 8e3b 3167 bc3b
00000080: ab63 16bb 36f4 9bba 2ce6 4b3c 2b07 903b
00000090: b065 93bb 3354 81ba 0568 d6bb 8307 2d3c
000000a0: 49fe 8ebb 40f9 f9b9 268a 01bc a762 f3bb
000000b0: 5bdb f7bb 1dce 1f3c 8be5 5f3a d563 d2ba
000000c0: 709f 1d3c 7621 5dbb 8938 42bc cdeb e3ba
000000d0: 92ba 4fbc 98a4 243b 81c2 b13b fcf8 39bb
000000e0: 2821 47bc 602b 5dba 09ff 373c 2ed8 ab3a
000000f0: 9607 253b f50b 423c 7e38 8abb 30da b9ba
00000100: 37ca febb a1ed dc3b 350c 3d3c a48b 743b
00000110: 14f7 473b d91d 3ebc 0152 e9bb 5035 083c
00000120: 2385 51bc 7171 263c 93d1 b3ba f7e1 483c
00000130: 39fb 213c 646a be3b 3c62 d5bb 0f4a f63a
00000140: 1ff4 debb 82e8 faba f6bd d0bb 7ade 2b3b
00000150: a316 ddbb e804 c6bb adc1 eb3b 98c8 63bb
00000160: 6bff dc3b 4ba4 5d3a 3d03 693b 468b 31bc
00000170: f1cf 0e3c 5be1 033c 80af b73b 6a92 393c
00000180: faa6 a1bb c0c1 d1bb 2117 963b 66cc 0c3c
00000190: 8175 edba 9b76 2b3b b854 383c 73b1 64bb
000001a0: a34b c63b bc19 c3bb 47b3 a6bb 1729 08bc
000001b0: aa9c 04bc e994 4b3c 195d 9eba f961 513c
000001c0: e370 763b 8229 cbbb f418 e0bb 7749 d8bb
000001d0: 4af0 ddbb 1391 623a c4e8 56bb 4128 93bb
000001e0: e487 063c 3749 d3bb 19d7 4d3c 3108 52bb
000001f0: aa43 a03b cf96 3cbc aafb cc3b c0bd 4abc
00000200: 3814 f73b 2232 3bbc 3a74 51bb 50a6 02bc
00000210: b53e 563c 437e 233c 2854 c33b de86 693b
00000220: d6b2 1bbc a990 03bc 56ee 9239 ef2d 30bb
00000230: 5957 1aba db60 febb 160e 5f3b bf1d a43b
00000240: c0b0 4a3c 9cef c4bb dd9f 333c 6a69 983b
00000250: f0f1 463c b1ad 643b a7bc a93b b8a7 113b
00000260: 838a 253b f70b e6bb 0d59 373c fde7 6bbb
00000270: d182 04bc 87bb 03bc 0a6d 233b ea6e d63b
00000280: 751d 1cbc cce3 ce3b 4e31 86bb 4077 5bbb
00000290: 5fd1 bc3a d70a c13b c4f9 e13b d6db 2abc
000002a0: 94ad 0a3c d29c 313c 3442 1abb 89fe 303c
000002b0: aee7 513c 30c1 163c d0e6 ffbb 3be5 303c
000002c0: 5127 d33b de4e 713b bc41 c3bb 8a01 bc3b
000002d0: ce55 a43b 77c2 c13b db0f a2ba b609 543a
000002e0: b3ab 3b3c a435 3c3c 470e 323a f9e0 b5bb
000002f0: 1376 b83b 290b 1e3c 7ed2 68b8 ba13 4f3b
00000300: f9bc 01bc c13b ff3b 8476 9f3a a78e 5fbb
00000310: 5339 253c 195f 2bbc 262b dc3b f9a6 b3ba
00000320: e6a6 81ba 3e8c d0bb 1959 c3bb 29a5 363c
00000330: ae40 2fbc 1e0b 6d3b a9c1 4b3c eb5f 46bc
00000340: 23e7 f5bb 5868 2cbc 27cd 33bb 9ee6 f63b
00000350: 3008 15bc a5c9 1f3c 3a3d c5bb 7611 4fbb
00000360: bcbd 063c 6ed8 303c fda1 19bc b7de 44bc
00000370: 51d6 1abc 4160 32bc f028 3a3c db76 65bb
00000380: 107d 01bc 3d86 dcbb 7d81 cfba dd46 dfbb
00000390: 474d 4cbc 7708 0abc 17da 41bc 5c75 0b3c
000003a0: 0a89 fbba b21e 6fbb e56f 4c3c 1ef9 0c3c
000003b0: 8314 9fba 870c 00bc c5e5 ba3b 3e0f 3b3b
000003c0: 9684 0ebc b5c2 33b9 67ee 393c 8730 2c3b
000003d0: 0e64 10bc 3709 21ba 4525 3dbc f071 56bb
000003e0: 2460 373c d4a7 44bc b021 3b3b 1ad2 563c
000003f0: 470d a33a b9dc e23a d9ee 423c 0dde 7cbb

encoder.weight_hh_l0 f4 [256, 64]
-0.00713393 0.012881911 -0.008142973 -0.009203841 0.009283066 -0.012394574 -0.0038066132 -0.007536406
0.012987467 0.009129689 0.006545776 -0.00423493 -0.011479013 0.0042221625 0.0067658084 -0.0072161476
-0.0037401272 -0.0076258294 -0.0127304355 -0.012796355 -0.0068745925 -0.007218695 0.007618022 -0.0042002983
0.01095425 -0.004690841 0.00049155846 -0.013099056 -0.004404876 -0.00078130217 0.0017003315 -0.007125564
0.0039972616 0.01118482 -0.008739302 -0.0057577635 -0.01285909 -0.005488841 -0.008951728 -0.00067787373
0.008194816 0.003579678 -0.0017113796 -0.006325166 -0.0033343616 -0.001508796 0.005327163 0.0011950764
0.0053789974 0.008074519 -0.004556389 0.010743712 -0.008170014 0.007600362 -0.0096350815 -0.0005053973
0.012017778 -0.004659912 -0.008962287 -0.0067214975 0.011422817 -0.00805056 0.0020917135 0.004137365
0.0009031309 -0.010527713 0.0023382814 0.012395915 0.0101703415 -0.012394042 -0.0039027953 0.011395827
-0.012743191 -0.0022610528 -0.011463244 0.0044695847 0.006055574 0.0008775195 0.012681359 -0.002326075
-0.00090061186 -0.008218711 0.006085173 0.0057954905 0.00073242566 0.0050631147 -0.0012243255 -0.007701956
0.005415092 0.011323674 -0.0031465208 0.0036880102 -0.0018666737 0.0023840663 0.008800007 -0.012638191
0.01008855 0.008902088 0.012645389 0.010246682 -0.0039244117 -0.011152013 0.0074831797 0.0047343313
0.00997729 -0.0011457788 0.0054621506 -0.009863205 -0.009499609 0.011357498 0.004106027 0.0120898215
-0.0007318577 0.012338205 0.008977079 0.00024133064 0.0101709785 -0.008610746 0.0045763142 0.000711043
-0.0015949251 0.0128147425 -0.0032518373 -0.0040226923 0.006208581 -0.012083615 0.007905683 -0.010382065
-0.0036180262 -0.008752841 0.003555171 0.0042845625 0.01086944 -0.0068705585 0.0013345313 -0.0131207835
0.008572904 -0.00944759 -3.422265e-05 -0.0014282136 -0.00944993 7.983631e-05 0.012998093 0.0013463197
0.0015183433 0.00862532 0.0059748157 0.0031029233 0.010567609 -0.00045615545 -0.0077004065 -0.011904962
-0.0038563374 -0.011027597 0.011552444 0.0035133453 0.007317681 0.002151584 0.0001768676 0.0030246158
-0.0121079525 -0.0043785768 -0.011445219 0.0056810295 -0.002422339 0.0065952702 -0.005385717 0.0018495744
-0.0019840957 -0.01012066 0.012392417 0.0064591737 0.007901091 -0.011972604 -0.007256178 -0.0026463734
0.007833778 -0.0044624833 0.0070856446 -0.001715976 -0.009159093 0.006994176 -0.008239194 -0.002244562
-0.0094925435 -0.010888423 -0.006026928 -0.0039614034 0.0028843984 0.011696615 -0.010710631 -0.0040615834
-0.0020930686 0.008232693 0.01136844 -0.004050188 0.012576706 0.010482795 -0.0036246919 0.0001517061
-0.0025251284 0.012257008 -0.009108517 0.01212858 -0.0085433535 -0.003634423 0.003153595 -0.00960241
0.009429796 -0.0074876887 -0.0010675559 0.0075330017 -0.010029964 0.002780051 0.012089953 0.005670512
-0.0045922166 0.0086786 0.009755458 -0.003684916 -0.00877607 -0.0027471622 0.0051383628 -0.0071068867
0.010831913 -0.0024166724 0.012760316 -0.00072596996 -0.0009119261 0.0027972378 -0.011577241 -0.00047180135
0.007248997 -0.011264552 -0.0093193855 -2.8526494e-05 0.0019926745 -0.007330131 -0.011891215 -0.012492866
-0.0075226645 0.012948991 -0.012846388 -0.0003230735 -0.0053263637 7.751105e-05 0.0062118648 -0.0040771263
0.0092073735 0.0042718262 -0.010925931 -0.010509549 -0.008725885 -0.0070306193 -0.0067479615 0.005675951
00000000: bec3 e9bb a70e 533c 1b6a 05bc b5cb 16bc
00000010: 0018 183c 9c12 4bbc 5f78 79bb f5f3 f6bb
00000020: 63c9 543c b194 153c f37d d63b 2bc5 8abb
00000030: 7812 3cbc 115a 8a3b b7b3 dd3b 6f75 ecbb
00000040: ec1c 75bb 18e2 f9bb 5193 50bc cea7 51bc
00000050: 4344 e1bb cd8a ecbb 9aa0 f93b a8a2 89bb
00000060: 7479 333c a0b5 99bb eedb 003a 6c9d 56bc
00000070: c756 90bb 4dd0 4cba a8dd de3a 907d e9bb
00000080: 76fb 823b 8940 373c 4a2f 0fbc 9fab bcbb
00000090: efae 52bc bcdb b3bb 45aa 12bc 56b3 31ba
000000a0: 8d43 063c 0899 6a3b 5f50 e0ba 5743 cfbb
000000b0: 4e85 5abb cbc2 c5ba 7b8f ae3b 1ca4 9c3a
000000c0: 4d42 b03b fd4a 043c c34d 95bb 6506 303c
000000d0: 86db 05bc 750c f93b 76dc 1dbc a37c 04ba
000000e0: 37e6 443c 2db2 98bb 8ed6 12bc 0240 dcbb
000000f0: c426 3b3c 7fe6 03bc 2115 093b bc92 873b
00000100: 17c0 6c3a 6e7c 2cbc da3d 193b 3c18 4b3c
00000110: 81a1 263c 6110 4bbc 0ac6 7fbb 90b5 3a3c
00000120: d1c8 50bc 2c2e 14bb 55d0 3bbc 9875 923b
00000130: d66d c63b 5609 663a 7ac5 4f3c 1071 18bb
00000140: 0a17 6cba c6a7 06bc 2266 c73b 19e8 bd3b
00000150: 4100 403a 7ce8 a53b 8c79 a0ba b160 fcbb
00000160: 1671 b13b ee86 393c dc35 4ebb 8bb2 713b
00000170: 2dab f4ba ff3d 1c3b e82d 103c 6a10 4fbc
00000180: 724a 253c 10da 113c 9b2e 4f3c b3e1 273c
00000190: 5a98 80bb efb6 36bc 7635 f53b 7322 9b3b
000001a0: ca77 233c f52d 96ba d7fb b23b 4899 21bc
000001b0: 3fa4 1bbc cd14 3a3c da8b 863b 6314 463c
000001c0: 24da 3fba 2f26 4a3c 9914 133c b30d 7d39
000001d0: 2da4 263c 1614 0dbc e8f4 953b 4a65 3a3a
000001e0: ce0c d1ba edf4 513c c71c 55bb cad0 83bb
000001f0: 5a71 cb3b 5bfa 45bc d686 013c 8919 2abc
00000200: 681c 6dbb 1368 0fbc dffd 683b 8465 8c3b
00000210: bc15 323c 6c22 e1bb 71eb ae3a 8ef8 56bc
00000220: 5e75 0c3c 11ca 1abc 4a8a 0fb8 e532 bbba
00000230: e1d3 1abc cb6d a738 f4f5 543c fe76 b03a
00000240: 2603 c73a 3751 0d3c 63c8 c33b 6a5a 4b3b
00000250: c423 2d3c 2628 efb9 b153 fcbb 080d 43bc
00000260: 9bba 7cbb 18ad 34bc 7646 3d3c 2740 663b
00000270: 28c9 ef3b 9701 0d3b 8975 3939 a238 463b
00000280: 6f60 46bc 2a7a 8fbb ba84 3bbc ee27 ba3b
00000290: 1bc0 1ebb 231d d83b ab7a b0bb 6b6d f23a
000002a0: 9a07 02bb 20d1 25bc 9009 4b3c 7aa7 d33b
000002b0: 9473 013c be28 44bc 3cc5 edbb c76e 2dbb
000002c0: 3f59 003c 063a 92bb b22e e83b 9aea e0ba
000002d0: 0510 16bc 672f e53b affd 06bc 8019 13bb
000002e0: 9d86 1bbc 5b65 32bc 897d c5bb a9ce 81bb
000002f0: 2d08 3d3b 29a3 3f3c a47b 2fbc 0817 85bb
00000300: dd2b 09bb 6be2 063c b242 3a3c 71b7 84bb
00000310: 870e 4e3c 07c0 2b3c 3d8c 6dbb 4c13 1f39
00000320: a07c 25bb 9ed1 483c e43b 15bc f4b6 463c
00000330: 6cf9 0bbc 802f 6ebb 8bac 4e3b 6d53 1dbc
00000340: 6e7f 1a3c 495b f5bb 3bed 8bba 66d7 f63b
00000350: b854 24bc 8431 363b f014 463c b4cf b93b
00000360: 4e7a 96bb b030 0e3c 5bd5 1f3c a27e 71bb
00000370: 81c9 0fbc bc09 34bb b65f a83b e3e0 e8bb
00000380: 5678 313c 0961 1ebb a510 513c 054f 3eba
00000390: 530e 6fba dd51 373b 78ae 3dbc 1b5c f7b9
000003a0: ff88 ed3b f58e 38bc 56b0 18bc 2e4c efb7
000003b0: 8897 023b 9831 f0bb 5fd3 42bc e1ae 4cbc
000003c0: af80 f6bb 0128 543c a879 52bc 3162 a9b9
000003d0: c788 aebb 6e8d a238 e68c cb3b 6a99 85bb
000003e0: 86da 163c adfa 8b3b ad02 33bc 3e30 2cbc
000003f0: 04f7 0ebc 1c61 e6bb 011e ddbb 54fd b93b

encoder.bias_ih_l0 f4 [256]
0.0022245466 0.009024695 0.0022119153 -0.010821585 -0.0045043956 -0.002308345 -0.009258748 -0.00914681
-0.0061068702 0.008911354 0.005263594 -0.0060229497 0.011041689 0.0029200306 -0.010683987 -0.01308164
0.0021012193 0.01132047 0.0037618317 0.0041902806 -0.0012911166 0.010038421 0.007800867 -0.008108824
0.011796004 0.012149691 0.0062568653 0.0040047336 -0.0007687334 0.0042439234 -0.0061223893 0.00243139
-0.0124326395 -0.008993683 0.0010658718 -0.00047731132 0.010438555 0.006164888 0.004193973 -0.0061086225
0.0101632895 0.010073867 -0.004909426 -0.007166788 -0.013119833 0.012250934 -0.010434402 -0.01008875
0.009384103 0.0029333383 -0.0071373726 -0.011373648 0.010414611 -0.004903519 -0.003942172 -0.004532819
0.00505333 -0.008613884 0.00088051 0.004893223 0.0034810365 -0.009011003 -0.0064831297 0.008444899
0.008290584 0.0017606012 0.0041297264 0.010248763 -0.0071719303 0.0064754495 0.0018566415 0.0020852953
0.0071267323 -0.005389093 0.0010953255 -0.0082469685 0.010107466 -0.010981138 -0.001140662 0.0014730318
-0.0069270483 0.0016607377 0.007668024 -0.011819792 0.0013480497 -0.007689136 0.009671192 0.006071148
-0.010000249 0.005204418 -0.009558329 0.00034130187 0.008775759 -0.010869778 0.0065751728 -0.009300987
0.010794869 -0.01193747 0.0015413613 8.980852e-05 -0.009310294 -0.0008461464 0.0008701744 0.011175177
-0.011226423 0.00829054 0.010989008 -0.011459905 -0.0079323705 0.010278221 -0.011226086 0.0068760663
-0.008813873 -0.010346588 0.011074775 0.009386893 0.00023791184 0.0007549171 0.0065009873 0.0025857121
-0.011305832 -0.0073288474 0.0005146409 -0.012285525 0.003037998 0.012763383 -0.0003049341 -0.0034449499
-0.007324659 0.002215499 0.0015145187 -0.014011348 -0.011730163 0.005435103 0.011216604 0.0065430463
-0.0010025146 0.007991198 -0.008688594 6.504225e-05 0.006862703 0.010244381 0.008155664 0.0043657674
-0.0047810692 0.0027868361 0.010561228 0.009245203 -0.009979868 0.009524974 -0.012991236 -0.0046494044
-0.0052064843 0.0033628582 0.011156917 -0.0038578126 0.0035254466 -0.0037749128 0.008232224 0.005916364
-0.012549414 0.0037736613 0.011668958 0.0063941907 0.005770533 1.733443e-05 0.010563971 -0.008010743
-0.010459943 -0.008856052 0.0021241147 0.010469258 -0.0036144122 0.012959014 -0.007401754 -0.014517516
-0.0042847362 -0.011167846 -0.0023333721 -0.010774029 0.004181587 -0.010602502 -0.007754509 -0.0069081536
-0.008052132 -0.005754812 0.012939049 0.005259958 -0.006139863 -0.0121767605 -0.010422312 -0.013941304
0.0076006665 0.010992086 0.00390058 -0.0037124364 0.013009276 0.005783624 0.012242266 -0.0012784541
-0.0063306014 -0.012152358 -0.007883366 0.008660775 -0.0068814014 0.00969839 0.002402573 0.005181745
-0.0076167537 -0.00015771537 0.008180427 0.0121340705 -0.009753263 0.0023588475 0.0061979224 -0.0051223454
0.011635474 0.0043278136 0.0008399738 0.0091923475 0.013235172 0.0034702145 -0.006885206 0.0076866113
0.00903615 0.01218238 -0.012507581 0.009384444 0.009981597 0.013065791 0.005715877 0.012783657
-0.011061098 0.004231725 0.0072729844 0.006838162 -0.009438894 0.0018082813 -0.0063849627 0.004144331
-0.010103431 0.0024340588 -0.004576933 0.004108875 0.00765566 0.012355464 0.004272673 -0.0078001646
-0.0014825929 0.003028703 0.011768434 -0.0067981463 -0.0076046884 -0.0073167537 0.012820815 -0.0026921125
00000000: b3c9 113b 50dc 133c c8f5 103b 044d 31bc
00000010: 9c99 93bb 9a47 17bb 01b2 17bc 80dc 15bc
00000020: 241c c8bb ed00 123c 3a7a ac3b 2a5c c5bb
00000030: 33e8 343c fc5d 3f3b e40b 2fbc 6054 56bc
00000040: 9cb4 093b 7e79 393c 1089 763b 9f4e 893b
00000050: af3a a9ba 3078 243c 6a9e ff3b dfda 04bc
00000060: 0744 413c 7f0f 473c 6406 cd3b 243a 833b
00000070: d384 49ba 9c10 8b3b 539e c8bb f557 1f3b
00000080: 45b2 4bbc 3e5a 13bc b9b4 8b3a a43f fab9
00000090: 7906 2b3c d402 ca3b 986d 893b d72a c8bb
000000a0: ed83 263c dc0c 253c 40df a0bb 60d7 eabb
000000b0: 91f4 56bc 24b8 483c 0ef5 2abc 494b 25bc
000000c0: c8bf 193c 403d 403b 9fe0 e9bb 8a58 3abc
000000d0: 0ba2 2a3c b3ad a0bb 562d 81bb 0b88 94bb
000000e0: 6896 a53b 4021 0dbc 07d2 663a 5457 a03b
000000f0: 1a22 643b e3a2 13bc 6f70 d4bb 795c 0a3c
00000100: 3bd5 073c f9c3 e63a a852 873b 6dea 273c
00000110: 8302 ebbb 0230 d43b 8d5a f33a 73a9 083b
00000120: 5d87 e93b fd96 b0bb 0691 8f3a 4b1e 07bc
00000130: c999 253c 3bea 33bc 4482 95ba bf12 c13a
00000140: 4bfc e2bb 1cad d93a 0c44 fb3b cda7 41bc
00000150: 0bb1 b03a 26f5 fbbb eb73 1e3c 7bf0 c63b
00000160: 16d8 23bc d389 aa3b 8a9a 1cbc c3f0 b239
00000170: 33c8 0f3c 2717 32bc 8c74 d73b 2b63 18bc
00000180: f6dc 303c 6195 43bc 8107 ca3a 9557 bc38
00000190: 348a 18bc eccf 5dba 6a1c 643a 1718 373c
000001a0: 08ef 37bc 0cd5 073c 3d0b 343c 53c2 3bbc
000001b0: c6f6 01bc fc65 283c 9eed 37bc a050 e13b
000001c0: 1068 10bc bc84 29bc f972 353c 7ccb 193c
000001d0: f977 7939 a1e5 453a 3c06 d53b 0d75 293b
000001e0: 193c 39bc d426 f0bb f7e8 063a 3a49 49bc
000001f0: 2619 473b 821d 513c 90df 9fb9 abc4 61bb
00000200: b103 f0bb e831 113b d182 c63a da8f 65bc
00000210: df2f 40bc f318 b23b d9c5 373c 0d67 d63b
00000220: cf66 83ba 84ed 023c 9b5a 0ebc 4b67 8838
00000230: 86e0 e03b 0cd8 273c 569f 053c b60e 8f3b
00000240: 84aa 9cbb 5aa3 363b 0009 2d3c 3179 173c
00000250: 9a82 23bc a30e 1c3c 31d9 54bc 085a 98bb
00000260: 289b aabb 6663 5c3b 80cb 363c 5bd3 7cbb
00000270: 2e0b 673b 8764 77bb 73e0 063c 0fde c13b
00000280: 0f9c 4dbc 884f 773b 282f 3f3c 5c86 d13b
00000290: bd16 bd3b 6869 9137 8114 2d3c 7e3f 03bc
000002a0: 2e60 2bbc f918 11bc bb34 0b3b 4087 2b3c
000002b0: c6df 6cbb 0b52 543c 6a8a f2bb e0da 6dbc
000002c0: f966 8cbb 57f9 36bc 7deb 18bb 8e85 30bc
000002d0: b205 893b 1eb6 2dbc 8919 febb cb5d e2bb
000002e0: 17ed 03bc dd92 bcbb 4efe 533c ba5b ac3b
000002f0: e730 c9bb 0981 47bc 58c2 2abc 116a 64bc
00000300: 030f f93b 2618 343c e0a0 7f3b 594c 73bb
00000310: dc24 553c 8e84 bd3b c993 483c cd91 a7ba
00000320: ef70 cfbb af1a 47bc 3c29 01bc ece5 0d3c
00000330: 617d e1bb ffe5 1e3c 7c74 1d3b a1cb a93b
00000340: f695 f9bb 6660 25b9 3307 063c fbcd 463c
00000350: 26cc 1fbc e596 1a3b f117 cb3b 59d9 a7bb
00000360: b7a2 3e3c 55d0 8d3b b031 5c3a 809b 163c
00000370: 56d8 583c 8a6c 633b 4b9d e1bb f8df fb3b
00000380: 5c0c 143c 9b98 473c 99ec 4cbc 36c1 193c
00000390: da89 233c e611 563c 404c bb3b 8b72 513c
000003a0: 9c39 35bc 48aa 8a3b 3752 ee3b a912 e03b
000003b0: 97a5 1abc da03 ed3a f338 d1bb 2bcd 873b
000003c0: dc88 25bc bb84 1f3b 19fa 95bb bea3 863b
000003d0: 55dc fa3b 926e 4a3c c701 8c3b 8698 ffbb
000003e0: 9053 c2ba 347d 463b 64d0 403c fcc2 debb
000003f0: c030 f9bb 61c1 efbb 650e 523c 276e 30bb

encoder.bias_hh_l0 f4 [256]
-0.0106588155 0.011239337 -0.00486369 0.008160699 -0.0019369696 0.009291848 0.00274011 -0.0007933512
0.010127478 0.006890023 -0.00035043946 -0.012269267 -0.00816335 -0.011896159 -0.008255626 0.0029759414
0.008178166 -0.006416084 -0.002438041 0.0036666307 0.0107835485 0.0074690394 0.0058301925 -0.012715808
0.004605737 0.012132383 -0.0065565263 -0.012027232 0.0065149637 0.0056645693 -0.00122401 0.011788178
0.0046804496 -0.002017698 -0.009180931 -0.0026528346 0.008336502 0.008397409 0.012064678 -0.0018258912
-0.0130492905 -0.003430672 -0.0069275196 -0.000600178 -0.0025096752 -0.011424998 0.0067739068 0.011171023
-0.0011760754 0.007005125 -0.007832816 0.012985617 0.007890641 0.009889272 -0.0062119393 0.0027453047
0.0090057505 -0.002649557 -0.0121931145 0.0037802488 -0.0024891132 -0.008740039 0.0059310156 0.0021083786
0.0013730509 -0.007509305 -0.0064341472 0.006841051 0.002850711 0.0015833714 0.006639894 0.007958349
0.004934785 0.0039862306 -0.006606247 0.005231338 0.0068230354 0.002271894 0.0104321595 0.01269381
0.004823178 -0.0037118325 -0.00030793253 0.0063019157 -0.012934567 0.00487264 0.012557096 -0.00072397414
0.0017662813 0.0044099903 0.0015653265 0.0029823256 0.011237405 0.0115580475 0.006585346 -0.0060304217
0.010465552 0.0052704266 0.009669262 -0.0022873147 -0.012380744 0.009633762 -0.008790349 0.0068062795
0.0028044465 0.012129031 -0.012800495 -0.0009514736 -0.00692125 -0.0017365869 -0.009695812 0.0039651655
0.010974247 0.006098031 -0.010135975 0.003299323 -0.009023021 0.008622988 -0.0095421 0.0065848143
0.005792558 -0.0012696984 0.0010059444 -0.01108606 0.0038750228 0.0017756827 -0.012303651 -0.007063086
0.010221042 -0.011574449 -0.004766302 -0.002460415 -0.0018350756 0.0022852747 0.00197456 0.003388447
-0.00835534 0.013459014 -0.008859323 -0.011362367 -0.0023873183 -0.013614728 0.00196873 0.0075795823
0.0062584192 -0.0036964419 0.00018537296 0.01156236 -0.002225736 -0.004598995 -0.00021957218 0.0014973595
-0.0032668617 -0.00210083 -0.002624319 -8.092708e-05 -0.0027213562 -0.0075974474 -0.005744151 -0.009519048
-0.0048195096 0.0052704215 -0.011292027 0.012798952 0.008267058 0.014457197 0.0038778314 -0.00084447046
-0.0013512105 -0.007804839 0.012141495 0.0161539 -0.0031505763 0.00018092246 0.015593131 -0.011352808
-0.010729375 -0.0051535987 0.0004070353 0.002081964 0.0093172295 -0.01267947 -0.0034685065 0.0010865468
0.00024122129 -0.002806698 -0.0032942723 -0.0032506592 -0.0039585484 -0.0042667207 -0.009475826 0.0031662632
0.0068018753 0.0019757936 0.009627586 -0.0023986935 -0.007026904 0.012248093 -0.010510313 0.010822553
-0.003376499 0.004844641 0.009712764 0.0018992762 -0.008400131 0.0092471745 -0.0036191007 -0.0039677187
0.010256613 0.012232496 -0.008630488 0.00581832 -0.007557386 -0.0038301877 -0.010776314 0.0034773536
0.01188901 0.0006084444 -0.0047044125 -0.00547128 0.0012435659 -0.0008884179 -0.008776267 0.010027023
0.012107105 -0.011136797 -0.0019433856 0.010084425 0.009959858 -0.010681182 -0.006133944 0.011876474
0.0059966412 0.009715176 0.0117623 -0.0042793257 0.0042739827 0.005474326 -0.0016194572 0.0068209553
-0.011217679 0.0060002645 0.0050749024 -0.0016340825 -0.0009299386 0.0057834857 0.0039785258 -0.009369479
0.008907462 -0.003794749 0.012187108 -0.004168631 0.009408825 0.010493633 -0.0018329718 0.011344135
00000000: 50a2 2ebc 3225 383c 975f 9fbb 74b4 053c
00000010: eae1 fdba d63c 183c 6b93 333b e6f8 4fba
00000020: b9ed 253c b4c5 e13b 30bb b7b9 0905 49bc
00000030: 92bf 05bc 1be8 42bc 9b42 07bc 0308 433b
00000040: b7fd 053c 033e d2bb 8ac7 1fbb db4b 703b
00000050: 7bad 303c d8be f43b 330b bf3b f755 50bc
00000060: b9eb 963b e7c6 463c 21d8 d6bb de0d 45bc
00000070: 7a7b d53b da9d b93b f66e a0ba 3423 413c
00000080: 755e 993b 5b3b 04bb 9e6b 16bc 2edb 2dbb
00000090: d395 083c 4995 093c edaa 453c be52 efba
000000a0: b1cc 55bc 20d5 60bb 3f00 e3bb 4455 1dba
000000b0: 5d79 24bb ea2f 3bbc a6f7 dd3b ab06 373c
000000c0: 8b26 9aba 3f8b e53b 3655 00bc a0c1 543c
000000d0: bf47 013c 9d06 223c 868d cbbb 92ea 333b
000000e0: db8c 133c 31a4 2dbb a1c5 47bc 0dbe 773b
000000f0: 6420 23bb 6132 0fbc f758 c23b b92c 0a3b
00000100: f1f7 b33a 9e10 f6bb 8ad5 d2bb e52a e03b
00000110: ffd2 3a3b 2189 cf3a 7893 d93b bc63 023c
00000120: fab3 a13b ed9e 823b 3779 d8bb a56b ab3b
00000130: c593 df3b 0ee4 143b a6eb 2a3c b3f9 4f3c
00000140: c00b 9e3b 3742 73bb 0172 a1b9 4d80 ce3b
00000150: 82eb 53bc abaa 9f3b 47bc 4d3c 15c9 3dba
00000160: 9182 e73a ae81 903b a42b cd3a 1f73 433b
00000170: 181d 383c f75d 3d3c e3c9 d73b d89a c5bb
00000180: b577 2b3c 8bb3 ac3b d36b 1e3c c6e6 15bb
00000190: 9bd8 4abc edd6 1d3c 6505 10bc 3607 df3b
000001a0: ceca 373b d8b8 463c 2bb9 51bc 506c 79ba
000001b0: a7cb e2bb 309e e3ba 2fdb 1ebc 38ee 813b
000001c0: 54cd 333c fed1 c73b 5c11 26bc 7439 583b
000001d0: 4bd5 13bc 6f47 0d3c 7856 1cbc 6dc5 d73b
000001e0: 80cf bd3b 026c a6ba e5d9 833a 4ea2 35bc
000001f0: 18f4 7d3b 06be e83a 4195 49bc 7671 e7bb
00000200: 2876 273c c2a2 3dbc a42e 9cbb ea3e 21bb
00000210: eb86 f0ba 8cc4 153b 9f67 013b b510 5e3b
00000220: d6e4 08bc 3283 5c3c b226 11bc 3929 3abc
00000230: 8e74 1cbb 4f10 5fbc cf05 013b 255e f83b
00000240: 6d13 cd3b 0140 72bb ad60 4239 0e70 3d3c
00000250: a7dd 11bb 2bb3 96bb f53c 66b9 0c43 c43a
00000260: d818 56bb 14ae 09bb c4fc 2bbb 65b7 a9b8
00000270: c858 32bb 02f4 f8bb 6e39 bcbb c8f5 1bbc
00000280: faec 9dbb 80b3 ac3b 3202 39bc b2b2 513c
00000290: 8e72 073c e1dd 6c3c 3723 7e3b 745f 5dba
000002a0: 1a1b b1ba bcbf ffbb 1fed 463c 2f55 843c
000002b0: e679 4ebb 01b6 3d39 557a 7f3c 2101 3abc
000002c0: 43ca 2fbc 85df a8bb 5a67 d539 8f71 083b
000002d0: 4ba7 183c 8dbd 4fbc e24f 63bb 766a 8e3a
000002e0: 59f0 7c39 94f0 37bb b8e4 57bb 0309 55bb
000002f0: b6b6 81bb d9cf 8bbb 7f40 1bbc 1581 4f3b
00000300: 44e2 de3b 517c 013b 06bd 1d3c 6633 1dbb
00000310: f141 e6bb 3aac 483c 7333 2cbc 1451 313c
00000320: 4148 5dbb cbbf 9e3b 4922 1f3c 22f1 f83a
00000330: b4a0 09bc 7681 173c 6f2e 6dbb a303 82bb
00000340: 5a0b 283c cf6a 483c e466 0dbc 9ba7 be3b
00000350: f3a3 f7bb e303 7bbb 238f 30bc 50e4 633b
00000360: 1fca 423c 0380 1f3a 7927 9abb 6c48 b3bb
00000370: 26ff a23a b7e4 68ba 55ca 0fbc 6248 243c
00000380: e15c 463c 1d77 36bc 33b9 feba 2539 253c
00000390: ac2e 233c 2000 2fbc 40ff c8bb 8b95 423c
000003a0: 797f c43b 672c 1f3c a9b6 403c 9639 8cbb
000003b0: c40c 8c3b fa61 b33b f743 d4ba 5282 df3b
000003c0: 5bca 37bc de9d c43b 5e4b a63b b62e d6ba
000003d0: 1fc7 73ba 6583 bd3b 4b5e 823b 7182 19bc
000003e0: 9af0 113c 53b1 78bb 70ac 473c 0399 88bb
000003f0: 7927 1a3c 7ded 2b3c 5440 f0ba c0dc 393c

encoder.weight_ih_l1 f4 [256, 64]
0.005522297 0.003616224 -0.012919627 -0.010057592 0.010956559 0.0054406472 -0.0043190294 0.0014968605
-0.003522028 0.00565449 -0.00848374 -0.0016588145 0.00815937 0.008084535 -0.004034467 -0.0062195733
-0.012330083 -0.011668825 0.0067227324 0.009078465 0.010058759 -0.0008154019 0.002228775 0.0013883266
0.0075132055 -0.0034578852 -0.011956768 0.007065921 -0.0053041577 -0.0011173282 -0.00033661546 -0.0035680542
-0.0029191994 0.0115929535 0.003997221 -0.012257046 -0.010433498 0.0066223457 0.0065504084 0.003989814
-0.00083124824 0.009204337 0.0017942644 0.00506603 0.0044428296 0.008393347 -0.012677897 0.004756939
-0.0049270545 0.000884479 0.012624843 -0.0012696511 0.0067837066 0.008379691 -0.002112114 -0.012140524
-0.00662666 0.010010805 -0.0074773617 -0.002910489 0.012488512 -0.008437095 -0.007123751 -0.00021141139
0.0031313132 -0.0018550252 0.0073094866 -0.0119314315 0.0053456137 -0.0006697021 0.0041878233 -0.011008906
-0.0025359513 0.0075304704 -0.005848752 0.0026145899 0.0022455147 0.0047787856 0.010673518 -0.0011970378
-0.0041855397 0.011473552 0.012522517 0.00938618 0.0095957 0.0025935306 -0.0056850715 -0.012952779
-0.003925139 -0.0063647074 0.0008147506 -0.00868833 -0.0129072815 0.0054358817 -0.00793689 -0.011971884
0.0006283792 -0.012335631 0.00833858 0.0053515197 0.008552865 0.00366025 -0.011347359 0.009581094
0.009579669 -0.005159252 0.0125496965 0.004315673 0.0042956634 -0.0020438377 0.001976716 0.012744799
-0.008957377 0.00961709 -0.0079023065 -0.010321865 -0.008735294 0.0054296907 -0.00034161808 0.003010201
-0.0076494142 0.007459698 -0.004322042 -0.010628392 0.0052414513 0.0011094217 -0.009212202 0.0051513542
0.008046132 0.009198741 0.002398569 -0.010330408 0.0034544088 0.0052202614 0.0047966987 0.0075923265
-0.013281057 -0.0086389845 0.005420123 0.00319387 -0.0033307252 -0.0016652948 0.014699748 0.0054496555
-0.0006992807 0.006606287 0.009798301 -0.0031805036 0.00024425655 0.00038790598 0.0030871532 -0.0016409275
0.00020887153 0.0039220583 -0.0043775733 -0.014814404 -0.012946912 0.0007850335 -0.0010978271 -0.014959124
-0.00067818735 -0.00091494905 0.009875225 0.013336957 -0.0103922775 -0.015134173 0.0033487936 -0.00045203575
0.007432982 -0.0032134873 0.0028456917 0.014313159 0.0124268215 0.0049515255 -0.00080001936 -0.005175487
-0.0044645783 0.0031475932 -0.005744392 0.0022791717 0.012554695 -0.0060099633 -0.0018188398 0.0021854404
-0.0021430487 0.008843441 0.0019999908 0.014932635 0.008743622 0.0025717535 0.0072986977 0.010017384
0.00882883 -0.014388424 0.0088787 -0.013482906 -0.0032841868 0.010445725 -0.006692687 -0.0014899963
-0.009063433 -0.011436862 0.01030671 -0.0070645064 -0.0009231616 -0.004652566 0.008279931 0.013662066
0.0023410418 -0.0034650292 -0.008757629 -0.010116881 0.0021735746 -0.0049249306 0.013211983 0.013742812
-0.004380139 0.008305758 0.007384993 -0.0025634088 -0.011265204 -0.010844922 0.009006122 0.0043173158
0.008292919 0.012490879 -0.003957793 -0.008989718 -0.011998011 0.006935424 -0.011759467 -0.008357397
0.014471527 0.001555225 0.0037864305 0.0072122887 -0.004462029 0.008845619 0.009309572 0.004304069
0.01039225 -0.003741267 -0.006563939 -0.0073230765 0.005050039 -0.0029703006 -0.010851122 -0.0033088077
-0.0060058855 -0.0023549888 0.009143897 0.01296168 -0.0049985927 0.00043996997 0.010354752 -0.010507525
00000000: 63f4 b43b 2cfe 6c3b d8ac 53bc 99c8 24bc
00000010: 2483 333c 7547 b23b a586 8dbb 4e32 c43a
00000020: d3d1 66bb 4d49 b93b 62ff 0abc 946c d9ba
00000030: e1ae 053c ff74 043c 9033 84bb 90cd cbbb
00000040: 1e04 4abc 992e 3fbc 5e4a dc3b d8bd 143c
00000050: 7ecd 243c b2c0 55ba a410 123b 83f8 b53a
00000060: 5631 f63b b09d 62bb 52e6 43bc 3e89 e73b
00000070: 80ce adbb 5073 92ba c37b b0b9 04d6 69bb
00000080: 0a50 3fbb 5ff0 3d3c 1ffb 823b c7d1 48bc
00000090: 43f1 2abc 4300 d93b cfa4 d63b fcbc 823b
000000a0: 20e8 59ba cacd 163c 862d eb3a f100 a63b
000000b0: 2895 913b 4084 093c f4b6 4fbc 19e0 9b3b
000000c0: 2173 a1bb 62dc 673a 6ed8 4e3c 6c6a a6ba
000000d0: db49 de3b f94a 093c 656b 0abb 0ce9 46bc
000000e0: 7424 d9bb 5c04 243c a804 f5bb e7bd 3ebb
000000f0: 9e9c 4c3c be3b 0abc 5b6e e9bb 50ae 5db9
00000100: b836 4d3b 5124 f3ba 6b84 ef3b 0d7c 43bc
00000110: 422a af3b f28e 2fba 023a 893b b35e 34bc
00000120: 3432 26bb 2ac2 f63b e3a6 bfbb 8a59 2b3b
00000130: 7c29 133b 5c97 9c3b fbdf 2e3c ece5 9cba
00000140: da26 89bb 91fb 3b3c 3e2b 4d3c 7ec8 193c
00000150: 4837 1d3c 39f8 293b d649 babb e537 54bc
00000160: 749e 80bb 098f d0bb fd94 553a 7f59 0ebc
00000170: 1079 53bc 7b1f b23b bb09 02bc b925 44bc
00000180: d0b9 243a 631b 4abc 8a9e 083c cd5b af3b
00000190: 5121 0c3c cee0 6f3b 46ea 39bc 05fa 1c3c
000001a0: 0bf4 1c3c f10e a9bb 3e9d 4d3c 7d6a 8d3b
000001b0: a3c2 8c3b e8f1 05bb cb8b 013b 90cf 503c
000001c0: f6c1 12bc 0091 1d3c ad78 01bc 0a1d 29bc
000001d0: 7b1e 0fbc 8ceb b13b 341b b3b9 cb46 453b
000001e0: f0a7 fabb 7b70 f43b eb9f 8dbb b522 2ebc
000001f0: 7bc0 ab3b 046a 913a c7ee 16bc b1cc a83b
00000200: ecd3 033c 51b6 163c 4f31 1d3b df40 29bc
00000210: 5d63 623b ba0e ab3b a02d 9d3b 0dc9 f83b
00000220: ca98 59bc 878a 0dbc 4a9b b13b 3f50 513b
00000230: 4c48 5abb 0546 daba 36d7 703c 0693 b23b
00000240: ef4f 37ba 8d79 d83b 0e89 203c ff6f 50bb
00000250: 8f0f 8039 dc5f cb39 d651 4a3b 6414 d7ba
00000260: 8604 5b39 9c84 803b bf71 8fbb 1db8 72bc
00000270: 491f 54bc b5ca 4d3a f7e4 8fba 1d17 75bc
00000280: 62c8 31ba 31d9 6fba b2cb 213c 4183 5a3c
00000290: 5f44 2abc 53f5 77bc 6f77 5b3b 36ff ecb9
000002a0: 5f90 f33b 5f99 52bb c97e 3a3b bd81 6a3c
000002b0: de99 4b3c 6840 a23b 64b8 51ba 2297 a9bb
000002c0: 994b 92bb da47 4e3b 743b bcbb 285e 153b
000002d0: 35b2 4d3c 3aef c4bb 2366 eeba 9b39 0f3b
000002e0: 6472 0cbb 14e4 103c 4712 033b 03a8 743c
000002f0: 6941 0f3c dd8a 283b ea29 ef3b f41f 243c
00000300: cca6 103c 6dbd 6bbc f877 113c 68e7 5cbc
00000310: 833b 57bb 8c24 2b3c 544e dbbb fb4b c3ba
00000320: cb7e 14bc ad61 3bbc 7add 283c 607d e7bb
00000330: 5400 72ba 8d74 98bb 8ca8 073c dcd6 5f3c
00000340: 2a6c 193b 8b15 63bb 297c 0fbc 46c1 25bc
00000350: 8872 0e3b 5061 a1bb 1377 583c 8829 613c
00000360: 4587 8fbb e014 083c d0fd f13b ddfe 27bb
00000370: b191 38bc e6ae 31bc 6a8e 133c 4578 8d3b
00000380: 06df 073c 8ba6 4c3c 60b0 81bb 9c49 13bc
00000390: 4e93 44bc 8e42 e33b c8aa 40bc 77ed 08bc
000003a0: fc19 6d3c b1d8 cb3a c325 783b 1055 ec3b
000003b0: 3636 92bb 37ed 103c 2d87 183c 2609 8d3b
000003c0: 4144 2a3c 0b30 75bb 5016 d7bb 6bf6 efbb
000003d0: cc7a a53b 60a9 42bb e8c8 31bc 95d8 58bb
000003e0: 05cd c4bb 2856 1abb 49d0 153c 3a5d 543c
000003f0: 3ccb a3bb c5ab e639 faa6 293c c127 2cbc

encoder.weight_hh_l1 f4 [256, 64]
0.0051483624 0.01167553 -0.0055088876 0.011261127 -0.0061135874 0.0063196686 0.0024342889 0.008779767
-0.010804267 -0.012086693 -0.012218328 0.0060521965 0.009759603 -0.0031285554 0.005035326 -0.006855273
0.012075564 -0.0033760404 -0.011621001 -0.0052614375 -0.0047037746 0.013088722 -0.0030301614 -0.009517121
-0.0059979325 0.0050265286 -0.00032172963 0.0045829536 -0.01129709 -2.601506e-05 0.012744857 0.0019384817
0.0042425846 0.0049163145 -0.009401928 0.0015881119 -0.0059267897 0.010284284 -0.004625277 0.008839928
-0.011977018 0.0028321515 -0.0048351265 0.0070872987 -0.011805259 0.008499621 -0.009158458 0.005890041
-0.003503506 0.0012871418 -0.00987127 -0.0029791396 -0.010042273 -0.008629457 -0.0055084447 0.008745316
0.00023657468 -0.0017919812 0.005641883 -0.0018979968 -0.011580422 0.002421115 -0.0022705232 0.00011330633
0.0017842267 0.00571708 -0.010652667 0.011118535 0.012766868 -0.010785019 0.008224771 -0.007882282
0.0028336912 0.0028611643 -0.012394281 0.007734815 0.0122673 -0.00047585918 0.0030780828 -0.0015955522
-0.01254711 -0.0042193783 -0.01015409 -0.0023477045 -0.011944341 -0.003152595 0.008791076 -0.01037228
0.004063374 0.00070967147 -0.008345226 -0.010301222 0.010242168 0.003102549 -0.005085414 -0.0008108041
0.004598571 -0.0051547894 0.008291706 -0.012037833 -0.0013604956 0.00799965 0.0035925163 0.005030522
-0.007379011 0.010204085 -0.0040286295 -0.011710715 -0.010920766 -0.003387476 -0.00250644 0.01006761
0.0047293254 0.011463276 0.0043898798 0.0052923076 -0.0012290461 0.0085647525 -0.012882638 0.008463221
0.0059360676 0.012593765 0.0064475858 0.007870401 0.009612768 0.0016392906 0.008033754 -0.003525542
-0.0025763342 -0.0113313375 0.004764993 -0.011281224 0.005994224 -0.0038624539 -0.0096026845 -0.002836405
0.004312277 -0.013747774 -0.007068124 -0.014433276 0.010929267 0.011259747 0.0061152424 0.0049797255
0.009255781 0.00456267 0.014181159 -0.010561841 -0.015179856 -0.009839291 -0.00989994 0.008443491
0.0064773518 -0.0008752519 -0.005359029 -0.00018960207 0.005996401 -0.006179827 0.004394811 -0.002622482
-0.0063223867 -0.011745974 -0.0077316603 0.013009601 0.0063047623 0.0063025914 -0.0037704015 -0.013980519
0.00974513 0.0023522042 0.014022193 0.015191847 0.0038688602 -0.007845548 -0.003586215 0.002637318
-0.010005446 0.0031357717 -0.010699841 -0.002736241 -0.007890344 -0.010407518 0.009470328 -0.0037452546
0.00091795577 0.004402247 0.008693358 0.006760384 -0.010637884 -0.0048605776 -0.0034562317 0.0102734035
0.008078273 0.0035817847 -0.006494813 0.0023990907 -0.007328326 0.00820281 0.0054643555 6.173682e-05
0.008903666 -0.013958642 -0.0019829809 -0.007962031 -0.012380068 0.012578717 -0.013287535 -0.007988401
-0.0063832873 -0.000636393 0.011719777 0.013345226 -0.004981244 0.0111406995 -0.0011212276 -0.0048324503
-0.012599016 0.0030837003 0.00225827 -0.0021847158 -0.011059549 0.0004190993 0.009764101 -0.009471928
-0.008181893 0.010794698 0.0015344716 -0.009234952 0.013530702 0.013285109 -0.009480977 -0.0042766696
-0.0033674652 0.011690282 0.007752034 -0.011323884 -0.0085524125 -0.005308407 0.010625477 0.007530004
-0.009264767 -0.0060262727 -0.010203951 -0.0033976922 0.0035129667 -0.0007905509 -0.005974195 0.009926771
0.008259917 0.013785549 -0.0004461051 -0.0058989194 -0.009103245 0.0037857161 0.008018459 -0.0050311256
00000000: 98b3 a83b b94a 3f3c e683 b4bb 9780 383c
00000010: 7d54 c8bb 3915 cf3b 9788 1f3b 03d9 0f3c
00000020: 6104 31bc 4407 46bc 622f 48bc 8151 c63b
00000030: bee6 1f3c 7308 4dbb 60ff a43b 33a2 e0bb
00000040: 96d8 453c 8f40 5dbb 0366 3ebc 2368 acbb
00000050: 1f22 9abb 1472 563c ac95 46bb b3ed 1bbc
00000060: 4e8a c4bb 94b5 a43b d2ad a8b9 9a2c 963b
00000070: 6e17 39bc ea3a dab7 cecf 503c a714 fe3a
00000080: 6105 8b3b 0919 a13b 8b0a 1abc 3128 d03a
00000090: 8435 c2bb 6a7f 283c a38f 97bb 58d5 103c
000000a0: 413b 44bc 9e9b 393b fb6f 9ebb 923c e83b
000000b0: d86a 41bc ff41 0b3c 5b0d 16bc 3f01 c13b
000000c0: 149b 65bb 50b5 a83a 1bbb 21bc ab3d 43bb
000000d0: 5988 24bc 9162 0dbc 2f80 b4bb 8448 0f3c
000000e0: 0811 7839 e9e0 eaba 8bdf b83b 34c6 f8ba
000000f0: cfbb 3dbc 92ab 1e3b 0fcd 14bb df9e ed38
00000100: b7dc e93a 5856 bb3b 8688 2ebc 842a 363c
00000110: 202c 513c a6b3 30bc 31c1 063c b024 01bc
00000120: 73b5 393b 5f82 3b3b 6211 4bbc 5574 fd3b
00000130: c9fc 483c bd7c f9b9 a9b9 493b d921 d1ba
00000140: 6592 4dbc b642 8abb 575d 26bc f2db 19bb
00000150: 32b2 43bc c49b 4ebb 7208 103c 7ff0 29bc
00000160: 0d26 853b 3f09 3a3a 6aba 08bc 75c6 28bc
00000170: c4ce 273c 2254 4b3b 8ba3 a6bb 248c 54ba
00000180: 9caf 963b 82e9 a8bb f0d9 073c 553a 45bc
00000190: a852 b2ba f710 033c 6c70 6b3b 14d7 a43b
000001a0: a1cb f1bb 092f 273c 9802 84bb 4cde 3fbc
000001b0: 03ed 32bc 6b00 5ebb 1643 24bb 9ef2 243c
000001c0: 75f8 9a3b 77d0 3b3c fbd8 8f3b 186b ad3b
000001d0: f217 a1ba 2d53 0c3c b311 53bc 52a9 0a3c
000001e0: 5883 c23b 1456 4e3c 4546 d33b dbf2 003c
000001f0: df7e 1d3c 77dd d63a 02a0 033c c80c 67bb
00000200: b7d7 28bb 13a7 39bc a923 9c3b e2d4 38bc
00000210: 326b c43b 3921 7dbb 9454 1dbc fbe2 39bb
00000220: 004e 8d3b 583e 61bc b99b e7bb 8c79 6cbc
00000230: ab10 333c cd7a 383c 5f62 c83b f72c a33b
00000240: 8fa5 173c 7382 953b 1858 683c 920b 2dbc
00000250: eeb4 78bc fa34 21bc 5c33 22bc 9156 0a3c
00000260: f73f d43b 2971 65ba cb9a afbb ebcf 46b9
00000270: 757d c43b 2580 cabb 5902 903b f2dd 2bbb
00000280: 062c cfbb 3072 40bc de59 fdbb 3926 553c
00000290: 2e98 ce3b f885 ce3b d718 77bb 8c0e 65bc
000002a0: 0aaa 1f3c 7027 1a3b 57bd 653c 3ae7 783c
000002b0: b48c 7d3b 9d8a 00bc b406 6bbb dbd6 2c3b
000002c0: e2ed 23bc 8581 4d3b 634e 2fbc 8252 33bb
000002d0: 8046 01bc 4b84 2abc 6f29 1b3c f272 75bb
000002e0: f8a2 703a b940 903b 966e 0e3c 3686 dd3b
000002f0: 854a 2ebc 7b45 9fbb f281 62bb c751 283c
00000300: bc5a 043c 60bc 6a3b 71d2 d4bb 103a 1d3b
00000310: 7422 f0bb 1465 063c 560e b33b b478 8138
00000320: afe0 113c cab2 64bc e6f4 01bb 2e73 02bc
00000330: c5d5 4abc f716 4e3c f6b3 59bc c8e1 02bc
00000340: e52a d1bb 9cd3 26ba 4f04 403c efa5 5a3c
00000350: b439 a3bb 7b87 363c 28f6 92ba 8859 9ebb
00000360: 1a6c 4ebc e817 4a3b 7cff 133b 732d 0fbb
00000370: 1c33 35bc 8eba db39 9cf9 1f3c 2530 1bbc
00000380: 590d 06bc 3fdc 303c 5320 c93a 324e 17bc
00000390: e1af 5d3c c9a9 593c 1a56 1bbc 4e23 8cbb
000003a0: b1b0 5cbb 9988 3f3c c604 fe3b d087 39bc
000003b0: 6b1f 0cbc 25f2 adbb 7b16 2e3c 40be f63b
000003c0: 40cb 17bc 0a78 c5bb 792e 27bc d1ab 5ebb
000003d0: cd39 663b f93c 4fba 2ec3 c3bb e5a3 223c
000003e0: 9a54 073c c9dc 613c 37e3 e9b9 b94b c1bb
000003f0: c725 15bc c719 783b db5f 033c 24dc a4bb

encoder.bias_ih_l1 f4 [256]
-0.0056062457 -0.007007038 -0.0041387533 0.0019112868 0.0040268097 0.0067436392 0.00092705764 -0.009261784
0.004730826 -0.0006159733 -0.0077600996 0.012029667 -0.008807866 0.0023890205 0.0014128912 0.01238377
-0.0018779392 0.006967299 -0.0028019783 0.0018314418 -0.0031355317 0.010165594 -0.008740553 0.002238524
-0.010796106 -0.003093858 -0.002886024 -0.0009700305 0.013654824 0.005761922 0.008755481 -0.00017668109
0.0032936824 -0.0042895037 -0.010882875 0.011734425 -0.0037001788 0.0035911722 -5.378229e-05 0.015008941
0.00582206 0.011975878 0.004144921 -0.0040352144 0.002720734 0.011876657 -0.010103251 -0.0068572853
0.010799001 0.014464031 -0.00781585 -0.005056376 0.013752993 0.0084742475 -0.012491191 -0.009871494
0.00996908 -0.007410904 -0.009308473 -0.0044522393 -0.004743602 -0.00547885 -0.0032398913 0.000492434
-0.00984149 0.0012466757 0.0031581086 -0.0061966367 -0.008238941 0.006146976 0.00899076 0.008598022
-0.0051030964 0.012669391 0.00390757 -0.003723475 -0.004495103 0.012169277 0.004144042 -0.011057049
0.001815069 -0.012073598 -0.0027051705 0.006670543 0.007844361 -0.0055527156 -0.0074867187 -0.00047056022
-0.0013701249 0.014215719 0.008065786 -0.006193145 -0.0030466795 0.006211033 0.0142602 0.0070294105
0.00497407 -0.00018745064 -0.0073506264 0.011825495 -0.010933819 0.009893438 0.0040481067 0.0036999146
-0.009739659 0.00078589417 -0.0027710877 0.0007662299 -0.008727136 0.000988272 0.0036508832 -0.002537619
0.0038427713 0.0022214348 0.005493041 -0.0015977089 0.0054038605 -0.0103080785 0.011869597 -0.0076672686
0.010498316 -0.009845264 -0.010541221 -0.0073672063 0.0064409366 -0.0031234634 0.010587123 -0.0050075287
-0.023091068 0.015844611 0.00445667 -0.055969477 -0.03403892 0.0057099955 -0.020065319 0.00015808688
0.018290358 -0.007217892 -0.009342742 -0.009546338 0.044765603 -0.063580096 0.098621696 0.07421663
0.021183765 -0.0017566527 -0.014166386 0.028310075 0.091240294 0.013543755 -0.019257722 -0.06916072
-0.02370629 0.0248523 -0.06072346 -0.016071364 -0.00047536337 0.13439162 0.06463506 -0.017768849
0.038955636 0.03366457 -0.056186892 -0.0064111575 -0.019263916 0.050540343 -0.016804786 0.0010507389
0.06553472 0.030114193 -0.037290283 0.058749165 0.017968977 -0.042465374 -0.049224116 -0.062271163
-0.08957395 -0.021104617 0.043974064 0.0036083192 0.011551691 0.051809058 0.05714554 -0.057407394
-0.08315756 -0.020125868 -0.043346006 -0.018741552 0.013811272 0.0024745364 0.019853678 0.009509358
0.0042575705 0.0034110607 0.01456107 -0.0056162057 0.0057054884 0.017425936 0.012232222 0.015512689
0.010027025 -0.028564686 0.0020284005 0.011744642 0.0071409466 0.010552417 -0.007487131 0.013848177
0.006748421 -0.009704977 -0.005387264 -0.000566005 -0.0026463987 0.010710855 0.008460067 0.005773739
-0.0010329438 -0.0037416993 0.012125191 0.004449967 -0.0024132987 -0.013772211 0.010283584 0.037433077
-0.010166601 0.0035962139 0.0024649752 0.007902402 0.011721135 -0.003106714 -0.003920344 -9.1605034e-05
-0.0046273787 0.011809309 0.01109599 -0.0057171737 0.018422535 0.013995112 -0.0061460617 -0.042110406
0.015895974 0.015888901 0.0066709924 -0.0029771442 0.014369317 0.0130494675 0.0036477437 0.007085901
0.0001312324 0.011013267 0.0065444303 0.015567531 0.0107443575 0.016796216 0.013353775 -0.007191012
00000000: 99b4 b7bb 4c9b e5bb 619e 87bb 2584 fa3a
00000010: 54f3 833b bff9 dc3b c905 733a bdbe 17bc
00000020: 0b05 9b3b 4579 21ba 6f48 febb 1518 453c
00000030: de4e 10bc 1d91 1c3b c330 b93a 4ce5 4a3c
00000040: 2f25 f6ba f14d e43b 65a1 37bb fd0c f03a
00000050: 7e7d 4dbb 978d 263c 8934 0fbc 33b4 123b
00000060: 27e2 30bc 53c2 4abb 7323 3dbb a549 7eba
00000070: 7cb8 5f3c 81ce bc3b 2673 0f3c 7843 39b9
00000080: d2da 573b f78e 8cbb 164e 32bc bf41 403c
00000090: b37e 72bb df59 6b3b 4b94 61b8 10e8 753c
000000a0: fbc6 be3b 7936 443c 1ed2 873b d539 84bb
000000b0: 584e 323b 4f96 423c 1b88 25bc 14b3 e0bb
000000c0: 4bee 303c 8bfa 6c3c 0d0e 00bc f5af a5bb
000000d0: 3c54 613c 92d7 0a3c daa7 4cbc 0cbc 21bc
000000e0: 5a55 233c 2bd7 f2bb 9182 18bc 17e4 91bb
000000f0: 3870 9bbb ed87 b3bb 5b54 54bb b016 013a
00000100: 333e 21bc 7f67 a33a 45f8 4e3b 280d cbbb
00000110: a0fc 06bc 926c c93b fb4d 133c b8de 0c3c
00000120: e037 a7bb 4793 4f3c 130b 803b 8b05 74bb
00000130: a84b 93bb a661 473c beca 873b a028 35bc
00000140: 9ce7 ed3a 57d0 45bc 3b49 31bb 9294 da3b
00000150: a285 003c 8ef3 b5bb 2653 f5bb 86b5 f6b9
00000160: c395 b3ba 0ce9 683c 5c26 043c deef cabb
00000170: cdaa 47bb ec85 cb3b 9da3 693c f856 e63b
00000180: 86fd a23b 668e 44b9 86dd f0bb b9bf 413c
00000190: c323 33bc 1618 223c fba5 843b 447a 723b
000001a0: 1793 1fbc 7704 4e3a 239b 35bb d1dc 483a
000001b0: 43fc 0ebc e888 813a a843 6f3b 2f4e 26bb
000001c0: 01d7 7b3b 7e95 113b f8fe b33b 376a d1ba
000001d0: de12 b13b 37e3 28bc b378 423c b63d fbbb
000001e0: 2101 2c3c 084e 21bc 16b5 2cbc 9b68 f1bb
000001f0: 7e0e d33b 05b3 4cbb 9d75 2d3c 3216 a4bb
00000200: 7b29 bdbc 8fcc 813c 4209 923b 4040 65bd
00000210: 656c 0bbd ea1a bb3b 0660 a4bc 20c4 2539
00000220: a9d5 953c 1184 ecbb 4d12 19bc 3e68 1cbc
00000230: 235c 373d 4836 82bd 2cfa c93d e3fe 973d
00000240: 9389 ad3c 7c3f e6ba 211a 68bc 88ea e73c
00000250: 31dc ba3d a0e6 5d3c 5fc2 9dbc 23a4 8dbd
00000260: b233 c2bc 0d97 cb3c 2ab9 78bd 18a8 83bc
00000270: 313a f9b9 f59d 093e 635f 843d fa8f 91bc
00000280: f28f 1f3d dce3 093d 3a24 66bd b014 d2bb
00000290: 5ccf 9dbc 6403 4f3d 31aa 89bc f2b8 893a
000002a0: 1137 863d 0ab2 f63c b2bd 18bd f7a2 703d
000002b0: ad33 933c 2cf0 2dbd 3a9f 49bd 0c10 7fbd
000002c0: 8c72 b7bd 97e3 acbc 261e 343d 8d79 6c3b
000002d0: 4e43 3d3c bc35 543d 7111 6a3d 0424 6bbd
000002e0: 834e aabd 01df a4bc 958b 31bd e287 99bc
000002f0: ac48 623c d52b 223b 2ea4 a23c 23cd 1b3c
00000300: 1783 8b3b 1a8c 5f3b 8e91 6e3c 2608 b8bb
00000310: 1bf5 ba3b d6c0 8e3c a869 483c ef28 7e3c
00000320: 6448 243c 7d00 eabc eaee 043b 996c 403c
00000330: 9afe e93b 0be4 2c3c 9b56 f5bb 77e3 623c
00000340: dc21 dd3b a001 1fbc a587 b0bb f45f 14ba
00000350: 346f 2dbb 957c 2f3c 189c 0a3c a231 bd3b
00000360: d863 87ba 4c37 75bb bda8 463c 07d1 913b
00000370: 6f28 1ebb d7a4 61bc 7a7c 283c 6d53 193d
00000380: d191 26bc 75ae 6b3b 6c8b 213b 1479 013c
00000390: 010a 403c 039a 4bbb 3b76 80bb 141c c0b8
000003a0: 44a1 97bb d57b 413c f5cb 353c 2157 bbbb
000003b0: dbea 963c c14b 653c e764 c9bb f67b 2cbd
000003c0: 4638 823c 7129 823c 5798 da3b 311c 43bb
000003d0: 496d 6b3c 6fcd 553c fc0e 6f3b d930 e83b
000003e0: 6e9b 0939 fd70 343c a972 d63b f50e 7f3c
000003f0: 1a09 303c 3898 893c cbc9 5a3c 95a2 ebbb
