Models/artifact_3/dense_ae.pt (torch, 32194 bytes, 12 tensors)

enc.0.weight f4 [40, 60]
0.10311922 0.17520979 -0.08956306 -0.035944957 0.16878408 0.14764997 -0.0022491466 0.15216392
0.06627129 -0.13506171 0.059674323 0.03601462 0.11002606 0.15361235 -0.016206851 -0.095584236
-0.057943787 0.09857426 0.00760229 0.053943455 0.011980865 -0.0952621 -0.1402493 0.028102135
0.06117861 0.23961496 0.1702907 -0.6511555 -0.07761714 -0.051146228 0.03110973 0.07300999
0.16740607 0.014758685 -0.07400481 0.066990554 0.077359445 0.032047857 0.19511235 0.042141177
-0.123543225 0.020042082 -0.060616203 0.15321323 0.20316364 0.05224394 -0.13575476 -0.105102226
-0.0629286 0.030417297 0.050307885 0.013818934 0.11452486 0.025947923 0.014989759 0.1984822
-0.0008944101 0.036428813 0.02501616 -0.04507799 0.112819985 0.1911134 -0.029035997 -0.026097968
-0.027284436 -0.0117379 0.18694733 0.24198195 0.07641253 -0.11834576 -0.08183686 -0.096381195
0.14674133 0.07294119 0.06676215 -0.09484384 -0.09945319 -0.037538517 0.018859249 0.19310434
0.20311508 0.07006033 -0.09096577 -0.06748491 0.06469948 0.22330652 0.23445447 0.14267208
-0.17228296 0.004939862 0.023470294 0.14221267 0.12514877 0.07926893 -0.069639154 -0.08088235
0.0128568625 0.112458356 0.093527034 0.08375599 -0.019189434 -0.03612198 -0.109538846 0.10086487
0.2610229 0.12787053 0.06389662 -0.11129261 -0.118784025 0.008132434 0.22687651 0.23395124
-0.0042237393 -0.09014544 -0.12802747 -0.099474125 0.18171874 0.20601436 0.08289307 -0.020679785
0.027465666 0.07225032 0.15002234 0.042310484 -0.060910683 0.01948575 0.078901656 0.11493485
0.18153527 -0.015750363 -0.06586021 0.054815017 -0.023347497 0.062049236 0.052653532 0.02558091
0.18350478 0.054923657 0.08423206 0.15411715 0.13018635 0.08676448 0.10500512 0.1039064
0.06721442 0.11904461 0.11898513 0.083832584 0.034106307 0.18827811 0.17635193 0.023297155
-0.018966042 -0.002262312 0.16091385 0.1203363 -0.049230054 -0.05655787 0.12239533 0.20953247
0.06511459 0.15211834 -0.03771284 0.028979156 -0.004786498 0.0368097 0.12079659 0.1306321
0.034934774 -0.0399891 0.15051489 0.13101202 0.06631133 0.18731616 0.052533362 -0.02716472
0.08099486 -0.048182506 0.027033227 0.03453441 -0.06898267 0.045724384 -0.02959025 0.118723266
0.04200822 -0.08076945 0.035173137 -0.053151537 0.029887937 -0.01563202 0.082061425 -0.026581898
-0.0020018308 0.11609888 0.01407595 0.0327209 0.032900743 0.01495133 -0.08510709 -0.111824125
-0.11543308 -0.14635338 0.08603093 0.09687645 0.05273881 -0.07274241 -0.097959325 0.8637005
0.10192854 0.0874977 0.10080454 0.036505207 0.05509865 0.09410547 0.029196626 0.096614376
0.17261575 0.009324852 -0.07746171 0.012452456 0.07740371 0.15252072 0.14695124 0.07000002
0.036434118 -0.03863062 0.10205173 0.014553031 -0.019864975 0.07058747 0.025780605 -0.06057224
0.026472047 0.036819432 0.14595331 0.15439336 -0.17641094 -0.1939605 0.024613697 -0.058014143
-0.15327987 -0.13685262 -0.05063796 0.22458905 0.17594747 -0.01175129 -0.095645316 -0.17945363
-0.1771385 0.1756773 0.14301796 0.023759032 0.027599128 -0.19571835 -0.106191106 -0.018436078
00000000: 2b30 d33d 326a 333e d66c b7bd 053b 13bd
00000010: bcd5 2c3e 8e31 173e 6b66 13bb dcd0 1b3e
00000020: 3eb9 873d 9e4d 0abe 106d 743d 1184 133d
00000030: 5855 e13d 8e4c 1d3e 3bc4 84bc abc1 c3bd
00000040: 7756 6dbd 4de1 c93d a11c f93b d0f3 5c3d
00000050: 644b 443c c718 c3bd 839d 0fbe 7336 e63c
00000060: 6c96 7a3d a05d 753e af60 2e3e 20b2 26bf
00000070: bcf5 9ebd b57e 51bd d5d9 fe3c 4386 953d
00000080: 7f6c 2b3e 69ce 713c d58f 97bd 5832 893d
00000090: a16e 9e3d 9d44 033d 88cb 473e 3a9c 2c3d
000000a0: 3b04 fdbd 4b2f a43c b248 78bd eee3 1c3e
000000b0: 210a 503e befd 553d 4c03 0bbe d63f d7bd
000000c0: b6e0 80bd b22d f93c a40f 4e3d cf68 623c
000000d0: 038c ea3d bd90 d43c 9b97 753c eb3e 4b3e
000000e0: d976 6aba 6136 153d b1ee cc3c b3a3 38bd
000000f0: 2a0e e73d 3bb3 433e e6dc edbc 68cb d5bc
00000100: 9c83 dfbc 5250 40bc 1f6f 3f3e 1eca 773e
00000110: 2c7e 9c3d 435f f2bd 159a a7bd 8163 c5bd
00000120: 5c43 163e 3162 953d 98ba 883d 7d3d c2bd
00000130: 1dae cbbd fdc1 19bd b67e 9a3c 25bd 453e
00000140: 66fd 4f3e ca7b 8f3d 434c babd 8735 8abd
00000150: 2981 843d 77aa 643e d514 703e a118 123e
00000160: f26a 30be 91de a13b c644 c03c 33a0 113e
00000170: 0027 003e c057 a23d f99e 8ebd a5a5 a5bd
00000180: 97a5 523c 9150 e63d 1a8b bf3d 4388 ab3d
00000190: 2933 9dbc a4f4 13bd e755 e0bd 3e92 ce3d
000001a0: cba4 853e 7ef0 023e 3bdc 823d 61ed e3bd
000001b0: 0a45 f3bd e73d 053c 5152 683e ea90 6f3e
000001c0: 4b67 8abb 2c9e b8bd a219 03be 17b9 cbbd
000001d0: 7a14 3a3e 6ef5 523e d8c3 a93d a768 a9bc
000001e0: adff e03c faf7 933d 759f 193e c24d 2d3d
000001f0: 7b7d 79bd 94a0 9f3c 3197 a13d f662 eb3d
00000200: 62e4 393e e806 81bc b8e1 86bd b685 603d
00000210: 4043 bfbc 5727 7e3d 3bab 573d 0e8f d13c
00000220: ade8 3b3e a1f7 603d dc81 ac3d e3d0 1d3e
00000230: 924f 053e 93b1 b13d ed0c d73d e1cc d43d
00000240: b7a7 893d a9cd f33d 7aae f33d 6bb0 ab3d
00000250: 0eb3 0b3d facb 403e 9a95 343e add9 be3c
00000260: ac5e 9bbc 4c43 14bb 9ac6 243e e172 f63d
00000270: 74a5 49bd 3aa9 67bd 67aa fa3d ae8f 563e
00000280: cc5a 853d e9c4 1b3e c778 1abd b265 ed3c
00000290: 0ed8 9cbb c5c5 163d 3464 f73d 6cc4 053e
000002a0: c417 0f3d 9ccb 23bd 9320 1a3e 0428 063e
000002b0: 3cce 873d cfcf 3f3e 392d 573d 8c88 debc
000002c0: a2e0 a53d 055b 45bd c974 dd3c f473 0d3d
000002d0: c946 8dbd 7e49 3b3d 4167 f2bc 2f25 f33d
000002e0: d010 2c3d 746a a5bd b511 103d 6db5 59bd
000002f0: 8cd7 f43c b90e 80bc d20f a83d 48c2 d9bc
00000300: 2631 03bb 40c5 ed3d d09e 663c 5a06 063d
00000310: eec2 063d 6cf6 743c a04c aebd 0c04 e5bd
00000320: 2e68 ecbd a9dd 15be fc30 b03d 2967 c63d
00000330: a704 583d f9f9 94bd e69e c8bd 7a1b 5d3f
00000340: e9bf d03d fe31 b33d 9c72 ce3d 7c86 153d
00000350: 1faf 613d 5eba c03d c32d ef3c c2dd c53d
00000360: 2fc2 303e 44c7 183c 3fa4 9ebd 6305 4c3c
00000370: d685 9e3d 642e 1c3e 637a 163e 2c5c 8f3d
00000380: f13b 153d 243b 1ebd 7f00 d13d d66f 6e3c
00000390: dfbb a2bc 2a90 903d d931 d33c 991a 78bd
000003a0: e8db d83c f9cf 163d c974 153e 4b19 1e3e
000003b0: 12a5 34be 959d 46be aaa2 c93c 3da0 6dbd
000003c0: 66f5 1cbe 1823 0cbe c069 4fbd acfa 653e
000003d0: 932b 343e 7c88 40bc b1e1 c3bd b1c2 37be
000003e0: cc63 35be c0e4 333e 4d73 123e 4da2 c23c
000003f0: 9117 e23c 646a 48be b97a d9bd 4207 97bc

enc.0.bias f4 [40]
-0.029145418 -0.27775988 0.08029568 -0.13377807 0.091100305 0.118145876 -0.11815729 0.06522081
-0.09360292 0.13997266 -0.0044899797 0.091186196 -0.0307683 -0.012496202 0.05724314 0.017105909
-0.071668416 -0.040876456 0.06798096 -0.0833372 0.1125986 0.047942754 -0.05673563 -0.20842785
-0.088887796 0.10528536 -0.04522242 0.087933436 -0.067686744 -0.107638344 0.076352395 -0.09910008
-0.10750691 -0.018226089 -0.107912004 -0.031067282 0.056263562 0.010248033 0.05727133 0.11231659
00000000: 5fc2 eebc 8b36 8ebe 1072 a43d 1efd 08be
00000010: cc92 ba3d 77f6 f13d 73fc f1bd 7d92 853d
00000020: e3b2 bfbd fe54 0f3e ae20 93bb d4bf ba3d
00000030: cd0d fcbc dfbc 4cbc c877 6a3d b121 8c3c
00000040: e4c6 92bd 126e 27bd 9a39 8b3d b2ac aabd
00000050: 189a e63d 9f5f 443d 9f63 68bd 1c6e 55be
00000060: ce0a b6bd da9f d73d 253b 39bd 7216 b43d
00000070: 599f 8abd 7e71 dcbd a55e 9c3d fcf4 cabd
00000080: 952c dcbd e14e 95bc f800 ddbd d080 febc
00000090: 9f74 663d 5ee7 273c 5895 6a3d 3e06 e63d

enc.2.weight f4 [20, 40]
0.057126686 0.2503261 0.045984343 0.1427123 0.0051586973 0.13122638 0.15171163 -0.044069372
0.05582133 -0.19695799 0.005043503 -0.13704789 -0.017978314 0.056243073 0.08928174 0.14650404
0.08915198 0.16603568 0.14663182 0.004105337 -0.1602552 0.056295246 -0.071294606 0.112466656
-0.0095810145 -0.11499199 -0.028295308 -0.032077 -0.0736219 -0.000944674 0.025665862 -0.12073173
0.10460751 0.14729667 0.13893037 -0.14851232 0.14869027 0.053807348 -0.060623214 0.0006364584
0.39023435 -0.035995897 0.08317773 -0.4056549 -0.17217746 -0.071188934 -0.0871284 0.0668488
-0.11135115 0.22592753 -0.07103366 -0.061117847 0.26879874 0.08262451 0.046537757 -0.045893572
-0.027524069 0.13466941 -0.07007064 -0.25540277 0.16602199 -0.13479698 0.1470711 -0.20345767
0.064896226 0.08362222 -0.06704226 -0.02699919 0.12229337 -0.01852639 0.004033538 0.007020816
0.052018538 -0.008903063 0.06490201 0.04639662 0.013606116 0.10831657 -0.048523083 0.14735343
0.019522175 0.018720105 0.10372103 -0.15580814 0.109605946 -0.13940439 -0.0093177855 0.038286194
0.04635775 0.07504892 -0.124021225 0.023697361 -0.13373229 0.10673536 -0.12075685 0.03344621
0.057077512 0.078117184 -0.053754203 0.07473976 -0.054689605 -0.109885275 -0.080344096 -0.16128978
-0.0060598254 0.11087228 -0.009753406 -0.110638544 0.0185062 -0.082600035 -0.024098316 -0.0018837899
-0.041559055 0.013117156 -0.05759816 -0.02838181 -0.038070075 -0.1486797 -0.10385896 0.12338136
-0.05920036 0.14730252 -0.008225873 -0.062235225 -0.05794099 0.022266984 -0.026176676 -0.03527844
0.061943352 0.117676124 -0.07435091 -0.08907349 0.056495182 0.048593804 -0.10988349 0.1473656
0.10617529 -0.08251847 -0.061465845 -0.009651974 0.0051356195 -0.035054777 -0.11271773 -0.05883252
0.13385902 -0.061457023 0.06834539 -0.043138154 0.051748216 0.042843103 0.059840363 -0.034559198
0.049052063 -0.1333951 -0.106138274 0.1426814 0.008263528 0.045575283 -0.13646299 0.08977969
0.13247727 -0.050194338 0.104076274 -0.053637415 0.11767495 0.04898289 -0.031050354 -0.087696604
-0.15603122 0.1199683 0.028567195 -0.083597995 0.04420826 0.03770486 0.10999284 0.20567767
0.10274483 0.30793992 -0.08261274 -0.024756484 0.18080631 0.13785066 -0.060622606 0.1374637
0.005608663 0.08174756 -0.10306085 -0.1463205 -0.09156351 0.13335203 0.012046901 -0.006802231
0.02807528 0.08016947 -0.059744447 -0.036652856 -0.13014641 0.05446251 0.09910564 0.07053767
-0.18517388 -0.18446146 0.075224265 0.20288917 0.08639907 0.04999657 -0.04909806 -0.0012023607
-0.003515944 -0.08884016 0.008494236 0.0027670872 0.07574998 0.17615783 0.16214429 0.15446019
-0.08686906 -0.073921055 0.14566986 -0.034492727 0.1815106 -0.0055402466 0.21728025 -0.015147737
-0.094982035 -0.011017531 0.06992344 0.13631473 -0.06324645 0.036176026 -0.19215643 0.049563274
0.05680928 0.001701511 -0.09399474 0.044001102 -0.09511728 -0.118385546 -0.13524362 0.016062707
-0.13100791 0.0041725934 -0.07528825 -0.14771026 0.0083639175 0.029288888 0.06346062 -0.09928137
0.11521275 0.02003643 -0.07243288 0.14242558 -0.07974087 0.059183344 0.018782899 -0.1352078
00000000: acfd 693d be2a 803e 145a 3c3d 2c23 123e
00000010: 4a0a a93b 3560 063e 4b5a 1b3e 1682 34bd
00000020: e8a4 643d 5baf 49be f843 a53b 4856 0cbe
00000030: 4247 93bc 235f 663d 58d9 b63d 2805 163e
00000040: 5095 b63d 4205 2a3e a726 163e 1086 863b
00000050: f019 24be d895 663d e802 92bd eb54 e63d
00000060: b0f9 1cbc ec80 ebbd 90cb e7bc 2c63 03bd
00000070: 14c7 96bd 00a4 77ba 3741 d23c 3242 f7bd
00000080: 763c d63d f0d4 163e c343 0e3e 9d13 18be
00000090: 4342 183e 1865 5c3d 0c50 78bd 00d8 263a
000000a0: cccc c73e 6f70 13bd 1659 aa3d 00b2 cfbe
000000b0: 4a4f 30be 81cb 91bd 6070 b2bd 06e8 883d
000000c0: 120c e4bd 8c59 673e 187a 91bd b556 7abd
000000d0: fd9f 893e 0a37 a93d 609e 3e3d e6fa 3bbd
000000e0: 287a e1bc c7e6 093e 3281 8fbd 27c4 82be
000000f0: ab01 2a3e 3808 0abe ce99 163e 3557 50be
00000100: 50e8 843d 2042 ab3d 744d 89bd 682d ddbc
00000110: f274 fa3d a8c4 97bc c52b 843b e00e e63b
00000120: 6411 553d 27de 11bc 58eb 843d 620a 3e3d
00000130: 30ec 5e3c 14d5 dd3d 24c0 46bd d1e3 163e
00000140: f8ec 9f3c e85a 993c b16b d43d 2b8c 1fbe
00000150: 1579 e03d 06c0 0ebe a0a9 18bc fcd1 1c3d
00000160: a0e1 3d3d 40b3 993d d7fe fdbd f820 c23c
00000170: 1ef1 08be 1298 da3d 5e4f f7bd e5fe 083d
00000180: 1cca 693d e7fb 9f3d 5e2d 5cbd 2911 993d
00000190: 3502 60bd 880b e1bd 728b a4bd 2629 25be
000001a0: 8091 c6bb 0211 e33d c0cc 1fbc 7696 e2bd
000001b0: 509a 973c 352a a9bd d569 c5bc 80e9 f6ba
000001c0: d439 2abd 57e9 563c 0cec 6bbd f880 e8bc
000001d0: 5eef 1bbd 7e3f 18be 02b4 d4bd 5eaf fc3d
000001e0: 147c 72bd 79d6 163e d0c5 06bc 5dea 7ebd
000001f0: 8853 6dbd 4069 b63c 7870 d6bc 2080 10bd
00000200: 50b8 7d3d 2e00 f13d 4a45 98bd 296c b6bd
00000210: 7e67 673d 4c0a 473d 980a e1bd 02e7 163e
00000220: 6e72 d93d 72ff a8bd 9cc3 7bbd 5023 1ebc
00000230: b348 a83b 9995 0fbd 8ed8 e6bd 5efa 70bd
00000240: 5712 093e 5cba 7bbd abf8 8b3d a2b1 30bd
00000250: f0f5 533d 407c 2f3d 2b1b 753d f28d 0dbd
00000260: d1ea 483d ba98 08be 065f d9bd 131b 123e
00000270: c063 073c 26ad 3a3d f4bc 0bbe 6ade b73d
00000280: 1fa8 073e 9498 4dbd f125 d53d e8b2 5bbd
00000290: 90ff f03d 48a2 483d 505d febc 479a b3bd
000002a0: a6c6 1fbe f1b1 f53d c005 ea3c 6d35 abbd
000002b0: b813 353d 6970 1a3d ed43 e13d 2b9d 523e
000002c0: e26b d23d 4daa 9d3e de30 a9bd 1cce cabc
000002d0: 4a25 393e b928 0d3e 694f 78bd 49c3 0c3e
000002e0: e0c8 b73b 446b a73d 9111 d3bd 0bd5 15be
000002f0: a685 bbbd 6f8d 083e 5d60 453c 40e5 debb
00000300: 21fe e53c e42f a43d 98b6 74bd 4e21 16bd
00000310: 1a45 05be 1514 5f3d e6f7 ca3d 0e76 903d
00000320: 399e 3dbe 77e3 3cbe 2e0f 9a3d 2ec2 4f3e
00000330: fff1 b03d 34c9 4c3d 0c1b 49bd 8898 9dba
00000340: c06b 66bb d4f1 b5bd 682b 0b3c 0558 353b
00000350: ce22 9b3d b862 343e 2709 263e d02a 1e3e
00000360: 68e8 b1bd ec63 97bd 7b2a 153e 3f48 0dbd
00000370: eadd 393e f58a b5bb b77e 5e3e 372e 78bc
00000380: f185 c2bd e082 34bc 0534 8f3d 1796 0b3e
00000390: 5b87 81bd 502d 143d a8c4 44be dc02 4b3d
000003a0: d9b0 683d 3c05 df3a 5080 c0bd 803a 343d
000003b0: d9cc c2bd 1f74 f2bd 4e7d 0abe f095 833c
000003c0: f026 06be 40ba 883b ba30 9abd 5c41 17be
000003d0: d008 093c 40ef ef3c a4f7 813d 0854 cbbd
000003e0: aaf4 eb3d 7023 a43c b157 94bd 03d8 113e
000003f0: 2e4f a3bd 3c6a 723d 98de 993c ea73 0abe

enc.2.bias f4 [20]
-0.45847195 0.06711976 0.00013129627 -0.0617565 -0.012353944 -0.031024553 -0.030196711 -0.06273017
-0.1491712 0.045604207 -0.13998324 0.41706306 -0.09211781 0.06859137 0.11425361 0.13236515
0.13963418 -0.039820634 -0.14462982 -0.14222182
00000000: d6bc eabe 1676 893d 93ac 0939 62f4 7cbd
00000010: 3268 4abc 3427 febc 185f f7bc ad78 80bd
00000020: 56c0 18be 7acb 3a3d c457 0fbe 4a89 d53e
00000030: 43a8 bcbd a279 8c3d ccfd e93d bb8a 073e
00000040: 43fc 0e3e f61a 23bd d719 14be 99a2 11be

enc.4.weight f4 [10, 20]
0.027209975 -0.29842415 0.17320487 0.048701193 -0.19310899 0.23572147 -0.17040852 -0.13810271
-0.1443226 0.25813589 -0.04647541 -0.16158327 0.026067417 -0.0367734 0.24749784 -0.12947576
0.29871035 0.077898875 0.14814045 -0.03471598 -0.13623115 0.07877028 -0.025347576 -0.16701645
-0.036204435 -0.20076878 0.104721546 -0.20807448 0.18292463 -0.17938483 -0.11489659 -0.1600834
0.097785175 0.18349601 -0.20774023 -0.15904139 0.12232435 -0.12800093 -0.11096003 -0.004244253
0.05158018 0.36438948 0.19277519 0.06265336 0.18161286 0.023952913 -0.12081547 0.112763464
-0.10617906 0.20041166 0.20397624 0.13215709 -0.1943393 -0.17020074 0.18784322 -0.18011594
0.23135287 0.046148535 0.21947944 0.097519815 -0.03563845 -0.18997134 -0.19827394 -0.1026658
-0.23369642 -0.11909102 0.10802558 -0.11579679 -0.012026578 0.15597314 -0.08202195 -0.067647204
-0.18250895 -0.018880883 0.027054867 0.070290685 -0.011579868 -0.11803155 0.09814575 0.09528908
0.03138229 -0.14250423 0.2117981 0.01833794 -0.09864149 -0.2618685 0.107804656 -0.21023905
0.22226322 0.03465336 0.08599712 -0.27204835 -0.009321018 -0.14812683 0.3119931 0.23189482
0.23463963 -0.06790557 -0.04587066 -0.1410887 0.0142667 0.0115971565 0.14470825 0.20550999
-0.15782592 -0.18795279 0.16356081 0.17788243 -0.121715166 0.19105265 0.040705383 0.10320869
-0.16579223 -0.02692014 -0.20237422 -0.025064915 0.04313594 0.10892075 -0.10169867 0.00607872
-0.06658569 -0.14035457 0.1426818 -0.17540322 -0.041161865 0.12875724 0.08277586 -0.13932365
0.07739529 0.19237524 0.18014398 0.035690725 -0.18434133 -0.18225563 -0.076021865 -0.14397818
0.1858924 -0.20001228 -0.16936558 -0.18043306 0.10077064 0.027921971 -0.103251085 0.08671647
-0.15722473 0.17857118 -0.18739909 0.2016396 -0.08821665 0.07153523 0.111268036 0.05838331
0.1862365 0.054175194 -0.09951671 -0.24762598 0.08891251 -0.12003955 0.20135994 0.09997457
0.12912986 0.08388314 0.046985835 -0.04822965 0.12138102 -0.21183456 0.10642663 0.048953027
0.10953808 -0.21689108 -0.02406831 -0.019407522 0.21650565 -0.085350364 0.18952195 -0.13775767
-0.12276019 -0.21922502 -0.1353826 0.14141184 0.39235207 -0.36483324 -0.17451307 -0.013322854
0.20695467 0.15526329 0.058796555 0.098546684 -0.0060869306 0.2263487 0.1782633 -0.46189556
-0.18527436 0.20665933 0.08715371 0.1577101 -0.06181414 0.08116069 -0.10273878 0.13736424
00000000: 74e7 de3c 0dcb 98be 9e5c 313e e77a 473d
00000010: 5dbe 45be f860 713e 927f 2ebe cc6a 0dbe
00000020: 4ec9 13be 632a 843e 005d 3ebd 1676 25be
00000030: 568b d53c b49f 16bd 1370 7d3e 4b95 04be
00000040: 90f0 983e 7289 9f3d 21b2 173e 5832 0ebd
00000050: 2e80 0bbe 5052 a13d b8a5 cfbc 5c06 2bbe
00000060: 1a4b 14bd 5596 4dbe 4078 d63d 7a11 55be
00000070: 9850 3b3e a8b0 37be e74e ebbd e7ec 23be
00000080: 9843 c83d 61e6 3b3e dbb9 54be bfdb 22be
00000090: 3085 fa3d ad12 03be 033f e3bd 6013 8bbb
000000a0: bd45 533d 4291 ba3e dc66 453e 6850 803d
000000b0: b9f8 393e e638 c43c 1a6e f7bd 88f0 e63d
000000c0: 6874 d9bd b738 4d3e 26df 503e 3054 073e
000000d0: e200 47be 1a49 2ebe f959 403e 5070 38be
000000e0: c4e7 6c3e 3f06 3d3d 38bf 603e 78b8 c73d
000000f0: a0f9 11bd d987 42be 5308 4bbe 7242 d2bd
00000100: 1d4e 6fbe fee5 f3bd 843c dd3d de26 edbd
00000110: 200b 45bc 6cb7 1f3e 20fb a7bd 9e8a 8abd
00000120: a0e3 3abe 15ac 9abc 2ba2 dd3c 90f4 8f3d
00000130: 7db9 3dbc 86ba f1bd a400 c93d ec26 c33d
00000140: b78a 003d a1ec 11be 9ae1 583e 7339 963c
00000150: 8d04 cabd a113 86be b0c8 dc3d e848 57be
00000160: f898 633e aef0 0d3d 421f b03d ec49 8bbe
00000170: 2fb7 18bc 8fae 17be 8fbd 9f3e d675 6d3e
00000180: 5f45 703e 1312 8bbd e0e2 3bbd 8e79 10be
00000190: e0be 693c 0002 3e3c 662e 143e 3671 523e
000001a0: 1e9d 21be b276 40be 7c7c 273e d026 363e
000001b0: cd45 f9bd 4ea3 433e b0ba 263d 145f d33d
000001c0: 70c5 29be a087 dcbc 303b 4fbe f054 cdbc
000001d0: 50af 303d d811 df3d 6447 d0bd 0030 c73b
000001e0: 145e 88bd 1cb9 0fbe 2e1b 123e e79c 33be
000001f0: 5899 28bd f0d8 033e 6486 a93d dcaa 0ebe
00000200: 6c81 9e3d 04fe 443e aa77 383e 7030 123d
00000210: f9c3 3cbe 38a1 3abe 5ab1 9bbd 046f 13be
00000220: 945a 3e3e 05d0 4cbe 2c6e 2dbe 72c3 38be
00000230: d660 ce3d 9ebc e43c 4e75 d3bd 6898 b13d
00000240: 85ff 20be 5ddb 363e 8ce5 3fbe 9c7a 4e3e
00000250: eeaa b4bd 1081 923d 7fe0 e33d 5623 6f3d
00000260: c8b4 3e3e cfe6 5d3d 6bcf cbbd aa91 7dbe
00000270: c317 b63d 4cd7 f5bd 4d31 4e3e 78bf cc3d
00000280: 9e3a 043e ecca ab3d 3874 403d 748c 45bd
00000290: 9d96 f83d 29eb 58be 34f6 d93d f882 483d
000002a0: 8055 e03d b218 5ebe e82a c5bc 86fc 9ebc
000002b0: a8b3 5d3e 2ccc aebd 0b12 423e 5910 0dbe
000002c0: b269 fbbd 867c 60be bca1 0abe 44ce 103e
000002d0: 5fe2 c83e 6ccb babe 8eb3 32be 1a48 5abc
000002e0: edeb 533e 57fd 1e3e a8d4 703d d8d2 c93d
000002f0: e074 c7bb f4c7 673e a88a 363e 937d ecbe
00000300: 90b8 3dbe 819e 533e a57d b23d c27e 213e
00000310: d330 7dbd 9337 a63d b668 d2bd 36a9 0c3e

enc.4.bias f4 [10]
0.22350544 -0.0019762143 -0.23545651 -0.01035271 0.09864707 -0.07512732 -0.18130395 0.17100666
0.15302333 0.047369044
00000000: 9cde 643e 6083 01bb 831b 71be 6a9e 29bc
00000010: 7a07 ca3d 5adc 99bd bea7 39be 5f1c 2f3e
00000020: 26b2 1c3e 0b06 423d

dec.0.weight f4 [20, 10]
0.02296092 0.24546096 -0.2540428 0.11432639 0.09407311 0.2015172 -0.22055006 0.23705561
0.06771641 -0.18041113 -0.20356235 0.23807988 -0.14257702 0.078538716 0.10959406 -0.1944561
0.2114928 0.2839972 -0.0073139933 -0.19499233 -0.20270407 0.24681595 0.2216444 -0.16014288
0.13686824 -0.008036613 -0.10388483 0.04891652 -0.18227871 0.2394342 -0.2457671 -0.30931303
0.19569442 -0.104054764 -0.13206792 -0.19247349 -0.2483691 0.18911736 0.11337215 0.024693474
0.13804619 0.078184575 0.1701876 0.20794739 0.06910031 -0.20165975 0.30860803 0.18449649
0.12975562 -0.33692068 0.15522191 -0.0764375 0.14529964 -0.1068536 0.26204568 0.1481039
0.08755362 -0.25169116 0.008321147 -0.101931795 0.005038692 0.28475204 -0.09669107 0.008841849
0.22165093 -0.18430452 0.012839913 -0.23782593 -0.14333504 -0.21631995 0.44610178 0.21491185
0.38041952 0.1579184 -0.24758637 0.008466065 -0.06771782 -0.2567992 -0.21805754 0.044289414
-0.17201336 0.0875645 0.12720662 -0.08715914 0.031214058 -0.12861681 0.08882642 -0.266877
0.12504077 -0.08690536 0.26857486 -0.23958421 -0.17374969 0.057090722 0.19312021 0.0045186877
0.06805232 -0.2913172 -0.12785985 0.32498825 -0.053679686 -0.31106994 0.011821514 -0.19085568
-0.13504946 0.17823333 0.052392155 0.024814025 -0.2459119 0.08329027 -0.30995053 -0.26823863
-0.3305292 -0.09173352 0.24211524 0.02789858 0.08687663 0.011756868 -0.08227276 -0.26671916
0.1552312 0.13195977 -0.39125735 -0.13889897 0.26886296 -0.25383264 -0.0815562 -0.07322741
-0.07203844 0.076323085 -0.19172354 -0.11324318 0.3991227 -0.06336977 -0.06790259 0.3073778
-0.16414654 0.25696665 0.21294358 0.26091713 -0.20517495 0.12740892 0.29348406 0.03135714
-0.24664965 0.111997664 0.015511543 -0.05128935 0.11612016 -0.30335048 0.07504771 -0.17010868
0.15848179 -0.021227818 0.48216012 -0.2750912 -0.13288441 -0.2908191 0.25925714 0.10352938
-0.27022472 0.19108853 0.14587091 -0.070971176 -0.26860934 -0.1907393 -0.21277189 -0.24923259
-0.023747269 0.31000873 0.023350036 0.042728186 0.1678755 -0.20610093 -0.32399926 0.05918315
-0.14254539 0.17828281 -0.17526181 0.24343593 0.19298889 0.29965797 -0.035927746 0.10164614
-0.258655 -0.04851961 -0.03392598 0.021319801 -0.26242784 0.079117626 0.17984448 0.26436797
-0.036835257 0.027142148 0.27232295 0.012044698 0.13918194 0.10481628 -0.2505811 0.16100267
00000000: 8a18 bc3c 1e5a 7b3e e611 82be f423 ea3d
00000010: 67a9 c03d 865a 4e3e e0d7 61be b5be 723e
00000020: e7ae 8a3d b2bd 38be a672 50be 36cb 733e
00000030: b6ff 11be e8d8 a03d da72 e03d 801f 47be
00000040: 9291 583e 1568 913e 39aa efbb 12ac 47be
00000050: a891 4fbe 52bd 7c3e c0f6 623e 7ffc 23be
00000060: 3027 0c3e 00ac 03bc 92c1 d4bd b05c 483d
00000070: 45a7 3abe 3d2e 753e 5faa 7bbe 475e 9ebe
00000080: 1e64 483e aa1a d5bd d03c 07be c517 45be
00000090: 7854 7ebe fba7 413e a82f e83d f849 ca3c
000000a0: fb5b 0d3e 3c1f a03d a945 2e3e 29f0 543e
000000b0: 7784 8d3d e57f 4ebe df01 9e3e a6ec 3c3e
000000c0: a8de 043e de80 acbe 7ef2 1e3e 448b 9cbd
000000d0: 6ec9 143e 0fd6 dabd da2a 863e 8ca8 173e
000000e0: 504f b33d aadd 80be 6c55 083c 9ec1 d0bd
000000f0: 9d1b a53b 05cb 913e f805 c6bd 67dd 103c
00000100: 76f8 623e 53ba 3cbe 805e 523c a488 73be
00000110: 6cc6 12be fa82 5dbe 7467 e43e da11 5c3e
00000120: 59c6 c23e 5cb5 213e 4887 7dbe 40b5 0a3c
00000130: a4af 8abd 2f7b 83be 7a4a 5fbe d168 353d
00000140: 4524 30be 0455 b33d 7442 023e 7e80 b2bd
00000150: a0b4 ff3c 20b4 03be a0ea b53d 1aa4 88be
00000160: b00a 003e 70fb b1bd a582 893e 9055 75be
00000170: 70eb 31be f6d7 693d 4ec1 453e 8011 943b
00000180: 045f 8b3d 8727 95be b1ed 02be dc64 a63e
00000190: 3bdf 5bbd 8f44 9fbe 06af 413c ac6f 43be
000001a0: 684a 0abe cc82 363e 2899 563d c846 cb3c
000001b0: 54d0 7bbe 1794 aa3d d6b1 9ebe 9356 89be
000001c0: 203b a9be c9de bbbd 0fed 773e 908b e43c
000001d0: 60ec b13d e19f 403c 9f7e a8bd 6a8f 88be
000001e0: edf4 1e3e 7620 073e e252 c8be 883b 0ebe
000001f0: 68a8 893e 5af6 81be f006 a7bd 41f8 95bd
00000200: e488 93bd 474f 9c3d 2d53 44be 0aec e7bd
00000210: cf59 cc3e 03c8 81bd 8310 8bbd 9f60 9d3e
00000220: 0816 28be 2291 833e e20d 5a3e ee96 853e
00000230: 6219 52be 7c77 023e 8b43 963e 5870 003d
00000240: ba91 7cbe 085f e53d 2024 7e3c c814 52bd
00000250: 68d0 ed3d c150 9bbe 9db2 993d f830 2ebe
00000260: 0d49 223e f6e5 adbc b1dd f63e c1d8 8cbe
00000270: da12 08be 3ee6 94be 5abd 843e 3607 d43d
00000280: e55a 8abe b6ac 433e 2f5f 153e 5659 91bd
00000290: 2a87 89be 2a51 43be e0e0 59be d436 7fbe
000002a0: a289 c2bc 77b9 9e3e 9348 bf3c c003 2f3d
000002b0: 8ee7 2b3e 1f0c 53be 3be3 a5be 086a 723d
000002c0: 6bf7 11be c58f 363e d577 33be 4547 793e
000002d0: e19e 453e c56c 993e f928 13bd da2b d03d
000002e0: 6e6e 84be 80bc 46bd f8f5 0abd dda6 ae3c
000002f0: f15c 86be 6c08 a23d 2729 383e 3d5b 873e
00000300: 91e0 16bd 3659 de3c ea6d 8b3e 2057 453c
00000310: b685 0e3e eba9 d63d 2a4c 80be e2dd 243e

dec.0.bias f4 [20]
0.2284299 0.14633553 -0.29943243 0.32010454 -0.28372568 0.03558542 -0.057385948 -0.08416445
-0.09550314 -0.06821959 0.14936803 0.28953677 0.100011595 -0.41360575 -0.17544995 0.2577419
0.22128063 0.03820296 0.24123329 0.18809947
00000000: 87e9 693e fbd8 153e 354f 99be bee4 a33e
00000010: 7e44 91be 04c2 113d 870d 6bbd 695e acbd
00000020: 2697 c3bd b6b6 8bbd eff3 183e 2a3e 943e
00000030: e1d2 cc3d 22c4 d3be 27a9 33be bff6 833e
00000040: 6497 623e b57a 1c3d dc05 773e 269d 403e

dec.2.weight f4 [40, 20]
-0.038348954 -0.17973459 -0.08025067 0.02585697 -0.005191189 -0.050999768 0.032582738 0.040964987
0.005999863 0.0022803496 -0.243545 0.027838022 -0.20311129 0.124583684 -0.05051215 -0.09833269
0.0470028 0.05790749 -0.14834589 0.15920441 -0.14801507 0.12372685 0.19627154 0.059270866
-0.16767523 0.10590363 0.080154285 -0.01259859 0.15912014 -0.12169209 -0.058318764 0.21172474
0.24092187 0.3449884 0.10801515 0.13937922 0.13706793 -0.015994895 -0.00027732697 -0.029084746
-0.15985644 -0.008007103 0.11731278 0.230895 0.02571455 -0.19308424 0.07939531 -0.11496767
-0.088076785 0.19492868 0.009351747 0.033336215 0.0170219 -0.094510034 0.10995689 -0.053627368
0.18884854 0.048062056 0.117281795 -0.14769304 -0.13861805 -0.063972846 -0.13965636 0.21130013
-0.09097391 0.06611776 -0.13324496 -0.19938824 0.011267573 -0.004097402 -0.22195202 0.15113407
0.13896367 0.04619661 0.018115416 -0.059393287 -0.20465624 -0.15853788 0.18941212 0.055802733
-0.21976036 -0.058146667 0.018187717 0.0107800495 0.18016025 0.10278374 -0.17039143 -0.17531934
-0.18288255 -0.05609948 0.19269495 -0.09054848 -0.28660396 0.55199486 -0.18155234 -0.12126471
-0.051284175 0.12198933 -0.20498358 0.08953333 -0.1351162 -0.027416483 -0.11278856 0.03672015
-0.110231385 -0.17180261 -0.2202089 0.022517735 -0.077799425 0.08221526 -0.0042483406 -0.18409598
0.06010884 0.18532792 -0.22183713 -0.103579864 -0.13399123 -0.09199818 0.19409005 -0.11638016
0.038211018 0.020449638 -0.12031192 0.020394262 0.13456517 -0.21127896 0.14440304 0.18274814
-0.15665767 0.03425638 -0.17029965 -0.0925066 0.13644128 0.20147699 0.20524985 0.11064772
-0.07612247 -0.15339443 -0.14123493 -0.022104517 -0.12638879 -0.11293811 -0.013848879 -0.19727834
-0.175168 -0.07371382 -0.0019593239 0.025100566 -0.017104223 0.206206 0.17735143 -0.008020785
0.0012902393 0.41570133 -0.042013302 0.05927813 0.10745111 0.12919246 0.05371045 -0.10889914
0.14227074 0.12245035 0.12299499 -0.095253564 -0.1664528 -0.013504973 0.04112503 0.0121677965
0.026387796 -0.223283 0.06526732 0.18506382 -0.04977202 0.021300629 0.13955626 -0.040872566
-0.22076523 -0.17854373 0.007450507 0.091046385 -0.079441905 -0.22061586 -0.039029837 0.19545455
0.04251051 -0.10997333 -0.2214136 0.14161006 -0.21369289 0.07494568 0.14553592 0.060612977
-0.16524157 0.16551869 0.0710893 -0.1016907 0.030802133 -0.12661798 -0.2314862 -0.049089294
-0.025497744 -0.026265813 -0.062276926 0.22883785 0.15539743 0.20457838 -0.16131192 -0.08700278
0.13731003 0.05455713 0.10556338 0.10765429 -0.27071187 0.11605361 0.029427141 0.12041516
-0.2184119 -0.16505411 0.06411243 0.10672386 0.02238588 -0.15129682 0.12736723 -0.09054917
0.082514584 -0.0035080165 -0.18331291 0.014397383 -0.122764505 -0.18652631 -0.044551566 0.21281973
-0.07500604 0.093432784 -0.006595731 -0.1319246 0.14456865 -0.14889959 -0.17396094 -0.008272991
-0.10849147 0.20638411 -0.20230061 -0.07413545 -0.10430965 0.011966049 0.19691226 0.19306406
-0.13517132 -0.032195516 -0.07557906 0.21037512 0.014016452 0.019183643 -0.013225853 -0.1068747
00000000: cb13 1dbd 580c 38be 775a a4bd ffd1 d33c
00000010: d91a aabb 22e5 50bd 7a75 053d e7ca 273d
00000020: 809a c43b eb71 153b dc63 79be 900c e43c
00000030: 68fc 4fbe bb25 ff3d d4e5 4ebd a662 c9bd
00000040: 0286 403d 6730 6d3d fce7 17be 7b06 233e
00000050: 4391 17be 8164 fd3d 68fb 483e 02c6 723d
00000060: 0eb3 2bbe 01e4 d83d ee27 a43d 516a 4ebc
00000070: 64f0 223e b439 f9bd a8df 6ebd 5fce 583e
00000080: 39b4 763e 52a2 b03e 0c37 dd3d 6db9 0e3e
00000090: 895b 0c3e ba07 83bc 3266 91b9 2243 eebc
000000a0: 68b1 23be 3930 03bc af41 f03d bd6f 6c3e
000000b0: 52a7 d23c e0b7 45be 029a a23d 2b74 ebbd
000000c0: 9a61 b4bd 629b 473e 1238 193c 8e8b 083d
000000d0: 8371 8b3c 7a8e c1bd 1431 e13d 5fa8 5bbd
000000e0: 8361 413e b8dc 443d 7031 f03d d83c 17be
000000f0: e4f1 0dbe 3204 83bd 1402 0fbe 105f 583e
00000100: 8850 babd c068 873d 5e71 08be 6e2c 4cbe
00000110: a09b 383c 8043 86bb 6447 63be e4c2 1a3e
00000120: 7e4c 0e3e a838 3d3d c866 943c 6046 73bd
00000130: 6891 51be c157 22be 40f5 413e 6891 643d
00000140: dc08 61be 332b 6ebd 68fe 943c ce9e 303c
00000150: ee7b 383e 4880 d23d 177b 2ebe ea86 33be
00000160: 9045 3bbe 91c8 65bd d351 453e 7b71 b9bd
00000170: c1bd 92be 894f 0d3f dbe8 39be a259 f8bd
00000180: 5b0f 52bd 8bd5 f93d 37e7 51be 405d b73d
00000190: e75b 0abe 8898 e0bc b0fd e6bd de67 163d
000001a0: fec0 e1bd 06ed 2fbe 717e 61be 1d77 b83c
000001b0: 4e55 9fbd 7960 a83d aa35 8bbb a883 3cbe
000001c0: b034 763d 9ac6 3d3e 4629 63be ae21 d4bd
000001d0: ff34 09be 8b69 bcbd 8bbf 463e b958 eebd
000001e0: 2883 1c3d 0086 a73c 1966 f6bd de11 a73c
000001f0: 74cb 093e 8359 58be 64de 133e 5422 3b3e
00000200: de6a 20be 6b50 0c3d 0863 2ebe 1a74 bdbd
00000210: 43b7 0b3e fc4f 4e3e 042d 523e 469b e23d
00000220: 19e6 9bbd 6e13 1dbe e49f 10be 8814 b5bc
00000230: 106c 01be 194c e7bd 69e6 62bc 5503 4abe
00000240: 3d5f 33be 45f7 96bd 0068 00bb b49f cd3c
00000250: 281e 8cbc aa27 533e 9d9b 353e 9c69 03bc
00000260: 3f1d a93a ced6 d43e 2416 2cbd a0cd 723d
00000270: 540f dc3d 074b 043e 7dff 5b3d 8306 dfbd
00000280: 6caf 113e 40c7 fa3d cce4 fb3d 4d14 c3bd
00000290: 9a72 2abe f643 5dbc b872 283d 705b 473c
000002a0: 382b d83c 4ca4 64be dfaa 853d 5f81 3d3e
000002b0: bfdd 4bbd a87e ae3c d6e7 0e3e fe69 27bd
000002c0: 4810 62be 2bd4 36be 6223 f43b 8776 ba3d
000002d0: 70b2 a2bd 20e9 61be c0dd 1fbd 3d25 483e
000002e0: 801f 2e3d b239 e1bd 3fba 62be 3a02 113e
000002f0: 4fd2 5abe 1f7d 993d 5e07 153e 5045 783d
00000300: 1635 29be bb7d 293e 4497 913d 3743 d0bd
00000310: c154 fc3c 25a8 01be b80a 6dbe db11 49bd
00000320: a5e0 d0bc 672b d7bc 1716 7fbd 7854 6a3e
00000330: 8120 1f3e ff7c 513e f42e 25be 832e b2bd
00000340: 009b 0c3e 4c77 5f3d 9d31 d83d da79 dc3d
00000350: bf9a 8abe 84ad ed3d 3011 f13c 399c f63d
00000360: 5ea7 5fbe f203 29be 614d 833d 0a92 da3d
00000370: 9862 b73c 8eed 1abe 8e6c 023e d871 b9bd
00000380: 68fd a83d c0e6 65bb 61b6 3bbe 00e3 6b3c
00000390: f56b fbbd c100 3fbe b47b 36bd 6aed 593e
000003a0: c49c 99bd b059 bf3d 0021 d8bb 3e17 07be
000003b0: ce09 143e 2279 18be d122 32be 708b 07bc
000003c0: c730 debd 5b56 533e e427 4fbe 54d4 97bd
000003d0: 4ca0 d5bd 3f0d 443c 5ea3 493e 96b2 453e
000003e0: 5a6a 0abe 72df 03bd 32c9 9abd 936c 573e
000003f0: 43a5 653c 0427 9d3c 40b1 58bc 1fe1 dabd

dec.2.bias f4 [40]
0.11319941 0.08193276 0.18729185 -0.118529774 0.24886116 -0.026139738 -0.1673773 0.18859637
0.050457638 -0.12618981 0.092111 -0.09298822 0.07825756 -0.022865793 0.1296071 -0.22307247
0.03716716 0.14733815 0.15701617 0.23007226 0.1429255 -0.1950406 -0.07964136 -0.16341987
-0.10994793 -0.18398726 -0.026267426 -0.039332055 -0.053069174 0.12004406 0.1702954 0.16505493
-0.059623916 0.2725208 -0.029356048 0.018763518 0.20729128 0.101047605 -0.015919605 0.11955851
00000000: 18d5 e73d 5dcc a73d 6fc9 3f3e bdbf f2bd
00000010: 76d5 7e3e 0123 d6bc f464 2bbe 681f 413e
00000020: abac 4e3d e737 01be b1a4 bc3d 9c70 bebd
00000030: 8045 a03d 0b51 bbbc b9b7 043e 1c6d 64be
00000040: 983c 183d d0df 163e d9c8 203e 1098 6b3e
00000050: 105b 123e b9b8 47be 021b a3bd 8a57 27be
00000060: 612c e1bd 2867 3cbe c92e d7bc a61a 21bd
00000070: 105f 59bd a9d9 f53d eb61 2e3e 2904 293e
00000080: 3538 74bd d987 8b3e 187c f0bc f3b5 993c
00000090: 2a44 543e 0cf2 ce3d d569 82bc 18db f43d

dec.4.weight f4 [60, 40]
0.041903004 0.08467153 0.044542793 -0.0017650425 0.071493134 0.031136826 0.06592655 -0.08116978
0.1457864 0.04381457 0.2323447 -0.10800761 0.122840814 0.09443585 0.09091404 -0.10355731
-0.13815644 0.16099647 0.04079834 -0.051699195 -0.10845358 -0.08256615 0.05812089 0.1537322
0.07617287 0.007681012 -0.013390414 0.13776457 -0.041550852 0.1494999 0.18495081 -0.012794091
-0.105426855 0.03195096 0.09115378 0.013373236 0.060508575 -0.054132797 0.15587842 -0.12291905
0.03733913 0.13481243 -0.08749279 -0.13033487 -0.040827107 -0.0154728 0.06950407 0.022966316
-0.13489108 0.13235949 0.17798215 -0.14824134 -0.120904 -0.017371908 0.038277127 0.14359717
0.05642812 -0.01621688 -0.020016871 -0.06517538 -0.1272403 -0.005327045 -0.06978503 0.030511718
-0.04455322 0.052858815 0.12671567 0.26497176 -0.11467281 0.043873012 0.117946886 0.14638574
0.20956331 0.15279068 -0.01379934 -0.03289448 0.13843477 0.12659863 0.007067629 0.15492295
-0.013167655 -0.0694779 -0.09567029 -0.08828375 -0.13574034 -0.0356363 0.1561653 0.09204112
0.027344394 -0.105621725 0.1020288 -0.06403525 -0.002436416 -0.07845914 0.19130576 -0.055524655
0.018857375 -0.004490267 -0.07155189 0.11664482 -0.12713772 0.07354329 -0.037850074 -0.017651485
0.045639396 0.007690683 0.09084341 -0.06457014 0.102895424 0.10125978 -0.07762875 0.20740047
0.23527485 -0.006610818 -0.0261536 -0.009266201 0.114742115 0.20978053 -0.09300185 -0.013098047
0.11762474 -0.047081724 -0.03503111 -0.039288506 -0.054123864 0.07740748 -0.014536784 0.19197619
0.14721705 -0.03407923 0.02263136 -0.073682874 0.027839975 0.04128623 0.13603236 -0.080759615
0.027360722 -0.032481946 -0.11328866 0.15014872 -0.022891255 0.0023653843 0.037829563 -0.10701094
0.007232994 0.1202714 0.061128605 -0.03536709 -0.09219605 0.1661257 -0.040261675 0.1475976
0.1346122 0.010778336 -0.13276123 0.19283475 -0.03207409 0.19172448 -0.18458149 0.1895914
0.14087531 0.032737516 0.06660996 0.08125381 0.1646088 0.1403168 0.11411685 0.20954575
0.09694964 -0.1481723 -0.023905411 0.10257645 -0.085310474 0.031029187 -0.054432493 -0.15307465
0.028889373 -0.073624074 -0.122643165 0.19647935 -0.098867774 0.08957952 -0.08541231 0.112777025
0.10639648 -0.07927421 -0.08138121 -0.07507231 0.0909453 0.14995521 0.15533891 -0.10195258
0.029971095 0.16170171 -0.13337508 0.3563055 -0.12774986 0.0431512 0.17257436 0.19532648
0.1257635 0.13002671 0.20103346 -0.04826329 0.12049492 -0.1293326 -0.14285569 0.005230907
-0.11236116 -0.14083678 0.17030299 -0.088349715 -0.10869346 0.03320406 0.10504584 -0.014202431
0.1248938 -0.06322644 -0.07305849 0.15021966 0.13315865 -0.043346148 0.07726149 0.0032309676
0.1542222 0.12908168 -0.09955498 -0.06567075 0.13493754 0.01155499 0.1439139 -0.14546199
-0.055718135 0.06285998 0.26522765 0.17323622 0.15569635 0.11879784 0.074175045 0.1104634
0.060847174 0.21964619 0.17038152 -0.11260873 0.018152349 0.14383878 0.018625312 0.09623623
-0.057808366 -0.111556865 -0.00915795 -0.08771231 0.04493844 -0.09123028 0.17644392 -0.1370715
00000000: 7ca2 2b3d 4468 ad3d 8172 363d 0059 e7ba
00000010: fe6a 923d a812 ff3c 8004 873d 573c a6bd
00000020: 0849 153e e876 333d c5eb 6d3e 1833 ddbd
00000030: f793 fb3d 9567 c13d 2431 ba3d db15 d4bd
00000040: e278 0dbe 42dc 243e 291c 273d 89c2 53bd
00000050: e91c debd 7118 a9bd 2c10 6e3d f96b 1d3e
00000060: 8600 9c3d 00b1 fb3b 7863 5bbc 2812 0d3e
00000070: 3a31 2abd 8016 193e bf63 3d3e 4f9e 51bc
00000080: 09ea d7bd 03df 023d d5ae ba3d 6b1b 5b3c
00000090: d7d7 773d 5aba 5dbd 989e 1f3e fcbc fbbd
000000a0: eaf0 183d 450c 0a3e 6b2f b3bd 8176 05be
000000b0: 533a 27bd a081 7dbc 2658 8e3d db23 bc3c
000000c0: e320 0abe 3f89 073e f440 363e 94cc 17be
000000d0: 849c f7bd 884f 8ebc 7ac8 1c3d 230b 133e
000000e0: 2c21 673d 43d9 84bc 6cfa a3bc ab7a 85bd
000000f0: 484b 02be 7e8e aebb 74eb 8ebd b6f3 f93c
00000100: 707d 36bd 7c82 583d c1c1 013e 61aa 873e
00000110: 94d9 eabd 30b4 333d 238e f13d 25e6 153e
00000120: c497 563e 2975 1c3e a116 62bc 5dbc 06bd
00000130: d8c1 0d3e 12a3 013e 9297 e73b 1fa4 1e3e
00000140: 26bd 57bc 6e4a 8ebd c9ee c3bd 1cce b4bd
00000150: 84ff 0abe 5ef7 11bd cce9 1f3e 0e80 bc3d
00000160: 5a01 e03c 3450 d8bd 7af4 d03d ea24 83bd
00000170: 47ac 1fbb 30af a0bd a8e5 433e d26d 63bd
00000180: c87a 9a3c 1723 93bb cc89 92bd 7be3 ee3d
00000190: 6430 02be dd9d 963d ae08 1bbd d999 90bc
000001a0: 60f0 3a3d 2002 fc3b 1c0c ba3d 593d 84bd
000001b0: d6ba d23d 4a61 cf3d d2fb 9ebd ca60 543e
000001c0: e4eb 703e 909f d8bb 1340 d6bc 44d1 17bc
000001d0: eafd ea3d b5d0 563e c177 bebd 3199 56bc
000001e0: 3de5 f03d c4d8 40bd c87c 0fbd fcec 20bd
000001f0: fcb0 5dbd d087 9e3d b12b 6ebc 6895 443e
00000200: 11c0 163e aa96 0bbd 6765 b93c 0ce7 96bd
00000210: a910 e43c c01b 293d 114c 0b3e 4c65 a5bd
00000220: 9823 e03c ca0b 05bd e303 e8bd 96c0 193e
00000230: 7186 bbbc 9004 1b3b 2cf3 1a3d 8d28 dbbd
00000240: c002 ed3b da50 f63d fd61 7a3d 15dd 10bd
00000250: 48d1 bcbd db1c 2a3e 6de9 24bd d323 173e
00000260: c8d7 093e 9e97 303c 8ff2 07be 7976 453e
00000270: 1f60 03bd 6c53 443e ee02 3dbe 3f24 423e
00000280: 9e41 103e c617 063d cd6a 883d 6668 a63d
00000290: 368f 283e 35af 0f3e 18b6 e93d 2993 563e
000002a0: 888d c63d 7bba 17be 48d5 c3bc 9a13 d23d
000002b0: 42b7 aebd ec30 fe3c 9bf4 5ebd 9abf 1cbe
000002c0: 68a9 ec3c 38c8 96bd 572c fbbd e231 493e
000002d0: 307b cabd 7875 b73d a6ec aebd a4f7 e63d
000002e0: 66e6 d93d 845a a2bd 31ab a6bd 83bf 99bd
000002f0: 8841 ba3d dc8d 193e 2a11 1f3e 84cc d0bd
00000300: f185 f53c 2295 253e 7a93 08be ad6d b63e
00000310: dcd0 02be 50bf 303d 55b7 303e aa03 483e
00000320: 26c8 003e b925 053e b7db 4d3e baaf 45bd
00000330: 0ac6 f63d c46f 04be c348 12be 0768 ab3b
00000340: 9c1d e6bd 8437 10be e863 2e3e b2f0 b4bd
00000350: ad9a debd fb00 083d 4622 d73d 50b1 68bc
00000360: 52c8 ff3d dd7c 81bd b19f 95bd 2fd3 193e
00000370: be5a 083e bb8b 31bd 463b 9e3d a4be 533b
00000380: 6dec 1d3e fd2d 043e 7be3 cbbd 637e 86bd
00000390: 112d 0a3e 2451 3d3c 2a5e 133e fdf3 14be
000003a0: b338 64bd bcbc 803d ebcb 873e d664 313e
000003b0: dd6e 1f3e 484c f33d 16e9 973d a33a e23d
000003c0: e33a 793d eeea 603e 7e78 2e3e 689f e6bd
000003d0: 3cb4 943c 794a 133e 1c94 983c 8017 c53d
000003e0: 77c8 6cbd ed77 e4bd 3a0b 16bc 83a2 b3bd
000003f0: 5f11 383d f1d6 babd b7ad 343e 795c 0cbe

dec.4.bias f4 [60]
0.19457051 0.017153876 0.197963 0.1314943 0.12295951 0.0804933 0.015122718 -0.03602194
0.037470862 -0.0010399921 0.1424588 0.06673738 0.010563569 0.09705418 0.15992707 0.14372161
0.07302752 0.021980358 0.18920514 0.18997145 0.0341318 0.15160844 -0.014176522 0.17427894
0.21320492 0.07402152 -0.048442017 0.07450979 0.16127856 -0.008629552 0.049808264 0.107627615
0.14370681 0.1357176 0.074341744 -0.037283577 0.15987512 -0.012169962 0.073221594 0.04832875
0.07945091 0.017691452 0.08286742 -0.03422133 0.1333889 0.030505186 0.0010957806 0.021148957
0.2311981 0.12101945 0.052422605 0.031009585 0.15438725 0.05852487 0.15375341 0.08121588
0.035601866 0.121300444 0.07858352 0.19217499
00000000: 7e3d 473e 4986 8c3c d0b6 4a3e 71a6 063e
00000010: 32d2 fb3d acd9 a43d 47c5 773c be8b 13bd
00000020: 0c7b 193d 5850 88ba b8e0 113e 9cad 883d
00000030: d212 2d3c 58c4 c63d ecc3 233e c22b 133e
00000040: 748f 953d 2710 b43c febe 413e e087 423e
00000050: c9cd 0b3d 3e3f 1b3e a544 68bc 2e76 323e
00000060: 6452 5a3e 9898 973d 236b 46bd 9798 983d
00000070: 3526 253e f762 0dbc c003 4c3d de6b dc3d
00000080: e127 133e 8ef9 0a3e 7c40 983d aab6 18bd
00000090: 4eb6 233e 8564 47bc 34f5 953d 5ef4 453d
000000a0: 29b7 a23d aaed 903c 65b6 a93d aa2b 0cbd
000000b0: 1a97 083e 03e6 f93c 4ca0 8f3a 9440 ad3c
000000c0: 32bf 6c3e 0cd9 f73d 16b9 563d d007 fe3c
000000d0: b117 1e3e c6b7 6f3d 8971 1d3e 8354 a63d
000000e0: 43d3 113d 5e6c f83d 66f0 a03d 85c9 443e
