Models/artifact_3/lstm_ae.pt (torch, 399488 bytes, 14 tensors)

encoder.weight_ih_l0 f4 [320, 60]
00000000: 548e 423c 0c68 7f3b b47a 193d 47a7 5cbd
00000010: 0631 eabc 151b d03c 3fcd a03d 02c7 0b3b
00000020: 3d7b 27bc 54b0 543d c5a1 0ebd 9803 3bbc
00000030: 57f3 383d 91e3 17bc fa39 093d 2d9a 83bd
00000040: ce39 a43d 5975 3fbd 2cae 253d 7740 f53c
00000050: 6efe 88bd 0111 7fbd 7ea6 bc3d 056f 92bd
00000060: bcd3 ab3d 7f62 a03d f118 503b baba 283c
00000070: 4c49 b53c b76f fbbc 7a04 9ebc c8ca 77bc
00000080: 8da3 93bd 944f 69bd cc33 71bc e503 1f3d
00000090: 5d3c 5c3c 5767 843d 85a7 b73d d579 febc
000000a0: 5329 89bd 92fa 05bd e656 6f3d e4bd 533d
000000b0: cc9f d8bc b958 063d cf1d 67bd adad 4dbd
000000c0: 6a56 91bd 779a 5f3d 7e84 ac3d 0d68 b03d
000000d0: d179 6b3b cf68 ee3c b6dc a5bc 06c8 15bd
000000e0: 58e9 b03d b02e 253d eecc 45bb dddd 493c
000000f0: 32a7 973d ab7a c53c cb15 60bd d2df e33c
00000100: 1a66 6cbd cecb b0bc 5ef6 12bd 88e5 53bd
00000110: 822b 81bd b332 833d 9386 87bd 33c7 9a3d
00000120: 22ee 7639 b1d9 a73c 9c2d 813d 5bbd 813d
00000130: 8ef0 9fbd 7bb0 d43b 9e66 42bd 18eb 3b3d
00000140: 00a7 5bbd 832a f0bc d359 4b3d d789 53bd
00000150: f61e 06bd ee56 11bd ca29 92bb 195f 05bd
00000160: 8728 7ebd e01f 3c3c cc5f 2abc 74e7 74bc
00000170: 7da9 98bc 6780 c73c 93f4 3f3d e1fe 05bd
00000180: 72a1 93bd 0781 30bc aeac 403c 6779 063d
00000190: bda3 2abd 144b 863c 5cee e13c 7b94 a0bd
000001a0: c8cc 693d 9377 143d cefa f7bc ad73 b43c
000001b0: 112b 8cbd 9c75 e8bc cf10 8abd 98f0 503d
000001c0: fb44 83bd 8e34 99bc c041 2bbd 7835 df3c
000001d0: aa6c 96bc e81b 96bd dade 953d 082a 83bc
000001e0: 94f5 88bd e939 4e3c 0b33 9a3c 27b9 0cbd
000001f0: 6cee 93bd 813a 8f3d 2b5f 92bd 0a28 1ebd
00000200: ac5a 14bd 1c64 97bd cd4c 9fbc cd85 c83a
00000210: bbf5 fbbc c993 5abd 5fe1 4abc a2ee a43d
00000220: 4b76 9bbd 8f23 86bd 571e 2b3d 9d6a 863d
00000230: d08e 993d 0a20 863c b0c9 333d cc50 413d
00000240: 70ce a83c 7363 833d 7eab 013d 501e 723d
00000250: 2fd3 14bd 339f d53b 9703 2e3d 58ca 96bc
00000260: d6ed 8cbd a86b 89bc 94a6 97bd 1516 06bd
00000270: fd2e 88bb 13ae 693d 91a9 3a3d 0cd4 cd3c
00000280: 0031 95b9 8231 2f3d 7133 373c 2dd2 9e3c
00000290: 99f1 c43c 2e73 37bd f354 943d 1ff4 6c3b
000002a0: 4328 f53b 53a1 523d d8fb 493c bf05 703d
000002b0: cc48 52bd 8e1e b13c 4c72 babb 87ec 443b
000002c0: a838 1b3d a1a7 17bd 7eb7 0abd 0523 6ebb
000002d0: 108b 43bd 2ee2 3cbd b4cf 98bd ed11 9dbb
000002e0: b3ac 903c 22b9 983d ff84 603d 4a71 0b3d
000002f0: 9a89 8f3c b270 81bd 6fd5 4bbd 1322 503d
00000300: 11f0 12bb 1886 86bd 8a7c 1f3d 6fa1 a73d
00000310: f22a a7bd ab12 d43b 29f6 583b 1c1a 3c3d
00000320: 4782 5bbd 22b6 653d 4e83 643d 9c9c 32bc
00000330: 949a ca3c 3a8a 4e3d 8521 87bd 2e6a 563d
00000340: 6c36 19bd 84a8 82bd c261 7cbd fc84 823c
00000350: 21fa 78bb c6ba 9dbd d6b5 8c3d 83b3 953c
00000360: 6883 11bc 73b9 8f3d 698b 51bb f486 9fbc
00000370: fecd 5e3d d5f5 9ebd febc f6bc d90d 303d
00000380: 149d fdbb 9dff 84bd 5214 633d f443 51bd
00000390: 9697 883d f9c5 19bd cda2 d03c e12d 83bd
000003a0: 5297 883d 0675 3dbc 8551 8f3c 7150 4a3d
000003b0: f33e f3bb e856 89bd 5802 93bb b652 1fbd
000003c0: eb49 d3bc 6617 1abd eb94 a23d 09b0 81bd
000003d0: 3f75 423d 76e0 533d 5d2a 863d 9ce6 fc3c
000003e0: 1aa5 23bd f68d a23d ec6f 973d fa4b d437
000003f0: 7d1a 69bd 54fb c23c a450 a33d e567 ee3c
0.011874754 0.003897193 0.037470534 -0.053870466 -0.02858783 0.025403539 0.078516476 0.0021328335
-0.010222253 0.051925972 -0.034822244 -0.011414431 0.045153942 -0.009270565 0.033502556 -0.06425891
0.08018838 -0.04674277 0.040449306 0.029937966 -0.066891536 -0.062272076 0.09211443 -0.071500815
0.083899945 0.07831287 0.0031753147 0.010298425 0.022129677 -0.030692918 -0.019289244 -0.01512403
-0.07208929 -0.056960657 -0.014721822 0.038822073 0.013442126 0.06465023 0.08967499 -0.031063953
-0.06697335 -0.032709666 0.058432482 0.051694766 -0.026443385 0.032799456 -0.056424912 -0.05021446
-0.0709656 0.05459067 0.084237084 0.08613596 0.0035930763 0.029102711 -0.020246845 -0.03656771
0.08638257 0.040327728 -0.0030181962 0.012320963 0.07404937 0.024106344 -0.054708283 0.027816687
-0.05771456 -0.021581557 -0.035879485 -0.05173257 -0.063071266 0.064061545 -0.06617465 0.075575255
0.000235491 0.020489546 0.063075274 0.06334945 -0.07809554 0.0064907647 -0.047461145 0.0458785
-0.05362606 -0.029317146 0.04964621 -0.051645126 -0.03274437 -0.035483293 -0.004460548 -0.032561395
-0.06205037 0.011482209 -0.010398816 -0.014947761 -0.018635506 0.02435322 0.046864104 -0.032713775
-0.072085276 -0.01077295 0.01175992 0.032830622 -0.04166006 0.016393222 0.027579479 -0.078408204
0.05708006 0.036246847 -0.03027096 0.022027815 -0.06844152 -0.028376393 -0.06741487 0.051010698
-0.06409641 -0.018701818 -0.04181075 0.027247176 -0.018362362 -0.073295414 0.07317896 -0.016011253
-0.06687465 0.012587049 0.018823167 -0.034356263 -0.0722321 0.069935806 -0.07147058 -0.038612403
-0.036219284 -0.07392141 -0.019445801 0.0015298665 -0.030756822 -0.053363595 -0.012382834 0.08053328
-0.07590922 -0.06549751 0.04177698 0.065633036 0.074979424 0.0163727 0.043893516 0.047196195
0.02060625 0.06415453 0.03165769 0.05911094 -0.036334213 0.006519222 0.042483892 -0.018407032
-0.06881301 -0.016774967 -0.07404819 -0.032735903 -0.004155992 0.057050776 0.045571867 0.025125526
-0.00028456002 0.042771824 0.011181698 0.019387329 0.024040984 -0.04478758 0.07242765 0.003615625
0.007481606 0.051423382 0.012328111 0.05859923 -0.051338956 0.021621015 -0.005689895 0.0030048208
0.03789583 -0.037025098 -0.033866398 -0.0036336791 -0.047740042 -0.04611414 -0.07461491 -0.0047933967
0.017660474 0.07457186 0.054814335 0.034043588 0.017521668 -0.06320323 -0.049764093 0.050813746
-0.0022420923 -0.06568545 0.03893713 0.08185088 -0.08162488 0.006471952 0.0033105707 0.045923337
-0.05359104 0.0560819 0.055789284 -0.010901596 0.024731912 0.050424792 -0.0659819 0.052347355
-0.037405416 -0.06379798 -0.061616667 0.015932553 -0.0037990885 -0.0770164 0.0687062 0.018274074
-0.008881427 0.070177935 -0.0031973964 -0.01947353 0.05439567 -0.077617325 -0.030119415 0.042981956
-0.0077396724 -0.06494067 0.0554393 -0.051090196 0.06669538 -0.037542317 0.025468254 -0.06405235
0.06669487 -0.011563545 0.017494926 0.04939312 -0.0074232756 -0.06706029 -0.0044863634 -0.03889724
-0.025792083 -0.03761997 0.0793856 -0.06332404 0.047475096 0.051727735 0.06551049 0.030871682
-0.039952375 0.07937233 0.07394394 2.5307749e-05 -0.056910027 0.023801483 0.07974365 0.029102275

encoder.weight_hh_l0 f4 [320, 80]
00000000: 1f6b 96bd 495a a9bd a9a9 b33d 92d4 8b3c
00000010: 8a0f 19bb 6ec9 55bd 73fa 3f3d acbe 5e3d
00000020: b947 11bd ffb4 27bc fe22 ddbb 249c 85ba
00000030: 4cfe 20bb a22c afbd 50e9 0a3d efdb f7bc
00000040: ec10 b5bb d755 5bbc 4578 d03c eb3c 053d
00000050: df17 fa3c d595 6dbd 4836 67bd 7cf0 1f3d
00000060: 3cde 8cbd 8da7 70bb eb90 9fbd 6cdd ea3c
00000070: 7c95 843c 12e2 a1bd 35e3 023d 6cec b73c
00000080: 194d 3b3d 44ce 133d e79c a23d 9ce4 5d3d
00000090: bf27 443d 651d 84bd 662d babd 4bce 153d
000000a0: 591a dcbc 6675 8bbd 7061 28bd 2b75 5cbd
000000b0: e814 303c 0268 b4bc a666 54bd 4140 b6bb
000000c0: a06d 8d3d d956 6a3d 066b 9ebc c9ee 8abd
000000d0: bdc6 433c a216 91bd 0e76 ce3c 9ca2 a2bd
000000e0: 1ef2 a7bd 6915 233d a52b f13c 8b3a 8bbd
000000f0: 18e8 2a3d 8507 0e3d e83f 953d 6dfa 98bd
00000100: bdeb 933d 90c3 83bc bb58 33bb edb7 5c3d
00000110: d7f8 923d 0151 0cbd 61ad 1c3d 54a4 19bd
00000120: e18c 91bd 4793 43bd cb1d 50bd 8f6d 54bd
00000130: f023 b83a 5dc0 8c3c e5de b4bd 9bff 65bd
00000140: 408f 55bd 90a5 94bd 20d1 2d3c ea80 8e3d
00000150: 51aa a2bd 3a76 813d 759b 10bd aa5c c1bc
00000160: be68 353d 0ab7 47bd d4d5 7c3d d6de 383d
00000170: 3bac a23d cb9a 97bc 3e89 98bd f84e 1f3d
00000180: 80e5 fdbb d1da 6dbd c58d 97bd f7c1 313c
00000190: 14cc a3bd c098 c6bc 71b5 053d 746a 993d
000001a0: 4b98 003d 7c47 683d 4601 0abd 4050 b0bc
000001b0: 5bc0 9b3d aeef 8bbd cee0 ef3c 8110 353d
000001c0: 1373 8abd 4cd3 1fbc 0b62 bfbc 880d 283c
000001d0: c075 3dbd 72b8 abbc 0b49 bb3c 0496 ad3c
000001e0: 2922 a03d df76 73bb bcec 9abc b098 683d
000001f0: 3459 953d de86 193d cf45 843d 86a3 20bd
00000200: c68f e43c 9639 193d 013d 2b3d 5a0f 9abd
00000210: 8a21 3a3d 1410 2f3d 9b93 29bd d51b a13d
00000220: 9849 0ebd 5e5a 87bd d792 b3bc 3ec3 663d
00000230: 9439 94bd 0d91 173d 1d15 323d 005b 1fbd
00000240: b231 a8bc 7dab a33c b34c 733d 3e37 8dbd
00000250: d27d bdbc 9b7d e0bb 2ec9 87bd ad84 81bd
00000260: bc59 673d 4103 ccbc 5299 cfbc 9c08 3d3b
00000270: aaa9 a43d de77 71bc 40a0 26bd 0d5d 263d
00000280: c52e b33c da6d 873d af0c f13c 042e 42bd
00000290: b880 eebc e4a9 023b 2cf7 53bc c3b5 c0bc
000002a0: bb50 9a3d 66f5 f33b f547 96bd 14a6 823d
000002b0: 5a1b f63b 8a83 673b 9211 ffbc 1a8b 813d
000002c0: abe0 dbbc 214e 1a37 aa49 323d b13a 7b3d
000002d0: d337 1abd d66d 9fbd 5e7d 263d 1dc8 a83d
000002e0: c104 9d3d ab6c bfbc 72f2 0b3c d60f 3cbd
000002f0: 6aac 27bd 15ac 82bd 4d6b ae3c de3e 0e3c
00000300: b37a 423d a962 3d3c 4aa2 5e3d d804 573d
00000310: 02e8 9a3c 8e1f f53c 3de4 613d 8278 5e3b
00000320: 0e0d a13d dabd 83bd f7ef 9dbd 8931 9ebd
00000330: 9d9d 563d a444 db3c 52bf 873d c363 ddbb
00000340: fbf4 96bd 9b31 1cbd b8d4 8abd 1392 713d
00000350: c955 a6bd f88a 5dbd 2d41 b53b 1dd7 bc3c
00000360: 835b 14bd 9c2f 223d 8df9 8dbb 13b4 893d
00000370: 814c 9a3d 9b3f 48bd 0889 823d 3cf9 a43d
00000380: 51a3 f13c 8d85 293d 848a e1bc ce74 6f3d
00000390: 8f9f 8b3d eb0b efbb 05ca c6bb 471f 56bb
000003a0: 6aea 943d 4bee bb3a ed4d a13b 9712 3cbd
000003b0: 7e47 c43b 970d 93bd b105 183d 2d9f 0ebd
000003c0: c3d2 dc3c 8aa4 46bd 6759 8b3d 187c ab3c
000003d0: 684e 91bd 65f8 53bc 17fb 353d caed 9abc
000003e0: 12e1 98bd 98bc 0dbd ae01 a63d 9df2 8f3d
000003f0: 3d36 783d ecd4 4e3d 4436 fd3c b560 4abd
-0.073446505 -0.08269174 0.087725945 0.017069135 -0.002335521 -0.05219405 0.046869706 0.054381058
-0.03546879 -0.010236024 -0.006748556 -0.0010193628 -0.0024565635 -0.08553435 0.03391391 -0.03025624
-0.005525699 -0.013387165 0.025447974 0.0325288 0.03052896 -0.05800422 -0.05644825 0.039047703
-0.06878325 -0.0036720962 -0.07791313 0.028670035 0.016184561 -0.079044476 0.031954963 0.022451602
0.045727823 0.036085382 0.07940083 0.054173097 0.047889467 -0.06450919 -0.0909069 0.03657369
-0.026868032 -0.06809501 -0.04110855 -0.053822678 0.010747172 -0.022022251 -0.051855706 -0.005561859
0.06905675 0.05721173 -0.019338142 -0.06783826 0.011949238 -0.07084395 0.025202777 -0.079411715
-0.08200477 0.03981534 0.029439757 -0.067982756 0.041725248 0.03467514 0.0728758 -0.0746964
0.07222698 -0.016084462 -0.002736612 0.053886343 0.07176369 -0.03425694 0.038251285 -0.03751023
-0.07106949 -0.047747876 -0.050809663 -0.051862296 0.0014048796 0.01718157 -0.08831576 -0.056151967
-0.052138567 -0.07258141 0.010608941 0.06958182 -0.079426415 0.06321378 -0.035304505 -0.023603756
0.044289343 -0.048758544 0.06172736 0.045134388 0.079430066 -0.018506428 -0.07448052 0.03889367
-0.007748306 -0.058070008 -0.07400087 0.0108494675 -0.07997909 -0.024242759 0.03264374 0.074910074
0.031395238 0.056708798 -0.03369262 -0.021522641 0.07605048 -0.06832825 0.029282 0.044205192
-0.0676023 -0.009754967 -0.02336218 0.010257132 -0.046254873 -0.020961974 0.022861978 0.021189697
0.078190155 -0.003714971 -0.018911712 0.05678624 0.07292405 0.037482135 0.064586274 -0.039218448
0.027900588 0.037408434 0.041806225 -0.07522459 0.04544214 0.042739943 -0.041400533 0.07866637
-0.034738153 -0.06609033 -0.021920605 0.05633854 -0.07237545 0.037003566 0.043477166 -0.038905144
-0.02053151 0.019979233 0.059399318 -0.06895302 -0.023131285 -0.006850911 -0.06630169 -0.06324134
0.05648206 -0.024903895 -0.025341664 0.0028844243 0.08040173 -0.014738051 -0.04068017 0.040616084
0.021872887 0.066127494 0.029424993 -0.047407165 -0.029114112 0.0019937688 -0.012937348 -0.02352417
0.07534929 0.0074450253 -0.073379435 0.06379333 0.007510585 0.0035326206 -0.031136308 0.0632536
-0.026840528 9.197306e-06 0.043527283 0.06133527 -0.037650894 -0.077846214 0.040646903 0.082412936
0.07666922 -0.023367247 0.00854169 -0.04591354 -0.04093591 -0.06380478 0.0212914 0.008681981
0.047480296 0.011559167 0.05435399 0.052494854 0.018909458 0.029922273 0.055149306 0.003394634
0.07863818 -0.06432696 -0.07711785 -0.07724292 0.052396405 0.026766129 0.06628288 -0.0067562773
-0.07370945 -0.038133245 -0.06778854 0.058977198 -0.08121831 -0.05408761 0.005531451 0.023051793
-0.036220085 0.039596185 -0.0043327273 0.067237996 0.07534123 -0.048888784 0.06373793 0.0805535
0.02949682 0.04138713 -0.02753187 0.058461003 0.06817543 -0.007295122 -0.006066563 -0.0032672451
0.072712734 0.0014337985 0.0049226196 -0.045916166 0.005989968 -0.071803264 0.037114803 -0.03481977
0.026955968 -0.04849676 0.068041615 0.020933196 -0.07095033 -0.01293764 0.04442891 -0.018912215
-0.07464804 -0.034603685 0.08105789 0.07028697 0.0605986 0.050496027 0.030909665 -0.049408633

encoder.bias_ih_l0 f4 [320]
00000000: 3cbd ff3c a3db 8a3d 4c44 70bd 0dd7 213c
00000010: fd81 913d b619 d1bb 58f7 0d3b c030 4bbd
00000020: 9f45 0cbc cd63 513d 0873 983c 4023 25bd
00000030: d6d9 84bd 5ff0 bbbd 5e33 e03b 601b 773d
00000040: ad58 45bd d71d a53d 7c17 fb3c df7d 533b
00000050: c809 f23c f7d4 6fbd 2aa3 7dbd 0c67 3bbd
00000060: acda 8d3d 2652 9cbc f331 093d 6f2d bdbd
00000070: 01af e93c 2d2a 2e3d 07b9 473d 4f52 6cbd
00000080: 957f dd3c e67e 203d 19ab 893d 983f fdbd
00000090: 2b82 bbbc 4849 27bc 1c05 82bc b6f7 8abd
000000a0: f9cf 25be 15c7 853c b4df 80bd 82fa 57bd
000000b0: df77 9f3d f409 e33c 84b2 f33c 33c4 0c3e
000000c0: 843c fabd ab6a 833d 85e1 09be 34f8 353d
000000d0: b285 893c 6c93 c6bd a5af 803d e5cd 85bc
000000e0: 37d5 39bd 0650 363d 3aa6 113e 17d1 5dbc
000000f0: 46e3 54bd 8b15 a73c 74d4 1bbd b928 d5bd
00000100: f0ec 9e3d f87e d8bd 2a2c 333d 826f 79bd
00000110: 20fa 4b3d 0419 333d 7e75 81bd c3d1 5bbd
00000120: 4393 fc3c 917e 843d 3a20 8b3b beb8 933d
00000130: 7ad7 033d 81fa 8bbc 0e25 183c 67cf 0cbb
00000140: 0b98 9f3c 4f32 8d3d 8d69 893d d40e c9bc
00000150: 96f2 90bd 7e46 3ebb 850c 733d 115d 653d
00000160: c5eb 1fbd e018 743c 55d3 a63d 2740 7e3d
00000170: 5ab7 543b cf0a 6b3c 0241 2ebc 971c 9d3d
00000180: 4805 8fbd 6eb5 d7bd 411d 87bc 7a02 983d
00000190: 08a8 55bd e084 823c d799 cbbd 8f6d a4bd
000001a0: d2fe 383d de00 57bc bb09 acbd d5ef 8ebd
000001b0: fb2a b13d ada5 6d3c 626c 793c 466d dbbd
000001c0: 145e c0bd 3189 67bb 06bd 023e 0463 e83c
000001d0: d179 b33b 37de e6bc 3d68 813c fd8c a33d
000001e0: be26 e3bd 71cd cbbd e113 81bd 4316 13bc
000001f0: e9f9 f3bc bcfc a3bc c11b c4bd 8a9a 84bd
00000200: e647 a83c 52ac 5a3d 31da 993a e20e d43b
00000210: 3361 9abc b4af fb3c 153b e9bc 1a1d a43c
00000220: a1c5 863d e9ff 8e3c 8542 8f3c f4f7 ad3c
00000230: e4e4 0bbc df73 9cbd 1748 583c 1c0f a43c
00000240: 54f8 273d 7c66 c9bd 459a 253d 1d56 edbc
00000250: f4f4 2b3c 415a 8ebd 7488 83ba f4d0 7bbd
00000260: d997 793c 8e7a 77bd 3c9b 96bd 5998 39bd
00000270: 6767 b13c da91 863b d2f7 90bd b426 94bb
00000280: 7cbe 24bd 1f8b f83b 04a1 ce3d d17d 74bd
00000290: 4fd6 d5bc f437 0f3e fec7 03bd d995 84bd
000002a0: f54c eb3b fda2 c3bc e8ef c0bc a136 33bd
000002b0: b9e6 543a 9099 73bd 9a28 a73d 1536 efbc
000002c0: 7d2f 1dbd 76dd a2bb e42f 46bd 0826 19bd
000002d0: def5 95bd 292e b3bc 24e9 c6bd 4e8d 8f3a
000002e0: 0d0b 99bd 3f35 2a3d c2f7 e83c 3fab 903b
000002f0: b1f6 1abc bf30 393b d7b6 a2bd a043 743d
00000300: dc3b 1ebd 89a7 23bd 3d49 fdbd 6899 0fbd
00000310: ce11 c5bd 412a 3e3d 76a1 2fbd 9df2 debd
00000320: db5d c3bd 8361 cc3d 6ef5 09bc 538c bdbd
00000330: f2fa f8bc 7e01 8a3d 1a02 cf3d 8053 df3d
00000340: 006c 1a3d e2dd d83d 173c 5dbb 43f1 1b3d
00000350: df44 9b3d 80a8 c8bd a3ad 89ba 72c5 c2bd
00000360: b3e8 5e3d 9d5c 863c 4dab 063e 561c 79bc
00000370: eee7 95bd 261c a0bd 14eb 66bd a49c a73d
00000380: 0f8d 473d 24bd dabb a5a2 0a3d 536d 643d
00000390: 46a8 63bc 1c8e 59bc 9a47 cd3d 5a67 c63d
000003a0: 6f3c 053e 74c2 2b3c f8b7 d7bd 2a12 12bd
000003b0: ea65 08bd a83a 55bd 98b6 933d 1405 a6bc
000003c0: 6b31 2abe 8ab1 79be 26a7 3cbe 15e3 c6bd
000003d0: 51aa 42be af21 903d fade 33be 4aef 24be
000003e0: b2a1 9abc 254d b93d 4e2b 50be bc6d 3dbe
000003f0: 4f83 f4bd 707e a5bd 9c57 b2bd 7d96 fbbd
0.031218164 0.06780174 -0.058658883 0.009877932 0.071048714 -0.006381239 0.002166232 -0.04960704
-0.008561521 0.051120568 0.018609539 -0.04031682 -0.064868614 -0.091767065 0.006842061 0.06032884
-0.04818027 0.08062332 0.030650847 0.003227107 0.02954568 -0.05855271 -0.061923184 -0.04575257
0.06926474 -0.01908214 0.0334949 -0.092371814 0.028525831 0.04252069 0.04876044 -0.057695683
0.027038375 0.03918352 0.067220874 -0.12365645 -0.022889217 -0.010210343 -0.015871577 -0.06785528
-0.16192617 0.016330281 -0.06292668 -0.052729137 0.077865355 0.027714707 0.029748209 0.13746719
-0.12218574 0.0641683 -0.13464935 0.044426158 0.016787384 -0.09696087 0.062835015 -0.01633353
-0.045369353 0.04450991 0.14223567 -0.01353862 -0.051974557 0.020396015 -0.038044408 -0.10408158
0.07760036 -0.10571092 0.04374329 -0.060897358 0.049799085 0.04372503 -0.06321238 -0.05366684
0.030831939 0.06469453 0.004245785 0.07212971 0.032187916 -0.017087223 0.009286178 -0.0021485926
0.01948168 0.06894361 0.06709585 -0.024543203 -0.070775196 -0.0029033716 0.05933811 0.05599696
-0.039043207 0.014898509 0.08145777 0.0620729 0.003245792 0.014345839 -0.010635616 0.07671469
-0.06983429 -0.10532652 -0.016493442 0.07422347 -0.0521622 0.0159325 -0.09941452 -0.08028709
0.04516489 -0.013122765 -0.084002934 -0.06979338 0.08650776 0.014504832 0.015223594 -0.10714202
-0.09392944 -0.0035329575 0.12767419 0.028367527 0.005477168 -0.028182132 0.015796775 0.07985876
-0.11091374 -0.09951294 -0.0630262 -0.008977476 -0.029782252 -0.020017974 -0.09575606 -0.064747885
0.020542096 0.053386994 0.0011738 0.0064715007 -0.018845176 0.03072343 -0.028470555 0.020033408
0.065806635 0.017456012 0.017487774 0.021236397 -0.0085384585 -0.07639288 0.013200781 0.020026736
0.04100831 -0.098340005 0.040430326 -0.028971726 0.010495413 -0.06950808 -0.0010035173 -0.06147857
0.015233957 -0.06041961 -0.07353827 -0.045311306 0.021655751 0.0041067423 -0.07078518 -0.0045212153
-0.040220723 0.007584944 0.10089305 -0.0596903 -0.026103167 0.13986188 -0.03217315 -0.06473894
0.007180805 -0.02388143 -0.023551896 -0.04375327 0.00081215386 -0.05947262 0.08162041 -0.029200593
-0.038375366 -0.004970248 -0.048385516 -0.037389785 -0.07322286 -0.021872597 -0.09712437 0.0010952146
-0.07472811 0.041554686 0.028438453 0.0044149454 -0.00945823 0.0028257815 -0.0794503 0.059634805
-0.038631305 -0.039954696 -0.12367485 -0.03505841 -0.096225366 0.046427015 -0.04287859 -0.108861186
-0.09539386 0.099795364 -0.008420331 -0.0925528 -0.030393098 0.06738566 0.10107823 0.10904598
0.037700653 0.10589196 -0.003375774 0.038071882 0.075814955 -0.09797764 -0.0010504018 -0.09510316
0.054421138 0.016401583 0.13151284 -0.01520451 -0.07319628 -0.07817869 -0.05637653 0.08184174
0.04871851 -0.0066753794 0.033846516 0.055768322 -0.0138951 -0.01327851 0.100234225 0.096876815
0.13011335 0.010483373 -0.10533136 -0.035661854 -0.033300318 -0.052057892 0.07212561 -0.020266093
-0.16620414 -0.24384132 -0.18423137 -0.09711281 -0.19010283 0.07037675 -0.17565528 -0.16106907
-0.01887593 0.09047917 -0.2032902 -0.18498892 -0.119391076 -0.08080757 -0.087081164 -0.12284563

encoder.bias_hh_l0 f4 [320]
00000000: 261d b63d c6e1 70bd 1cc5 0abc 75b7 8fbc
00000010: 6def 9c3d d24a 093d d149 523d 17af 023b
00000020: f4f4 84bc 5803 b9bc 24dd a7bd 6172 883a
00000030: 122a 693c 2155 10be 5461 613d 1ee2 5bbd
00000040: 2aae ad3b 1a12 873d 2f2c 78bd 5424 59bc
00000050: 39a8 4a3d 7e4b 3c3d 88ed e1ba eafc 663d
00000060: 531b 2ebd 9908 e9bc 3039 f83b af47 7b3c
00000070: 7029 1e3d b78e 7a3d a35e b33c f4b8 35bd
00000080: c858 84bd 120f 223d a1af a2bb 216c 79bd
00000090: d809 233d f3b9 493d 82df 843c d75a b1bc
000000a0: ec03 5cbe 9282 10bd 602c a0bd abdf 373d
000000b0: 4142 4e3d c2b0 443c 671d 95bd d404 d03d
000000c0: 8506 053c 2cd1 41bd 4661 88bd fe3c 903d
000000d0: 7af9 783d 8f13 a9bc 80ed b6bc 2b5c 07bd
000000e0: d244 313d 32fd e03c 91f6 123d 51ab 00bd
000000f0: 0439 d5bc 8e81 4a3b d9dd c1bc 8518 d3bd
00000100: e27b a2bd 3262 52be 192c e3bc 8214 943d
00000110: c18a b5bd 039c 5a3d 4afa 99bd f4ac 703d
00000120: a3d9 ad3d 0406 15bd 9dd3 ef3c c21f 1dbd
00000130: 54cd b9bc b195 563d 9929 793d 1b5d 303d
00000140: 8ff2 133b 1597 3abd 9f76 203b 7127 083d
00000150: 0703 b73c 58b8 dcbd 4691 7fbd 277c 8d3d
00000160: 42b3 1e3d 3385 d13c d6ac dabc 6a13 893d
00000170: 501c 913d b7e7 ed3c d31f 983c 8c02 5d3d
00000180: efce 5a3c e96d 13be 5326 8c3d 2430 013d
00000190: ec02 27bd a537 36bd 2776 f2bb b262 243d
000001a0: 00c4 f53c cc70 49bd d2d8 15be 0d35 e3bc
000001b0: 4c7a 7fbd 4dcc 1a3d 5143 473d 1359 afbd
000001c0: 23e1 e2bc dbcf e3bd 4f60 563d 76ca 54bd
000001d0: 287a 44bd 7a72 c7bd bbdf e23b dfb2 8abc
000001e0: 393c 0dbd 978e a8bd 24bf 59bd 1466 a1bc
000001f0: 88f9 783c d3ef 223d 9af7 44bd a007 13bd
00000200: efb6 8bbd 46e5 07bb 45a7 7ebd 11ae 393d
00000210: 8b3b dabc 5856 a0bc 5517 91bd 1146 b83d
00000220: b804 83bd 2806 7d3d d95e f9bd 4837 a93d
00000230: 548b ef3c a7f7 943d bcd8 993b b3ba 5bbd
00000240: 8096 9fbd 9806 443d c3e3 113d 0be7 85bd
00000250: cd5a 31bd 8a40 18bd b629 9fbd a1b3 afbd
00000260: 7ba5 49bd a08b 9fbd c5ea 88bc d7dc 80bd
00000270: b765 6c3d d054 31bd cc43 4cbd a4f6 20bd
00000280: 00ac de3c b064 943d 793d c73d c5e9 52bb
00000290: f254 2cbd 58cd a93d db23 b1bd 8261 823d
000002a0: b698 cc3c e864 0dbe 065b 6ebd ca31 82bc
000002b0: c649 a7bc fe0d 0abd 0792 bb3d 0a79 fe3d
000002c0: bc0c b9bd eaf0 4dbc 5c9b 593c 6031 3bba
000002d0: 4340 5ebd 863c 08bd ae4d 853b 91c9 94bc
000002e0: d421 b4bd 6648 b0ba a655 9fbd b53d 81bd
000002f0: f766 9ebc fc27 9e3d 1d6a cf3c 1ad3 de3d
00000300: 25a2 6e3d 3aaa 0dbe d77b 4abc e7d9 9ebd
00000310: 687f 353d dc19 a4bc e3ba 77bd 34c1 a2bc
00000320: cc04 043d 532c e23d edcd 97bd b5ae a9bd
00000330: c414 1b3d 3c0d 803c 9033 133d 47d0 063e
00000340: 0952 763d ea6f 043d 3e3d d0bd 4042 533d
00000350: a311 93bc aba6 c2bd 7663 533d 23df bbbd
00000360: b8b7 e53c e3cb 023d 5cad a03d 3d43 473d
00000370: 3982 123c 56e1 42bd 5b18 79bd 6b3e 9b3d
00000380: f367 843c 52eb 56bd 166a 6f3d 0b1f 953c
00000390: f479 933d b6b4 78bd 876e 203c 1c9e 443d
000003a0: 9889 133e b09a 853d f528 e0bc 4bf4 2a3d
000003b0: dec3 84bc 4115 af3d ec8f 6a3d d8f5 9d3c
000003c0: 50cf 2dbe f84a 03be bee2 1cbe 6469 21be
000003d0: 52e9 a9bd ecf3 35bd 37c3 4cbe 192d fabd
000003e0: 22e8 8fbd ec78 bbbc cee0 5ebe d613 51be
000003f0: a5d1 b1bd 684b 7f3d df97 12be f48f 85bd
0.088922784 -0.058809064 -0.008469846 -0.017543534 0.07662854 0.03351862 0.051339928 0.0019940787
-0.016230084 -0.022584602 -0.08196476 0.0010410064 0.014231222 -0.14094974 0.05502446 -0.05368244
0.005300303 0.065952495 -0.06058901 -0.01325329 0.049476836 0.045970432 -0.0017236928 0.05639354
-0.042506527 -0.028446482 0.0075751767 0.015336915 0.038613737 0.06117126 0.021895712 -0.04436584
-0.06462246 0.039565153 -0.0049647843 -0.060894135 0.03980431 0.0492496 0.016219858 -0.021649761
-0.21485871 -0.03528077 -0.07820964 0.04489104 0.050356153 0.012005033 -0.07280999 0.10157171
0.00811923 -0.047318622 -0.066591784 0.07042883 0.060784794 -0.02063921 -0.022330046 -0.033046883
0.043278523 0.027464483 0.035879675 -0.03141338 -0.026028164 0.0030899975 -0.023665356 -0.10307411
-0.07933785 -0.20545271 -0.027730988 0.07230474 -0.08864356 0.05337144 -0.07518442 0.05875869
0.084887765 -0.03638269 0.02927571 -0.038360365 -0.022680916 0.05238885 0.060830686 0.043057542
0.0022574996 -0.04555424 0.0024484766 0.03324074 0.02234031 -0.10777348 -0.062394403 0.06908446
0.038745172 0.02557621 -0.026693743 0.06693156 0.07085478 0.029041154 0.018569862 0.053957507
0.013355001 -0.14397396 0.06843247 0.03154005 -0.04077427 -0.04448666 -0.0073993388 0.040133186
0.030000687 -0.049179837 -0.14633492 -0.027735258 -0.06237249 0.037792493 0.048648182 -0.085619114
-0.027695244 -0.1112363 0.05233794 -0.051950894 -0.04796806 -0.097386315 0.0069236434 -0.016930996
-0.03448126 -0.08230322 -0.0531608 -0.019701995 0.015196212 0.039779495 -0.048087694 -0.035895944
-0.06822001 -0.0020736023 -0.06217124 0.04533202 -0.02663972 -0.019572422 -0.07084528 0.08997739
-0.063973844 0.06177345 -0.12176294 0.08262497 0.029241242 0.072737984 0.004695026 -0.053644847
-0.077923775 0.04785785 0.0356176 -0.065382086 -0.043299485 -0.037170924 -0.077716276 -0.08579183
-0.04923008 -0.07790303 -0.01671351 -0.06292122 0.05771419 -0.043293774 -0.049869344 -0.039297715
0.027181625 0.07245767 0.09728522 -0.0032182795 -0.042073198 0.08291119 -0.08649417 0.063662544
0.024975162 -0.13808024 -0.058192275 -0.015892882 -0.02042092 -0.03370475 0.09158712 0.1242543
-0.09035632 -0.012569645 0.0132816695 -0.00071408413 -0.054260504 -0.033260845 0.004068098 -0.01816252
-0.08795515 -0.0013449311 -0.07780008 -0.06310598 -0.019336207 0.0772247 0.025319153 0.10880108
0.0582601 -0.13834468 -0.012358627 -0.07756405 0.044310957 -0.020031862 -0.060480963 -0.019867517
0.032231137 0.110436104 -0.07412324 -0.08285276 0.0378616 0.01563131 0.035937846 0.13165389
0.06013683 0.032333292 -0.10167931 0.051576853 -0.017952746 -0.09504446 0.051608525 -0.09173419
0.028041705 0.031932723 0.07845566 0.048648108 0.00894218 -0.04757818 -0.060814243 0.07580265
0.016162848 -0.052470513 0.05845078 0.018203279 0.07200995 -0.060719214 0.009791977 0.048002347
0.14407957 0.06523645 -0.02736328 0.041736882 -0.016206678 0.08548976 0.05726616 0.019282266
-0.16973615 -0.12821567 -0.1532087 -0.1576286 -0.082964554 -0.044422075 -0.19996344 -0.12215633
-0.07026698 -0.022884808 -0.21765444 -0.20417723 -0.08682565 0.062327772 -0.14315747 -0.065215975

to_latent.weight f4 [20, 80]
00000000: c3cc 073f 3737 b7be 4a25 fc3e 74cf dfbe
00000010: ade5 bfbe e180 cd3d 7448 6cbe af53 15bf
00000020: 5e72 e83e 6a23 8abe ebb1 d6be 8a71 fcbe
00000030: 1264 f8be fe87 3bbb 01ea ec3e b021 9dbe
00000040: 9940 0dbf 8291 fbbc 2c10 cebe a9a1 bbbe
00000050: dcaa 7fbe ab5c b8bd 419d 593d f27c afbe
00000060: 04c2 d13b 3119 aa3d d1fb 08bf 0807 d5be
00000070: d306 05bf d82f 583d b15f f2bd f6eb 99be
00000080: 206c d83e 1318 96be 8909 c73e 508c 8e3c
00000090: 65ff f2be f915 cfbe c61f adbc 33cd c23e
000000a0: 18b0 09bf 6d5a b53c 5a2b ddbd d115 98be
000000b0: 5bfa fb3e 6fa6 e93e db70 d4bd 2995 ab3d
000000c0: 7e0f a93b 21f7 b13e 6347 30be 15ab 103e
000000d0: 28c1 bb3e a1c0 503d 7a0e f8be 9735 22be
000000e0: 5603 f0be cbb9 e23c e87c 153e 2f90 0fbf
000000f0: f3c1 e0be 6759 efbe c6cc 803e 1bab 65be
00000100: f50b fa3d 72ce 12bf 6e78 dc3d 2447 0d3f
00000110: 6109 343e 1a11 2cbe 5fa5 063e a4bc c83e
00000120: b71b 7bbe 0bc7 0fbe 6ea3 e6be 8c83 ffbe
00000130: dfdd 603d 481b c03e 46b4 a63e ecf3 933e
00000140: 8cec 0ebf b400 a23e ccd4 2cbf a8cd 243f
00000150: 2838 233f 95c5 10bf e71c 7b3e 3e17 263f
00000160: e7f8 37bf f81b b73e 25ab e33e 4e15 e43e
00000170: 8f22 4a3f 6457 32bd f771 22bf ceda 9b3e
00000180: b994 183f a669 463e 8aaf 243f bbf5 073f
00000190: 6b66 003f 9843 08be b3b3 113e 10a4 ed3e
000001a0: ed13 923e d92a 65be 8227 563f 5579 cb3e
000001b0: 8716 273f f232 d0be 1924 f73e 04a5 7f3e
000001c0: 9a19 d6be e3bd e43e 029f 613e b156 6a3e
000001d0: de4a 183f c62c 043f 3065 933d b281 adbe
000001e0: 3bd8 bf3e 5599 3abe 871c 9c3e e28b 203f
000001f0: 04f8 27bf 84b5 4dbf ed19 39be a3e3 b8be
00000200: cee9 58bd 1666 dcbe 7d42 043f 66c6 06bf
00000210: 0c06 31bf cb7c 4b3e 310f 0b3f a02c eb3e
00000220: ac8a 253f faad 7c3d dc9c d0be 747e 163f
00000230: 110e 0b3f 4666 303f b449 a8bc 6dd7 1a3e
00000240: 1634 9abe a577 213f 53bc f8be 874e 32bf
00000250: d4fc d7be 8279 243e 1625 81be 24fe 47bf
00000260: 0667 27bd 244b 4d3c 54ef 1d3f 24b2 0d3f
00000270: 00c5 9ebe 1485 01bf b816 00bf 9450 cabe
00000280: c1fe 3abf ad30 a03e d424 cbbe e65f c43e
00000290: f3ab c03e 9bcc b7bd 5ee5 d9bd fc20 533f
000002a0: 8dfa 4fbf f346 903e 8260 7f3e 29ff 003f
000002b0: 4ee4 073f af0d e43e d4b4 0bbf e4d5 d73e
000002c0: 1b0d 3d3f 6bc9 003e 3ca8 113f 7f34 463e
000002d0: 7364 bd3e 5ac3 be3e b481 2dbd 6ac0 4a3e
000002e0: ab4c 34be 5acf 493d 9df7 173f a56a 603e
000002f0: c1a9 5d3f 3db5 8cbd d5e8 a7bd 3e04 043f
00000300: d7d6 eabe 1d9a 02bd 95c6 65bf a01e f13e
00000310: 1f75 0b3f c9d4 b13e 3bb8 323e a15c 07bf
00000320: 6956 203f 4258 293e 0940 f1bb 06df 433e
00000330: 137b 32bf 1396 1ebf 561f 5c3e e6ac 5e3d
00000340: 3488 803e f8b1 e0be 7664 c03e b966 96bc
00000350: 06ce c2be e469 3abd bf37 723f 54fc 293d
00000360: 15d6 fc3e 01fb 88be 385f a1be a3b4 013f
00000370: 95b8 de3e 0d85 2a3f 1000 2abe 2c3d 733e
00000380: b3c6 a2be 4dde 453f 85c9 4c3e 8ab7 2abf
00000390: 8226 eebd 4f5c 073e d039 2b3e 05ef 19bf
000003a0: efdf bd3e 378f ea3d 4715 573f 30cf 563f
000003b0: c9a4 503d 9365 0dbf cd2a 0fbf b3e9 91be
000003c0: de86 553e b7b6 35be 6bce 8d3e 2e06 7abe
000003d0: e63a 7abe ca84 1b3e 6599 03be c5cb 7ebe
000003e0: e85e 2e3e fe73 debd bb8d 85be 018e 49be
000003f0: 6f86 30be 58b9 5f3e d65c 823e a295 07be
0.53046817 -0.35784313 0.492472 -0.43712962 -0.37479916 0.10034347 -0.23074514 -0.58330816
0.45399755 -0.26980144 -0.41932616 -0.49305373 -0.48513848 -0.0028614993 0.4627228 -0.30689764
-0.55176693 -0.030709032 -0.40246713 -0.36646774 -0.24967521 -0.0900205 0.053128485 -0.34275013
0.0064013023 0.08305586 -0.5350924 -0.41606927 -0.5196354 0.052780002 -0.11834658 -0.30062836
0.42269993 -0.29315242 0.38874462 0.01740089 -0.47460476 -0.4044645 -0.021133315 0.3804718
-0.5378432 0.022137845 -0.10799284 -0.29704145 0.49214444 0.4563479 -0.10373088 0.083780594
0.0051593175 0.34758857 -0.17214732 0.14127763 0.36670804 0.050964955 -0.48448545 -0.15840755
-0.46877545 0.027676484 0.14598429 -0.5607938 -0.43897972 -0.46747896 0.2515623 -0.22428553
0.12209312 -0.5734626 0.10765158 0.55186677 0.17581703 -0.16803399 0.13149022 0.3920642
-0.24522291 -0.14040773 -0.45046562 -0.4990505 0.054899093 0.37520814 0.32559413 0.28897035
-0.5582969 0.3164116 -0.675122 0.64376307 0.6375756 -0.56551486 0.24522744 0.64879215
-0.7186417 0.35763526 0.4446651 0.44547504 0.7895898 -0.043540373 -0.63455147 0.30440372
0.5960193 0.19376239 0.6433035 0.5310933 0.5015628 -0.13307035 0.14228706 0.46414232
0.28530827 -0.22379626 0.83654034 0.39741006 0.6526875 -0.40663868 0.48269728 0.24965292
-0.41816407 0.44676122 0.22033313 0.22884633 0.5948924 0.5163082 0.07197034 -0.33888012
0.37469658 -0.18222554 0.30490515 0.62713444 -0.65612817 -0.80355096 -0.18076296 -0.36111173
-0.05295735 -0.43046635 0.51663953 -0.5264648 -0.6914985 0.19871823 0.54320055 0.45932484
0.6466472 0.061689354 -0.40744674 0.587867 0.5431834 0.68906057 -0.020542957 0.15121241
-0.30117863 0.6307319 -0.4858118 -0.69651073 -0.4218508 0.16061977 -0.25223607 -0.7812216
-0.040869735 0.012530122 0.6169331 0.55349946 -0.31009674 -0.50593686 -0.50034666 -0.395146
-0.73044974 0.31287137 -0.39676535 0.38354415 0.37631187 -0.08974572 -0.106394514 0.82472205
-0.81241685 0.2817913 0.24939159 0.50389344 0.5308274 0.4454169 -0.54572797 0.42155373
0.7384812 0.12576835 0.5689733 0.19355963 0.369907 0.37258416 -0.042360023 0.19799963
-0.17607372 0.04927001 0.593622 0.21915682 0.8658715 -0.06870506 -0.08198706 0.51568973
-0.45867035 -0.031885255 -0.8975614 0.47093678 0.5447559 0.34732655 0.17453091 -0.52875715
0.6263185 0.16537574 -0.00736237 0.19128045 -0.69719046 -0.61947745 0.21496329 0.054364108
0.25103915 -0.4388578 0.37576646 -0.018359529 -0.38047808 -0.04551114 0.9461631 0.041500404
0.49382082 -0.26754 -0.3151796 0.50666255 0.435002 0.6660927 -0.16601586 0.23753804
-0.3179222 0.7729233 0.19998749 -0.6668631 -0.116284385 0.13218807 0.16721272 -0.6013034
0.3708491 0.11453097 0.8401684 0.83909893 0.0509384 -0.55233115 -0.55924684 -0.2849861
0.20852229 -0.17745481 0.27696547 -0.2441642 -0.2443653 0.15187374 -0.12851484 -0.2488242
0.17028391 -0.108619675 -0.26084694 -0.19683076 -0.17238782 0.21848047 0.25461453 -0.13240674

to_latent.bias f4 [20]
00000000: 1eb9 253f 74ec 2dbf b76e 31bf 0748 b33e
00000010: 0369 4dbf 7353 993f 4f9d ed3e bd8f 3c3f
00000020: a8fa 943f 4f2d 1fbe c6cb 023f 6882 a9be
00000030: 4e80 d0be 6666 253f e7f9 fcbe 8fa7 42bf
00000040: 2f27 97bf 4ad7 6dbf 15e5 1b3f 81de 5f3f
0.6473559 -0.67938924 -0.6930956 0.3501589 -0.8023836 1.1978592 0.4640908 0.7365683
1.1638994 -0.15544628 0.51092184 -0.33107305 -0.4072289 0.6460937 -0.4940941 -0.76036924
-1.1808833 -0.9290663 0.60896426 0.8744889

from_latent.weight f4 [80, 20]
00000000: 1116 1abf dbc0 183f d786 2e3f cdc4 ebbe
00000010: f49c 223f a3d1 15bf 06bd c8be 4ac4 20bf
00000020: ed17 10bf af32 2e3f 106b 1fbf 7b04 fe3e
00000030: 0a34 0e3f 1227 06bf 9825 173f 791d a03e
00000040: e3e3 223f c07f f53e 4542 09bf eb3a 12bf
00000050: e7e0 d43d 6d11 bdbe e6f4 cbbe dc1d c03e
00000060: b36d 35be 559a 243e 4890 e23e c71d cf3e
00000070: c336 dd3d ca1f 3abe b90c 2f3e 36fc 21bf
00000080: 8975 a0be 556a 823e b336 eabe 6083 14bf
00000090: 31dd fbbe b3e2 c3be 138a c83e 9755 873e
000000a0: 20cf 223d 70a5 01be c4db 973e 391b 2dbc
000000b0: cf06 96bc e592 bcbd a1c5 11bd 7ed1 8abd
000000c0: 279d c33d 5299 4f3e 1d86 333e 3b3c 223e
000000d0: 54ba 43be 2c30 4f3e 03a3 b1bc 12c7 6dbe
000000e0: 6c1f ab3d bcd6 a8bd 9b99 8ebd 5748 0e3e
000000f0: 29f3 213d bec2 753e e0ed e03c 36f5 8c3c
00000100: eb1e b43d 4bd6 a73c c6e3 953d 464c 92bd
00000110: dbc6 36bd 779b 34be f3aa 5dbc 0807 333d
00000120: 19d2 8f39 2745 143e ce50 223c d0d2 823d
00000130: 4828 a5bd 13f1 f83c 3030 28bc 6432 853d
00000140: c577 1c3e b44a a3bd b26c d93e 16f9 b5bd
00000150: a1bb 533d 9dfb 27bd e10a 4dbd b680 25be
00000160: 8ce8 d9bc 946c 96bd 781a f83c f228 853e
00000170: 03d5 5f3d 34ae ea3d 7651 f0bd cbdf 563d
00000180: 30a2 323e bb6c dbbd 2304 c03d 6d42 46bc
00000190: 5c6c 323e c36b 9bbe df14 83be 60cc 713e
000001a0: 912e f8bd 8004 183e 9c24 263e 9460 483e
000001b0: 347a a33e 6d19 8abe ab38 403e 3d04 aabe
000001c0: 0fda 9abe f810 823e 4535 97bd 7408 88be
000001d0: 0984 d4be b5a6 51be a8e8 513e a389 cf3e
000001e0: 7435 073e 048b b5bb 4d56 25bb 5097 553e
000001f0: 0302 733d 37ee 5bbb 79b8 9e3d b678 453e
00000200: ebe9 1dbd 06f4 38bd 5e95 143d 1574 39be
00000210: 7c31 b4bd 8a2a 183e a681 d6bd 5416 e43b
00000220: afc8 e4bd e2f6 843c 71fc ff3d edf1 eb3d
00000230: b0b1 8abd 8f95 953d d00b 44bd 5c34 c6bc
00000240: fdbc dc3c a221 15bd 7601 78bd 62f6 393c
00000250: 2d6a 2e3c ff1b a6bc 9072 ddbd ec5d 32be
00000260: c90d 14be 807b f63c 3b67 b83d b67d 50be
00000270: 9377 913c 3cb3 13bd c145 b63d 744c 8ebc
00000280: 7d63 193e aa20 653d 7a4c f93d 3c5c 513d
00000290: cff3 49be 8f85 9a3c 95fc d4bd 6d1d ce3d
000002a0: cfbc 403d 78df 843c 5023 4d3e abed 063e
000002b0: fbb6 34bd 8d09 8dbd 3962 01be 8ade 93bd
000002c0: 1b8b 723b 5126 413d 5a72 5bbd 1f9e a23d
000002d0: 55d4 0f3e 3274 efbd a80a 743e f4ed cd3d
000002e0: b288 d73d 804e e3bc 4237 043e 1857 8bbd
000002f0: a965 2cbe 017c dd3c 655e f33d dad5 6cbe
00000300: 2ebd 3cbd 44bd 113e fd81 83bd a914 ee3d
00000310: 5a24 15be 1b17 083e 812f ac3d 9a4c 903d
00000320: c831 153d 956e 27bc 2733 c4bb a7d6 5fbe
00000330: 4fe2 693e a97c 113b 34f6 9a3c 84cc a43d
00000340: 0a4a 49bd 4230 dd3d d3ac 90bd b079 37bd
00000350: 8a20 aabd 15b1 d4bd 8131 613c e429 02bd
00000360: a2e5 38be 5ec3 ea3d 0a00 38be aab9 babd
00000370: 59c4 b7bd cf83 1b3d 482e a4bd 0894 45be
00000380: ef9b b53d ebea cf3d 3fbf 123d 21da ba3d
00000390: ec0c 8dbe 1e55 5f3e 09f5 25be 2c17 0b3f
000003a0: b1ff 423d 774e a63d f3c1 793d 2422 d03d
000003b0: 93e0 2d3e 39ad 4fbd 252b d9bc 107d 6dbe
000003c0: 9698 88bf 24e9 883f 1aaa 473f 532b 7bbf
000003d0: 19e6 823f a8b9 65bf 1bdd 82bf 6c31 56bf
000003e0: e4bc 6ebf 0896 843f 6d3b 52bf e090 483f
000003f0: 2c56 633f 13d2 89bf 9ce4 843f 21cb 913f
-0.6018992 0.59669274 0.681745 -0.46048585 0.6352074 -0.58523005 -0.39206713 -0.62799513
-0.5628651 0.6804609 -0.6227274 0.49612793 0.55548155 -0.52403367 0.5904174 0.31272486
0.6362898 0.47949028 -0.53616744 -0.5712115 0.10394459 -0.36927357 -0.3983528 0.3752278
-0.17717628 0.16074498 0.44250703 0.40452406 0.108014606 -0.18176189 0.17094697 -0.6327547
-0.31339672 0.2547175 -0.45744857 -0.5801296 -0.49192193 -0.38258895 0.39167842 0.26432487
0.03974831 -0.12660766 0.29659855 -0.010565572 -0.018313793 -0.092077054 -0.035588864 -0.06778239
0.09551459 0.20273331 0.17531629 0.15843289 -0.19114047 0.2023322 -0.021684175 -0.2322047
0.083556026 -0.08244082 -0.06962892 0.13894783 0.039538536 0.2400007 0.027457178 0.01720677
0.0879496 0.020487925 0.07318835 -0.07143454 -0.044623237 -0.1763743 -0.013529527 0.043707877
0.0002743162 0.14479505 0.009906961 0.063878655 -0.08064324 0.03038839 -0.010265395 0.06503752
0.15280063 -0.07973233 0.4246574 -0.088854 0.05169261 -0.04101144 -0.050059203 -0.1616238
-0.026600145 -0.073449284 0.030286059 0.260078 0.054646503 0.11459008 -0.117342874 0.05245952
0.17444682 -0.10714098 0.09375789 -0.012100798 0.17424148 -0.30355653 -0.2560186 0.23613119
-0.12118257 0.14845467 0.16224903 0.19568092 0.3192917 -0.26972523 0.18771617 -0.3320636
-0.3024449 0.2540357 -0.07383207 -0.2656895 -0.41506985 -0.2047375 0.20498908 0.40534696
0.13203984 -0.0055402536 -0.0025228441 0.20858502 0.05932809 -0.0033558735 0.07750029 0.19284329
-0.03855316 -0.045154594 0.03627526 -0.18110688 -0.08798501 0.14859977 -0.10473947 0.0069606695
-0.1117109 0.016231004 0.12499321 0.11520753 -0.067721725 0.07303917 -0.047862828 -0.024194889
0.026945585 -0.036409028 -0.06054827 0.011350246 0.0106454315 -0.020277021 -0.10812867 -0.17418641
-0.14458384 0.030088186 0.09004065 -0.20360455 0.017757213 -0.036059603 0.08900023 -0.01737044
0.14979358 0.055939354 0.1217279 0.051113352 -0.19721912 0.018862514 -0.10399739 0.10064206
0.047055062 0.01621984 0.20033002 0.131766 -0.044119816 -0.06886587 -0.12635125 -0.0722018
0.0037009183 0.047155682 -0.05357585 0.079403155 0.14045842 -0.11692084 0.2383219 0.100551516
0.105241194 -0.027747393 0.12911704 -0.06803721 -0.16835655 0.027036669 0.11883239 -0.23128453
-0.046078853 0.14232355 -0.06421278 0.11625034 -0.14564648 0.13290064 0.08407498 0.070458606
0.03642443 -0.010219236 -0.005987543 -0.21859227 0.22840236 0.0022199547 0.018916227 0.08046821
-0.049142875 0.1080022 -0.070642136 -0.044793785 -0.083069876 -0.10385338 0.013744713 -0.03177823
-0.18056348 0.114630446 -0.17968765 -0.09117444 -0.08972997 0.0379675 -0.0801664 -0.1929475
0.088676326 0.10152229 0.035826918 0.09123636 -0.2754892 0.21809813 -0.16206755 0.5433223
0.047607128 0.08120435 0.06097598 0.10162762 0.169802 -0.050702307 -0.02650983 -0.23192239
-1.0671566 1.0696149 0.7799393 -0.9811298 1.022647 -0.89736414 -1.0223726 -0.8366916
-0.93256974 1.0358286 -0.82121927 0.7834606 0.8880336 -1.0767235 1.0382266 1.1390115

from_latent.bias f4 [80]
00000000: 125e ddbe cb2f 413e a0b5 f6bc 829b 95bc
00000010: 73cf adbd 11cd fe3d fc2a 283e 432b 2cbe
00000020: 46dd 093d b652 823c 5564 cfbd 1d8b 1dbd
00000030: be0c 53bf e56f 7dbd 874b 2b3e 4a93 d73d
00000040: 76eb 4d3c b9df 43be f188 233c 1849 51bc
00000050: 9b66 cfbc 3424 f3bd 023b 11bd 111a febd
00000060: fe7a bfbb e359 efbb 91fc 0b3b 3014 373e
00000070: 740f 31bd 345a b33d f9f6 02bd bb57 1fbe
00000080: 6779 f2bc b95c 5d3e f430 a03e 1f30 03bd
00000090: cc19 d5bc 5fc9 1c3e 911b 093e ea96 ae3e
000000a0: 6496 d8bd 1bfc 82bd aba4 10bf 803a 00be
000000b0: 71f4 783e 8bf6 8dbd 275d e1bd 2c63 4b3d
000000c0: 9294 033e 9865 503e e083 203d 73de 69bc
000000d0: f43c a2bc 78c4 163e f78c aebd a7b5 93be
000000e0: 7089 053f 21ea 14be 351a 803e edc2 223f
000000f0: b33e dabd 093b 3c3e d7b8 02be 5339 8dbe
00000100: 05a0 64bf 9dff 08bd 2fb3 7f3e fcf0 2bbe
00000110: c308 ecbd 759a debb 81c5 a4be 675b 97bc
00000120: c7a6 d43d f53e cd3d ec97 813d d1bf fdbd
00000130: 3a8e d2bd a206 15bf 6973 cb3d e61e 9cbd
-0.43235832 0.18865888 -0.030115902 -0.018262628 -0.084868334 0.12441457 0.16422647 -0.16813378
0.03365829 0.01590858 -0.10126559 -0.038462747 -0.8244132 -0.06187429 0.1672803 0.1052614
0.012568345 -0.19128312 0.00998138 -0.012773775 -0.02531748 -0.118721396 -0.035456665 -0.124073155
-0.0058435192 -0.0073044165 0.0021360258 0.17878795 -0.043227628 0.08757439 -0.031973813 -0.1556081
-0.029598905 0.21617402 0.31287348 -0.032028314 -0.026013277 0.15311192 0.13389422 0.34099513
-0.1057556 -0.063957416 -0.56501263 -0.12522316 0.24311997 -0.0693179 -0.110040955 0.049655125
0.12849644 0.20351255 0.039188266 -0.014274227 -0.019804455 0.14723384 -0.08522981 -0.28849527
0.5216284 -0.14542438 0.25019994 0.63578683 -0.1065649 0.18381895 -0.12765823 -0.27582797
-0.8930667 -0.033446897 0.24970697 -0.16791147 -0.11525109 -0.006793315 -0.32181934 -0.018476201
0.10383373 0.10021774 0.06327805 -0.12390102 -0.10281034 -0.58213246 0.09934122 -0.07623081

decoder.weight_ih_l0 f4 [320, 60]
00000000: d22f 63bc 3c15 9c3d d1a7 a43d d19a 2fbc
00000010: 82f7 543d bc9e 963d 01ea 0f3d 1d73 9dbc
00000020: 5da7 d53d c17d 99bd c94f babd 67cb 6e3d
00000030: 4706 b23d 1203 1bbc c098 1a3d 1854 7e3d
00000040: b0bb 213d 366f 36bd 16e8 04bd dba5 cebc
00000050: 347a a23d 332f 053d f294 a23c 9638 58bb
00000060: 887a 3d3d 5d42 2bbd 5ef4 763d a9a6 0fbd
00000070: ee08 be3b 8ca9 02bd 2eb7 963d 7fc6 4a3c
00000080: 3ee5 c23c 49b6 2d3d 3445 973d f20e f13c
00000090: 3d59 933d 5b6c ca3d cf10 343d 4a93 943d
000000a0: 8fb4 cf3c e468 adbd 02f9 c23c d621 77bd
000000b0: df50 da3c 7d44 31bc a94d 24bd 2d50 b73c
000000c0: becd 2dbd e316 a13d e954 4cbc bbd8 f5bc
000000d0: f521 49bd f4bc a2bd 5b70 c8bc 13b9 503d
000000e0: 9c93 993c b269 5e3d aec0 0e3d 7270 82bd
000000f0: 9826 0d3d 4798 79bb b545 0c3d e20d 773c
00000100: 4117 e2b9 0051 ef3b 37cc 17bc 3fa4 c03d
00000110: e755 3ebc 6e74 7b3d 580b eb3d c98f 273a
00000120: c8e6 b23d 7b77 833d 52df e33d f10e a23d
00000130: 0878 c23d 911a a23d 3bee 503c c493 843d
00000140: 69fe 883d cb14 42bb 9c99 3bbc 0332 d53c
00000150: 89bc 223e d2a5 f7bb 65f1 913d ffab 233d
00000160: e20b ab3c 0ece f23d 2e60 ac3d 1405 a13d
00000170: bff1 58bc 3cc7 203d 2c39 d53d e7c9 e53d
00000180: 332e 053e 39ff 8abc bf98 acbc 59e5 1fbd
00000190: 9371 c53d 9ca4 8c3c f15c d63d 1322 013e
000001a0: cd21 5e3d 395d bc3d 9779 5b3d 0e6b d13d
000001b0: 9b92 b63d bffc c2bb 07fb 2a3d bae3 463d
000001c0: df6d 0f3d b8f3 a53d 7a12 6b3d c660 933c
000001d0: d493 a23d dd38 f23c c1dd 41bc 56d1 a13d
000001e0: 09bd d83d 05ab e53d d2eb fb3a 7420 a03c
000001f0: f408 ac3d 19e0 e43d a6e3 123e c890 d53d
00000200: a8f0 d33d e918 083d 731c 383d 5c57 fb3d
00000210: 5cd9 0f3e 9ffa 073e 448c 95bc 83c5 edbc
00000220: 3f94 ab3c ae80 063e fea0 7d3d 4654 c2bc
00000230: 2064 143e d764 653c 0afe c63d 29de 503d
00000240: 350d 7b3d 35a8 de3d b71f 503d e249 0c3d
00000250: a14f ba3d 1d97 233d 4070 fa3d f7a5 9e3c
00000260: da92 50bb 2df2 7bbb 25bd 773d f165 ddbc
00000270: 3f84 c6bc 7082 d63d 2f50 ca3d 5ff7 b53d
00000280: 5234 38bc 7321 0e3c 5095 b73d f752 003e
00000290: a79a ccbb 3fd7 253d 679a 003d 4444 ce3c
000002a0: 9e7d b03c 1c5c ff3d a5d1 ddbb 7e87 c53b
000002b0: 1f4f d03c 1e72 873c a725 5bbd fa2d db3d
000002c0: 1aab 093b e500 cf3c 4b75 1b3d 740b 5f3d
000002d0: 165c 4a3d 808e a83b 4fa8 153d d8d7 f93b
000002e0: e318 e6bd 96a7 023d a870 e5bd 3790 6cbd
000002f0: b9a8 16bd 6615 a33d ab55 25ba 0acb 21bd
00000300: 83ad 8abc 2196 05be b973 4f3c c287 3abd
00000310: b082 0cbe 9e5a 363d 0784 eabc 912e b9bc
00000320: 1827 4dbd b03c b0bd 0d7e a6bc a4ee 9f3c
00000330: 3437 b5bd 15d6 0ebd 1048 1bbd c3c7 4bbd
00000340: 3141 14bd 49e9 09be b6c6 b43b 875a 82bc
00000350: 7500 cdbc 1d00 353c 7f9b 903b a127 043d
00000360: 6596 f8ba fb4f e33c 1231 6b3d 5e0e 8dbc
00000370: 72b9 08b9 61f3 9dbc 2859 0cbe 973b 98bd
00000380: f12e 4a3c e3dc a1bd 3373 1cbd b7f2 7abd
00000390: 5fb5 843d cfb1 08bd 4dd0 143c 4d7c 063d
000003a0: 741a 25bc 100c 7ebc d364 6ebd 1c34 b6bd
000003b0: 03a4 06be 66de 9bbd ffa8 09be 7ff2 9ebd
000003c0: cb0d 543d fdc5 c3bc 4536 1a3c 6886 823d
000003d0: 376a f93d 0d1c 9d3c 51d0 3dbc 64db a03d
000003e0: d526 9d3b edcc 4e3d ba94 9f3d a6c1 f13c
000003f0: de3a 86bc ff7d aa3d a70b 303d 1e1c 08bd
-0.013866382 0.07621238 0.08039821 -0.010718063 0.051993854 0.07354495 0.035135273 -0.01921993
0.10432313 -0.07494689 -0.09097249 0.05829945 0.086926036 -0.009461181 0.03774333 0.062091917
0.039485633 -0.044539653 -0.032447897 -0.02522557 0.07933465 0.032515716 0.019846413 -0.0032992712
0.046259433 -0.041811336 0.06029164 -0.03507105 0.0057994043 -0.031899974 0.073591575 0.012376427
0.023790952 0.04241017 0.07386246 0.029426072 0.07194755 0.098839484 0.043961342 0.07254656
0.025354652 -0.08467272 0.023800377 -0.060335003 0.02664989 -0.010819552 -0.040113125 0.022377098
-0.04243254 0.078656934 -0.012471416 -0.030010572 -0.04910465 -0.07946196 -0.024467638 0.05095775
0.018747143 0.054300018 0.034851722 -0.063691035 0.034460634 -0.003808515 0.034246165 0.0150789935
-0.00043123405 0.007303357 -0.009264997 0.094063275 -0.01161716 0.061390333 0.11476773 0.000639197
0.08735424 0.064192735 0.11126579 0.07913006 0.094955504 0.079152234 0.012752111 0.064734966
0.0668915 -0.0029614444 -0.011450198 0.026024824 0.15892233 -0.007557609 0.071261205 0.03995895
0.02087969 0.11855708 0.08416782 0.07862297 -0.0132412305 0.039252505 0.10411295 0.112201504
0.13005905 -0.016967403 -0.021068929 -0.039037082 0.09640803 0.017168336 0.10466946 0.12610655
0.054231454 0.09197468 0.053582754 0.10225497 0.089146815 -0.00595054 0.041743305 0.04855702
0.03501689 0.08103126 0.057390667 0.017990481 0.07938352 0.02956813 -0.011832655 0.07901256
0.105829306 0.1121426 0.001922006 0.019546725 0.08400145 0.11175556 0.14344653 0.104280055
0.10348636 0.03322688 0.044949006 0.12272522 0.1404776 0.13279198 -0.01825536 -0.029024845
0.020944713 0.13135025 0.061921112 -0.023721825 0.1449132 0.014001093 0.09716423 0.05099312
0.061291892 0.10871927 0.050811496 0.034250148 0.09097219 0.039939035 0.12228441 0.019366248
-0.0031825812 -0.0038443909 0.060483117 -0.027026149 -0.024232982 0.10474098 0.09878575 0.08885073
-0.011242943 0.008674967 0.08964026 0.12531649 -0.006244022 0.040488478 0.03139725 0.025179036
0.021544274 0.1246874 -0.0067693763 0.006028115 0.025428353 0.016533908 -0.053502705 0.10702129
0.0021006525 0.025268981 0.037953656 0.054454282 0.049404226 0.0051439404 0.036537465 0.0076246075
-0.112352155 0.031898104 -0.11203128 -0.05775472 -0.036782 0.07963066 -0.0006307016 -0.039500274
-0.01692844 -0.13045551 0.012661868 -0.045539625 -0.13721728 0.044520013 -0.028627409 -0.022605212
-0.05008611 -0.08605325 -0.020323778 0.019522972 -0.0884842 -0.034872133 -0.03791052 -0.049751054
-0.036194984 -0.13467897 0.0055168523 -0.015912307 -0.025024632 0.01104739 0.004413068 0.032264356
-0.001896572 0.027748099 0.057419844 -0.017218765 -0.00013039054 -0.019281091 -0.13705885 -0.07433241
0.012340293 -0.07903459 -0.0381958 -0.061266627 0.06479906 -0.033372696 0.009082866 0.032833386
-0.010077108 -0.015505806 -0.058201622 -0.08896658 -0.13148503 -0.076107785 -0.13443373 -0.07761096
0.051770967 -0.02389812 0.009412353 0.06373292 0.12178462 0.019178415 -0.011585311 0.078543454
0.004795889 0.0504884 0.07792039 0.029511284 -0.016385492 0.08324813 0.042979863 -0.03322994
